01_mlp/1_mlp.pth (torch_old, 91421 bytes, 5 tensors)

l1.weight f4 [200, 11]
0	0x3e75e544	0.24013239
1	0x3dd15e8c	0.102231115
2	0xbf4a90e6	-0.7912735
3	0x3b3109a9	0.0027013815
4	0x3e3493f3	0.17634563
5	0xbed96f33	-0.4246765
6	0x3da51dea	0.08062346
7	0xbd8943f0	-0.06702411
8	0x3ea87b37	0.32906505
9	0x3e286bd6	0.16447386
10	0xbf00a41b	-0.50250405
11	0xbe4df842	-0.20114234
12	0x3f19920e	0.59988487
13	0xbe6087ff	-0.21926878
14	0xbd3d9119	-0.046280954
15	0xbd963e75	-0.073361315
16	0x3ec805f7	0.3906705
17	0xbf520571	-0.8203955
18	0xbe7d54f6	-0.24739441
19	0xbe8d5683	-0.27605066
20	0xbd8407fb	-0.06446835
21	0xbf3e01a4	-0.74221253
22	0x3e7dc03c	0.24780363
23	0xbf10fb2c	-0.5663326
24	0x3f3f473f	0.7471809
25	0x3e767ce4	0.2407108
26	0xbe9ce89a	-0.3064621
27	0xbe916366	-0.28396147
28	0xbed6fb93	-0.4198881
29	0x3987799e	0.00025839818
30	0x3eda877d	0.42681494
31	0xbee5391f	-0.44770142
32	0xbf086b4b	-0.53288716
33	0xbd77d0ee	-0.060501985
34	0x3e019d6b	0.12657706
35	0x3ed90856	0.42389172
36	0xbd561761	-0.05226839
37	0xbe190de1	-0.149467
38	0xbf1cc222	-0.61233723
39	0x3ed5fe15	0.41795412
40	0x3de3540c	0.11100015
41	0x3cce843e	0.025209542
42	0x3ee7edaa	0.4529851
43	0xbecbd0d1	-0.39807752
44	0x3f1d3d95	0.6142209
45	0xbdbe2fdf	-0.092864744
46	0xbf10ab23	-0.56511134
47	0xbe217ffc	-0.15771478
48	0x3e8dfc41	0.27731517
49	0xbe1eef13	-0.15520887
50	0xbea15c25	-0.31515613
51	0xbe23085d	-0.15921159
52	0xbebbccc5	-0.36679664
53	0xbe733527	-0.23750745
54	0x3d8e99ea	0.069629505
55	0xbed03067	-0.40661928
56	0x3ebcc1e2	0.3686667
57	0x3ef2b63c	0.4740466
58	0x3eb3ea03	0.35139474
59	0x3d9b7b4f	0.075918786
60	0xbea3d41e	-0.3199777
61	0xbea93355	-0.33046976
62	0xbe8843b8	-0.26614165
63	0xbea71264	-0.32631218
64	0xbf2033a7	-0.62578815
65	0x3df6ca80	0.120503426
66	0xbeed41c8	-0.4633925
67	0x3f3b97a5	0.73278266
68	0x3e326700	0.17422104
69	0xbde140c9	-0.10998685
70	0xbe29c407	-0.16578685
71	0xbe3e03e6	-0.18556175
72	0xbe686861	-0.22696067
73	0x3e965f42	0.2936955
74	0x3f4bb245	0.7956889
75	0xbe450fc3	-0.19244294
76	0x3e3412ba	0.17585269
77	0xbeb40c44	-0.35165608
78	0x3e517533	0.20454864
79	0xbf1a377a	-0.602409
80	0x3d807711	0.0627271
81	0x3ef7299b	0.4827393
82	0xbe0f34ec	-0.13985032
83	0x3e1e663c	0.15468687
84	0xbe1bb97b	-0.15207474
85	0x3e0cbfb9	0.13745011
86	0x3df3e6d8	0.11909264
87	0xbe58d722	-0.21175817
88	0xbf44da0e	-0.76895225
89	0x3f1bc96d	0.60854226
90	0xbea3d89c	-0.32001197
91	0x3ed6b832	0.41937405
92	0xbee7591e	-0.4518518
93	0xbe04f67a	-0.12984648
94	0x3e9647ac	0.29351556
95	0xbe43f8c5	-0.19137867
96	0xbf2530cc	-0.64527583
97	0x3e72bb3a	0.23704234
98	0x3ea7a72d	0.32744732
99	0x3e90feeb	0.28319487
100	0xbe367a63	-0.17820124
101	0xbea4e584	-0.32206357
102	0xbcdfbd66	-0.027311992
103	0x3ee9b45c	0.45645416
104	0xbf2cd95c	-0.67519164
105	0x3e670f0e	0.22564337
106	0xbea641ee	-0.32472175
107	0xbede0252	-0.43361145
108	0xbe8c9165	-0.27454677
109	0xbdb55f39	-0.08856053
110	0x3ece86e3	0.40337285
111	0xbefca5c6	-0.49345225
112	0xbee823f0	-0.45339918
113	0xbd12d5fd	-0.035848606
114	0x3f842475	1.0323626
115	0x3f1b82a6	0.6074623
116	0xbd51bb5c	-0.05120407
117	0x3e87446d	0.26419392
118	0x3e37b8d6	0.17941603
119	0x3ebcdc15	0.3688666
120	0xbed30f6e	-0.4122271
121	0x3e726393	0.23670797
122	0x3e259089	0.16168417
123	0x3e00f6b1	0.12594105
124	0xbd97156f	-0.07377135
125	0x3f1ae67b	0.60507935
126	0xbe950cf0	-0.29111433
127	0xbeaca914	-0.33722746
128	0x3eb0631c	0.34450614
129	0x3cfc08ff	0.030766008
130	0xbdc33121	-0.09530855
131	0xbc18c885	-0.009325151
132	0xbde6430b	-0.11243256
133	0x3df4eb6c	0.11958966
134	0xbcbe91be	-0.023262855
135	0xbf4e938d	-0.80693895
136	0x3dd334c1	0.103127964
137	0x3e5c4a2b	0.21512668
138	0x3f40e5d2	0.7535068
139	0xbf068298	-0.5254302
140	0xbdf08924	-0.117449075
141	0xbf55986e	-0.83435714
142	0xbe244805	-0.16043098
143	0xbe5eacc8	-0.21745598
144	0xbf44af92	-0.768304
145	0x3e808730	0.2510314
146	0xbe8939d6	-0.26801938
147	0x3df6fb17	0.1205961
148	0x3e15a061	0.14611961
149	0x3dcd58eb	0.100267254
150	0x3e7ad7ff	0.24496458
151	0x3e6fe805	0.23428352
152	0xbf6aba9e	-0.91691005
153	0xbdb49559	-0.08817548
154	0x3dcc6668	0.0998047
155	0x3edcd299	0.43129423
156	0x3d7713e8	0.06032172
157	0xbdcbec2b	-0.09957155
158	0x3eb9347c	0.36172855
159	0x3f2035ac	0.62581897
160	0xbed373a0	-0.41299152
161	0xbed274e1	-0.41104797
162	0xbf6a4a5d	-0.9151972
163	0xbe33bf46	-0.17553434
164	0x3e8f5637	0.27995464
165	0xbead284d	-0.3381981
166	0xbeb28453	-0.3486658
167	0x3e3015ee	0.17195866
168	0x3e0b017e	0.13574788
169	0x3eb7749f	0.35831162
170	0xbf2ee9db	-0.68325585
171	0x3f19da5b	0.6009881
172	0x3d92d093	0.071686886
173	0x3ef25aed	0.47334996
174	0x3e662012	0.22473171
175	0xbe94ea4d	-0.29085007
176	0xbede31ee	-0.43397468
177	0x3cb47285	0.022027263
178	0x3e88f4bb	0.26749215
179	0xbf04e279	-0.5190807
180	0x3d921333	0.07132568
181	0xbd0d6f89	-0.034530196
182	0xbec22e8f	-0.37926146
183	0xbedd7226	-0.4325115
184	0xbe8308ef	-0.25592753
185	0x3db11c88	0.0864802
186	0xbe4db40a	-0.2008821
187	0x3e31cd15	0.17363389
188	0x3f2cfa63	0.6756956
189	0xbe21e49e	-0.15809867
190	0xba7f418e	-0.00097372464
191	0xbe546c55	-0.2074445
192	0xbedbc55b	-0.42924008
193	0xbec9a6d1	-0.39385083
194	0xbe25e209	-0.16199507
195	0xbd685473	-0.056721162
196	0xbe482dd7	-0.19548737
197	0xbe2d7ed2	-0.1694291
198	0xbe386172	-0.18005922
199	0xbe848abb	-0.25887093
200	0xbf554bc7	-0.8331875
201	0x3eedb6ab	0.46428427
202	0x3f1d4418	0.6143203
203	0xbe9d6ee1	-0.30748656
204	0xbd88d517	-0.06681269
205	0x3d74824a	0.059694566
206	0x3f104774	0.5635903
207	0x3f0a9f7f	0.5414962
208	0x3ed29933	0.41132507
209	0x3dafa884	0.08577064
210	0x3db21139	0.08694691
211	0xbf0a81ca	-0.5410429
212	0x3edb77dd	0.42864886
213	0xbca42ecf	-0.020041851
214	0x3e013782	0.12618831
215	0x3eac1274	0.3360783
216	0x3eb239db	0.34809765
217	0x3c51f02f	0.012813612
218	0xbeed8a55	-0.463946
219	0xb851052d	-4.9834303e-05
220	0x3ebd97b7	0.37029812
221	0x3ef710cc	0.48255002
222	0x3d629a45	0.055322904
223	0xbf23803f	-0.63867563
224	0x3f18c1c9	0.5967069
225	0x3f23d602	0.63998425
226	0xba7ddc0f	-0.00096839754
227	0x3e502f8f	0.20330642
228	0xbd05b2bb	-0.032641154
229	0x3ca4ca38	0.020115957
230	0xbe61b2ad	-0.22040816
231	0xbef17695	-0.47160783
232	0x3f0f917d	0.5608137
233	0x3c8cead7	0.017201824
234	0x3f2284a6	0.63483655
235	0xbed16689	-0.4089854
236	0x3e6bed56	0.23039755
237	0xbe828f82	-0.25500113
238	0x3d96347c	0.07334229
239	0x3e897930	0.2685027
240	0x3e9dfb8c	0.30855978
241	0x3e8480ee	0.25879616
242	0xbf3a1859	-0.726934
243	0x3d14d6ea	0.03633777
244	0x3ee8a6b9	0.454397
245	0xbe41c64d	-0.18923302
246	0x3db65bef	0.08904254
247	0x3e9fcc35	0.31210485
248	0xbc3224e9	-0.010873058
249	0xbeea74cd	-0.45792237
250	0xbea35092	-0.31897408
251	0xbe886b03	-0.26644143
252	0xbec7ecce	-0.39047855
253	0xbf2a04b1	-0.6641341
254	0x3e041511	0.12898661
255	0xbe8a6699	-0.270314

l1.bias f4 [200]
0	0x3d8ec931	0.06971968
1	0xbb1961d4	-0.0023404257
2	0xbea73304	-0.3265611
3	0xbe9c6b48	-0.305506
4	0xbf019e87	-0.5063252
5	0xbe1b9e91	-0.15197207
6	0x3e21fa43	0.15818124
7	0xbf3c96c9	-0.7366758
8	0xbebecd0c	-0.37265813
9	0xbc03045c	-0.007996645
10	0x3d3bb52b	0.045827072
11	0xbf035560	-0.51302147
12	0xbeea5d88	-0.45774484
13	0xbde54268	-0.111943066
14	0x3e6e9771	0.23299958
15	0xbe052fb4	-0.13006479
16	0x3e153446	0.14570722
17	0xbd8fc4b0	-0.07019937
18	0xbe283f0c	-0.164303
19	0x3ec9a6fc	0.3938521
20	0x3e6f84bd	0.2339048
21	0x3ed85af3	0.4225689
22	0xbe6fd2d6	-0.23420271
23	0xbe5fdb84	-0.21861082
24	0xbe93be3e	-0.2885608
25	0xbec34701	-0.3814011
26	0x3ddf54d9	0.10904855
27	0x3cfbe875	0.030750493
28	0xbe945520	-0.28971195
29	0xbe76b969	-0.24094166
30	0x3ea699ae	0.32539123
31	0xbf3534cd	-0.7078369
32	0x3d9a509a	0.07534905
33	0xbe2cfd8f	-0.168936
34	0xbeafeea0	-0.34361744
35	0x3ea76afd	0.32698813
36	0xbf070b4b	-0.52751607
37	0xbd7dfff3	-0.06201167
38	0xbf3dcd79	-0.7414165
39	0x3e481246	0.19538221
40	0xbec62fe2	-0.38708407
41	0xbe514f2b	-0.20440356
42	0x3ee3dcee	0.44504493
43	0xbddf5799	-0.1090538
44	0xbcb0e552	-0.021593723
45	0x3cfcf23f	0.03087723
46	0xbedd90d2	-0.43274552
47	0xbdd3fdd0	-0.10351145
48	0x3d849903	0.06474497
49	0x3e283bfc	0.16429132
50	0xbe45977e	-0.19296071
51	0x3e8ad42d	0.27115002
52	0x3ea0e59a	0.31425172
53	0x3c2291d4	0.009922463
54	0xbdef2b2e	-0.11678158
55	0x3ea1b7b4	0.31585467
56	0xbe54f9c0	-0.20798397
57	0x3cbc0025	0.022949288
58	0x3f0f4436	0.55963457
59	0x3e7ea0d9	0.24866046
60	0xbec808f2	-0.39069325
61	0xbebe2307	-0.371361
62	0xbe8369f0	-0.2566676
63	0x3e88b0e3	0.26697454
64	0xbf1b8184	-0.607445
65	0x3eb47807	0.35247824
66	0xbef4fb4b	-0.4784797
67	0xbe3f94a3	-0.18709044
68	0x3c927d1b	0.01788192
69	0xbf2f959d	-0.68587667
70	0x3ec5b02a	0.38610965
71	0x3e7b4ab4	0.24540216
72	0xbeff3348	-0.49843812
73	0x3dd0ae80	0.10189533
74	0x3e15a6c7	0.14614402
75	0xbeb6e2fa	-0.35720044
76	0x3ebde216	0.37086552
77	0xbe82ad02	-0.2552262
78	0xbe4c5cbb	-0.19957249
79	0xbede6405	-0.43435684
80	0xbf10ea05	-0.56607085
81	0xbe9270eb	-0.28601775
82	0x3eaf2f1a	0.34215623
83	0xbe8f25be	-0.27958483
84	0x3eaa0082	0.33203512
85	0xbf302a16	-0.6881422
86	0xbe330cb3	-0.17485313
87	0xbeb6d4f6	-0.3570935
88	0x3ecd6670	0.40117216
89	0xbe4e4169	-0.2014214
90	0xbe94cd85	-0.2906305
91	0x3e53c922	0.20682195
92	0xbcd29a41	-0.02570832
93	0xbe90f749	-0.28313664
94	0x3f0857e4	0.5325911
95	0x3e05f291	0.13080813
96	0xbf1b1bae	-0.6058911
97	0x3cf1585e	0.029461082
98	0x3edcbb6a	0.43111736
99	0xbd8b63fe	-0.06806181
100	0x3e20e6b8	0.15713012
101	0xbe2db8dd	-0.16965051
102	0xbd25d60d	-0.040487338
103	0x3c4782cd	0.012177181
104	0xbf42ffc7	-0.76171535
105	0x3ec44a42	0.38337904
106	0xbe8b9bf3	-0.27267417
107	0xbebe6e31	-0.37193444
108	0xbe5c67a4	-0.21523911
109	0xbe515d79	-0.20445813
110	0x3b03c6cb	0.0020107504
111	0xbf006a5e	-0.50162303
112	0xbeeeb94f	-0.46625754
113	0xbeb0384c	-0.3441795
114	0xbe724f15	-0.2366298
115	0x3d0b53f2	0.034015603
116	0x3d8b42b4	0.06799832
117	0xbe57d217	-0.21076237
118	0x3e70639e	0.23475501
119	0x3e702049	0.23449816
120	0x3ed2f9ee	0.41206306
121	0xbee9f046	-0.45691127
122	0xbc8b482c	-0.017002188
123	0xbf494af7	-0.7863001
124	0x3e9ad9f0	0.30244398
125	0xbf42aaf5	-0.7604211
126	0xbec01681	-0.3751717
127	0xbed1b90a	-0.40961486
128	0x3eb74f6e	0.35802788
129	0x3e13f508	0.14448941
130	0xbe622c82	-0.22087291
131	0xbdd25c3e	-0.102715
132	0x3d8c1b20	0.06841111
133	0xbe25ce7e	-0.16192052
134	0xbec99cc6	-0.3937742
135	0x3dd47321	0.103735216
136	0xbf1d75af	-0.61507696
137	0x3dddba4c	0.10826549
138	0xbe8d660b	-0.27616915
139	0x3e867ced	0.26267186
140	0x3f2c3429	0.6726709
141	0xbf143f0d	-0.5790871
142	0xbef2aa31	-0.4739547
143	0xbe38b42e	-0.18037483
144	0x3e265542	0.16243461
145	0xbeac9649	-0.33708408
146	0xbea35288	-0.31898904
147	0xbf040f9e	-0.5158633
148	0x3dca79f0	0.09886539
149	0xbe5a1e2b	-0.2130057
150	0xbda0a62d	-0.078441955
151	0x3e433db1	0.19066502
152	0xbe32ca10	-0.17459893
153	0x3dd5c75d	0.10438416
154	0x3f20dad6	0.6283392
155	0x3e928692	0.28618294
156	0x3e80097c	0.25007236
157	0x3da347c4	0.079726726
158	0x3e85fccf	0.2616944
159	0xbf0d3baf	-0.55169195
160	0x3dfcfb34	0.12352601
161	0xbea36bbf	-0.3191814
162	0xbf526e99	-0.8220001
163	0xbe2e1968	-0.17001879
164	0x3e90dfba	0.2829569
165	0xbf1b1b2a	-0.60588324
166	0xbf803911	-1.0017415
167	0x3e1e5eb2	0.15465811
168	0xbe559201	-0.20856477
169	0xbf37d55e	-0.7180995
170	0xbef53ee3	-0.4789954
171	0x3edce195	0.43140855
172	0xbdbdf3bb	-0.092750035
173	0x3d7c0141	0.061524633
174	0x3e15d7c0	0.14633083
175	0xbf03f504	-0.5154574
176	0x3e4cede7	0.20012628
177	0xbee1bcc1	-0.4408932
178	0xbe288da8	-0.16460288
179	0xbe83ddb5	-0.25755087
180	0x3f24c620	0.64364815
181	0xbe7a711d	-0.24457212
182	0xbcc6ad32	-0.024252508
183	0x3e7e11af	0.24811433
184	0xbe0572f6	-0.13032135
185	0xbda185b4	-0.0788683
186	0x3e039e05	0.12853248
187	0xbe8b8920	-0.27253056
188	0xbe809c23	-0.25119123
189	0x3e0476bc	0.12935919
190	0x3e07babb	0.13254826
191	0xbe84cc6e	-0.25937217
192	0x3e84817f	0.25880048
193	0xbed798fb	-0.42108902
194	0x3f02a16a	0.5102755
195	0xbf2740ac	-0.65333056
196	0x3f19137c	0.59795356
197	0xbe8b701a	-0.27233964
198	0xbf26d80d	-0.6517342
199	0xbe7fa809	-0.24966444

l2.weight f4 [100, 200]
0	0x3dd54275	0.10413066
1	0x3e0d8354	0.13819629
2	0x3c7cb48d	0.015423906
3	0x3ed19328	0.40932584
4	0x3edb8ab1	0.4287925
5	0x3e8c3311	0.2738271
6	0xbcb4a8ea	-0.0220532
7	0xbe24636c	-0.16053551
8	0xbee778a2	-0.45209223
9	0xbcd22a8b	-0.025655052
10	0xbe1c26c0	-0.15249157
11	0x3e1ae261	0.15125419
12	0xbef852d5	-0.48500696
13	0xbec6bf41	-0.3881779
14	0x3d802727	0.06257468
15	0xbe4de3f8	-0.20106494
16	0xbe6d7ad6	-0.2319139
17	0xbe6eb552	-0.23311356
18	0x3dd88556	0.10572307
19	0x3e046c98	0.1293205
20	0x3e602cf2	0.21892145
21	0x3d4faefb	0.050703984
22	0x3ea186c8	0.31548142
23	0xbed3cf5c	-0.4136914
24	0xbe4caff2	-0.19988993
25	0x3e35cd19	0.1775402
26	0x3e3ae1c7	0.1825019
27	0x3d18a0a2	0.037262566
28	0xbd8c19aa	-0.068408325
29	0xbe138461	-0.14405967
30	0xbef6b326	-0.48183554
31	0xbe8ab170	-0.270885
32	0x3b7427ba	0.0037255124
33	0xbe5107be	-0.2041311
34	0xbe949d93	-0.2902647
35	0xbc9588dd	-0.018253738
36	0x3e25710e	0.16156408
37	0x3e2fd434	0.17170793
38	0x3e86add6	0.263045
39	0x3dc9c510	0.0985204
40	0xbf0c31a8	-0.5476327
41	0xbe6286f8	-0.22121799
42	0xbd9eb08a	-0.07748516
43	0xbe88ad68	-0.26694798
44	0x3e8533ae	0.2601599
45	0xbdfa00f1	-0.12207211
46	0x3ebe8f3d	0.37218657
47	0x3eb9c191	0.36280492
48	0xbe1bede5	-0.15227468
49	0x3d68ad92	0.056806155
50	0xbe56a1c1	-0.20960142
51	0x3e059dd2	0.13048485
52	0x3c16ce6f	0.009204491
53	0x3e98b9ea	0.2982934
54	0xbe75baef	-0.23997091
55	0x3e250e61	0.16118766
56	0x3d863c50	0.065544724
57	0x3e93fdcf	0.28904578
58	0xbe847280	-0.25868607
59	0xbe6a1114	-0.22858077
60	0xbdddffb1	-0.10839785
61	0xbe8ba97a	-0.27277738
62	0x3ceea489	0.02913119
63	0x3cccce15	0.025000611
64	0xbe936f53	-0.2879587
65	0xbd91b725	-0.0711501
66	0xbeaef45e	-0.34170812
67	0xbe60c6a5	-0.21950777
68	0xbdf59634	-0.119915396
69	0xbe3a7cc0	-0.18211651
70	0x3e8c438e	0.2739529
71	0x3e761a4c	0.24033469
72	0x3f2ba450	0.67047596
73	0xbe03f74d	-0.12887307
74	0x3e7f5a98	0.24936903
75	0xbe4c01d4	-0.19922572
76	0xbeea9671	-0.45817903
77	0xbead9903	-0.339058
78	0x3f1cf9d8	0.6131873
79	0xbe0fae0f	-0.14031242
80	0x3e818a07	0.2530062
81	0x3d2d467d	0.04230355
82	0x3e27d09a	0.16388169
83	0x3e6660c5	0.22497852
84	0x3dd66ac6	0.10469584
85	0xbe915c6d	-0.28390828
86	0xbdcd80bd	-0.100343205
87	0x3ea1b326	0.31581992
88	0xbeb04dff	-0.34434506
89	0xbe19ecce	-0.1503174
90	0x3e5178a3	0.20456176
91	0xbe336623	-0.17519431
92	0x3eaedba6	0.34151953
93	0x3e25d438	0.16194236
94	0x3e0193e2	0.12654069
95	0xbe3361c0	-0.17517757
96	0xbecb9b84	-0.39767087
97	0x3e806a86	0.2508127
98	0x3d8b9aeb	0.06816658
99	0x3ba1a475	0.004932935
100	0x3eee76c3	0.46574983
101	0xbe74a995	-0.23892815
102	0x3c08b1a6	0.008343136
103	0x3d71e41f	0.059055444
104	0x3f19decf	0.60105604
105	0xbe671ffb	-0.22570793
106	0xbe21233b	-0.15736096
107	0xbe1c2d0a	-0.15251556
108	0x3e2127c8	0.15737832
109	0x3f138e82	0.57639325
110	0xbdf4a5bb	-0.11945673
111	0xbd9d6b2f	-0.07686459
112	0x3ecb5c84	0.3971902
113	0x3e4faf50	0.2028172
114	0x3e9f4d9e	0.31113905
115	0xbd2f3bd5	-0.04278167
116	0x3deab8e7	0.114610486
117	0x3ee6c4df	0.45072076
118	0x3e1a37e7	0.15060388
119	0xbe3d6c18	-0.18498266
120	0xbab9aef9	-0.0014166526
121	0x3eafdc1d	0.3434762
122	0x3e988300	0.29787445
123	0x3f3f8925	0.7481864
124	0xbea9d612	-0.33171135
125	0x3ed169bf	0.4090099
126	0xbec0da7f	-0.376667
127	0xbe59446b	-0.21217506
128	0xbdb9e284	-0.090764076
129	0xbe0478f2	-0.12936762
130	0x3ee471a8	0.44617963
131	0x3d2bc9c8	0.04194048
132	0x3e1f06cf	0.15529941
133	0xbdd4b5ae	-0.10386215
134	0xbdcc0e44	-0.099636585
135	0xbda8b19f	-0.082370035
136	0x3cb5ceeb	0.022193393
137	0x3e1cbefa	0.15307227
138	0x3f24030d	0.64067155
139	0x3de35bb3	0.111014746
140	0x3d4024d0	0.046910107
141	0xbddefc37	-0.1088795
142	0xbc962ba8	-0.018331364
143	0x3ec7fc3e	0.39059633
144	0xbddb2cc4	-0.10701898
145	0x3e91a1d8	0.2844379
146	0x3db403fb	0.08789822
147	0x3f1c8fd6	0.61156976
148	0x3edd7057	0.4324977
149	0xbe768ae1	-0.24076416
150	0x3e1d40b9	0.15356721
151	0x3e83e577	0.25761005
152	0x3f084bb3	0.5324051
153	0xbdcd2b6e	-0.10018049
154	0xbb99b5bc	-0.004690854
155	0xbdd7cb45	-0.105368175
156	0x3d9f3ade	0.077749
157	0x3dd7d6fd	0.10539053
158	0x3e8c8305	0.2744371
159	0xbedc392b	-0.43012366
160	0x3e4b9247	0.19880019
161	0x3ed02ae4	0.40657723
162	0x3beb5315	0.007181535
163	0xbdbd41f1	-0.09241093
164	0x3ddb30c2	0.10702659
165	0x3e3297e2	0.17440751
166	0x3d572882	0.052528866
167	0x3d0b266f	0.0339722
168	0x3dc9bcf7	0.09850495
169	0xbe2a2193	-0.1661437
170	0xbecb4f7a	-0.39709073
171	0x3d4103f4	0.04712291
172	0xbdbaa27b	-0.09113022
173	0x3d8a3af5	0.067495264
174	0x3de5c476	0.112191126
175	0xbf3b988b	-0.7327964
176	0x3e225945	0.15854366
177	0x3e37706a	0.17913976
178	0x3c9fdc5a	0.019514252
179	0x3d8ba05d	0.06817696
180	0xbe7d3717	-0.24728046
181	0x3e9462fb	0.28981766
182	0x3de03260	0.10947108
183	0x3e0016a3	0.12508635
184	0x3e5cad44	0.2155047
185	0x3db54f38	0.088530004
186	0xbeca00ee	-0.39453834
187	0x3df2f05e	0.11862253
188	0x3ed44434	0.41458285
189	0x3dc56648	0.09638649
190	0x3e75c2e5	0.24000128
191	0xbf5bbbc1	-0.85833365
192	0xbe97af60	-0.29625988
193	0x3ec6d820	0.38836765
194	0x3d0bd4c0	0.03413844
195	0xbef424d0	-0.47684336
196	0x3dd48d9f	0.103785746
197	0x3e2d3e39	0.16918267
198	0x3ebd916d	0.37025014
199	0x3c13370d	0.008985293
200	0xbd8557db	-0.06510898
201	0xbd048caf	-0.03236073
202	0xbdae80b8	-0.08520645
203	0x3b9ddf56	0.0048178835
204	0xbddc9347	-0.107702784
205	0x3c14f096	0.009090563
206	0xbded2ddd	-0.11581013
207	0x3a8b7860	0.0010640733
208	0xbd2a55c8	-0.041585714
209	0xbdf1adbc	-0.11800715
210	0xbd20b80b	-0.039238017
211	0xbde6cd43	-0.11269619
212	0xbd8abbed	-0.06774125
213	0xbd83252f	-0.064035766
214	0xbc1e42f5	-0.0096595185
215	0xbd13d163	-0.03608836
216	0x3be4bad6	0.0069802804
217	0xbd02ee81	-0.031965736
218	0xbd3acb8f	-0.045604285
219	0xbdc77fdb	-0.09741183
220	0xbdc95c5f	-0.098320715
221	0xbce720a2	-0.028213803
222	0xbc9b3257	-0.018944902
223	0xbcd018ae	-0.025402393
224	0xbdf8e92e	-0.121538505
225	0x3bc41c59	0.0059848246
226	0xbb4719b5	-0.0030380313
227	0xbd5bc4b1	-0.053654376
228	0xbcddad51	-0.027060183
229	0xbd7665ac	-0.060155556
230	0xbdd0fd33	-0.10204544
231	0xbdffa393	-0.12482371
232	0xbd8abb90	-0.06774056
233	0xbd451730	-0.048117816
234	0xbdd36586	-0.103220984
235	0xbde295fe	-0.11063765
236	0xbd1dc435	-0.038517196
237	0xbdfb474b	-0.122694574
238	0xbdb8fb31	-0.09032286
239	0xbc2e2ffb	-0.010631557
240	0xbdcdc81d	-0.10047934
241	0xbdf82058	-0.12115544
242	0xbba2fbbe	-0.0049738577
243	0xbd736e6d	-0.059431482
244	0xbd3c7e26	-0.046018742
245	0xbce01a35	-0.027356246
246	0xbd8f6972	-0.07002534
247	0xbd78d731	-0.060752098
248	0xbdd3fd95	-0.10351101
249	0xbc83508f	-0.016029624
250	0xbdb362b0	-0.087590575
251	0xbdea2605	-0.11433033
252	0xbdb002b8	-0.085942686
253	0xbd2550ab	-0.040360134
254	0xbda7b6a0	-0.0818913
255	0x3b87ceb7	0.0041445154

l2.bias f4 [100]
0	0xbd7bad8c	-0.061444804
1	0xbb5d447f	-0.003376275
2	0xbd56a086	-0.05239918
3	0xbdc5cbc7	-0.09658008
4	0xbdf078b8	-0.11741775
5	0xbddf9a49	-0.109180994
6	0xbdf17ea9	-0.11791737
7	0x3de044d6	0.109506294
8	0xbdfb4f7b	-0.12271019
9	0xbdb52f24	-0.08846882
10	0xbdad6ce9	-0.084680386
11	0xbde6a0c8	-0.11261135
12	0x3da871f0	0.08224857
13	0x3d7e9378	0.062152356
14	0x3deebfc9	0.11657674
15	0xbdd9c834	-0.10633889
16	0xbd4b5386	-0.0496402
17	0xbd405e13	-0.046964716
18	0xbc991bf5	-0.018690089
19	0x3e378870	0.1792314
20	0x3bedf397	0.007261704
21	0xbca4c2fa	-0.020112503
22	0xbd167a31	-0.036737625
23	0xbd364ef5	-0.044508893
24	0x3b99f710	0.0046986416
25	0xbdfb588a	-0.12272747
26	0x3dc53ee9	0.0963114
27	0xbba68fab	-0.0050830445
28	0x3ddb58c0	0.10710287
29	0xbad3bbbf	-0.0016153975
30	0xbdfb0bf6	-0.12258141
31	0xb9c61354	-0.00037779904
32	0xbd0ec2ae	-0.03485363
33	0x3ba0a1f5	0.0049021193
34	0x3e014170	0.12622619
35	0xbdfa3d5c	-0.122187346
36	0xbdc8b645	-0.0980039
37	0xbdc04a3f	-0.09389161
38	0x3d862e99	0.065518565
39	0xbcf2033d	-0.02954256
40	0x3c0cb6ac	0.008588474
41	0x3d99a2ff	0.07501792
42	0x3dbeb9c7	0.09312778
43	0x3e1d90d0	0.15387273
44	0xbdc4e5e0	-0.09614158
45	0x39b35f57	0.00034212574
46	0x3da97965	0.08275107
47	0xbd1bd78f	-0.03804737
48	0xbd16f383	-0.036853325
49	0xbcd0b479	-0.025476681
50	0x3dc2f2eb	0.09518989
51	0xbd2cf03e	-0.0422213
52	0x3e9988dd	0.2998723
53	0x3c12c535	0.008958151
54	0xbc91286c	-0.01771947
55	0xbd6709ca	-0.05640582
56	0xbc93f0fb	-0.018059244
57	0x3e3238c5	0.17404468
58	0xbdfd79e0	-0.123767614
59	0xbb9bc766	-0.0047539948
60	0xbd3c5000	-0.04597473
61	0xbd199eec	-0.037505075
62	0x3de92f23	0.11385944
63	0xbd97ef6f	-0.07418715
64	0xbdc78929	-0.09742958
65	0xbd1e0031	-0.0385744
66	0xbd834e5e	-0.06411432
67	0xbc3aec8b	-0.011408935
68	0xbcb07529	-0.021540241
69	0xbe01f46e	-0.12690899
70	0x3e0742b3	0.13209037
71	0xbda5183a	-0.080612615
72	0xbc965a91	-0.018353732
73	0x3e30c90e	0.17264196
74	0xbd940684	-0.07227805
75	0xbe0167f0	-0.12637305
76	0xbd2b9a89	-0.041895423
77	0xbd7d5f3a	-0.061858393
78	0x3e38ddc3	0.18053345
79	0x3db791ce	0.08963357
80	0x3e03f16e	0.12885067
81	0x3be9b68f	0.0071323584
82	0x3ca16e9a	0.01970606
83	0xbdc010fa	-0.09378238
84	0x3c251657	0.010076127
85	0xbd21a999	-0.03946838
86	0xbe015598	-0.12630308
87	0x3d39a3f4	0.045322374
88	0xbd80f172	-0.06296052
89	0xbd71cd79	-0.059033845
90	0xbcd56d77	-0.026053173
91	0xbdc2aa11	-0.09505094
92	0xbd0ef2d8	-0.034899563
93	0x3e2230f7	0.15838991
94	0xbe023e83	-0.12719159
95	0xbc989923	-0.018627709
96	0xbd9aee7b	-0.07565018
97	0x3eddd81a	0.43328935
98	0xbde4e5cf	-0.11176645
99	0xbdb6e470	-0.0893029

l3.weight f4 [1, 100]
0	0xbf828c2a	-1.0199025
1	0xbd47e3d0	-0.048801243
2	0xbbfbc6ae	-0.0076835966
3	0x3c954f9b	0.018226435
4	0xb97b80fc	-0.00023985276
5	0x3cf0235e	0.02931374
6	0xbd6502e7	-0.05591097
7	0x3fa7ac06	1.3099372
8	0x3a3f8c6b	0.00073069957
9	0x3ae68e8c	0.001759009
10	0xbcbeaa70	-0.02327463
11	0x3be8aed0	0.0071009174
12	0xc02640bf	-2.5977018
13	0xbf15326c	-0.5828006
14	0xbf817e41	-1.0116655
15	0xbd11c5cd	-0.03558903
16	0x3d1b6e33	0.03794689
17	0x3cee7cf9	0.029112326
18	0x3c4c46c8	0.012468047
19	0xbfc66161	-1.5498468
20	0xbd3f8f9d	-0.04676782
21	0x3bbc64d8	0.005749326
22	0xbf69a60a	-0.9126898
23	0x3c282d45	0.010264699
24	0xbc706258	-0.0146718845
25	0xbd588197	-0.05285796
26	0xbfa756eb	-1.30734
27	0xbfb03a07	-1.3767709
28	0xbfa5f491	-1.2965261
29	0x3d10c276	0.035341702
30	0xbd665b05	-0.056239147
31	0xbfdfd6fc	-1.7487483
32	0x3c5e5e20	0.013572246
33	0x3d1762e4	0.036959544
34	0xbf811129	-1.0083362
35	0x3c48850e	0.012238754
36	0xbfa31407	-1.2740487
37	0xbc6d1844	-0.014471117
38	0xbf6a618f	-0.9155511
39	0x3bad96c5	0.005297514
40	0xbd58ac02	-0.052898414
41	0xc02ce0c0	-2.7012177
42	0xbfcc75da	-1.5973465
43	0xbf78fd5e	-0.9726161
44	0x3c0bc283	0.008530262
45	0xbd5fce01	-0.05463982
46	0xc02832de	-2.6281047
47	0xc00a948d	-2.1653168
48	0x3ba61b92	0.0050692046
49	0xbf6764a1	-0.9038792
50	0xbf7a9eeb	-0.9789874
51	0xba07624a	-0.00051644875
52	0x3f96e4a8	1.178853
53	0x3c953a64	0.01821632
54	0xbd16412e	-0.036683254
55	0x400b30f5	2.174863
56	0xbf9d93bb	-1.2310709
57	0xbfffd997	-1.9988278
58	0x3f8f4daa	1.1195576
59	0xbcc69b73	-0.024244046
60	0xbd24bade	-0.040217273
61	0x3cc8d286	0.024514448
62	0xbf4e0bb7	-0.80486625
63	0xbc8f117e	-0.017464396
64	0xbf3685b5	-0.7129777
65	0xbf29e281	-0.6636124
66	0xbae5b736	-0.0017525915
67	0x3cda1f83	0.026626354
68	0xbb9fa356	-0.004871766
69	0x3d0e71d6	0.03477653
70	0xbfbcf01d	-1.4760777
71	0xbcdea219	-0.027176904
72	0xbfc73fbd	-1.5566326
73	0xc02e9b24	-2.728219
74	0xbd111056	-0.03541597
75	0x3c02df0e	0.007987751
76	0xbfa575d0	-1.2926579
77	0xbd19b489	-0.037525687
78	0x3faab9ff	1.3338012
79	0xbfa522b6	-1.2901218
80	0x3fe0532b	1.7525381
81	0xc028822f	-2.6329458
82	0xbfb0a3be	-1.379997
83	0x3a078657	0.00051698595
84	0xbfdcaa75	-1.7239519
85	0xbd2a6224	-0.0415975
86	0xba925b45	-0.0011166116
87	0xc0467037	-3.100599
88	0xbcbc8c34	-0.023016073
89	0xbd044fee	-0.03230279
90	0xbd3edf0e	-0.04659944
91	0xbfec8401	-1.8477784
92	0xbf824d75	-1.0179888
93	0xc004887a	-2.0708299
94	0xbcb84dc4	-0.022498019
95	0xbc785d7e	-0.015159009
96	0xbf70c59e	-0.9405154
97	0x40123564	2.2845087
98	0x3bc58a00	0.006028414
99	0xbf633fef	-0.8876943
