04_cnn/4_lenet5.pth (torch_old, 344828 bytes, 10 tensors)

conv1.weight f4 [16, 1, 5, 5]
00000000: 4ef1 3b3e ee7c 3f3d 4026 6e3e 89a9 743e
00000010: 081f 653e 37f2 363e f2a7 a33e 0c30 803e
00000020: b5dd 183e c831 0c3e 54d8 0ebe 9f8d 86bc
00000030: 9e89 eabd b2e9 e1bd 3b61 533e 80f2 303d
00000040: af12 55be d13e 49be ae59 a8be 4d51 9abd
00000050: 6d4f 03be 7b08 9cbe 2255 8d3b 1cfa 2fbe
00000060: a7ba a5be bfb4 b03d e1e6 ef3d 6678 273e
00000070: cb7c 403e 1aaa af3c c25c 5a3e c9a0 d43d
00000080: 3c2c 453e c0c9 df3d e81d e03d f238 1a3e
00000090: 322a 8b3c 2ae8 443e bd2b 5e3e d852 f7bb
000000a0: 4393 413e 6ffd ed3d c99a 3c3e 3603 7cbd
000000b0: 6b03 26bc c4b6 11be 74c7 d7bd de03 e33d
000000c0: 184d 713d f831 793d d98f f33d 5bd9 063e
000000d0: 000f b4bd 3497 4fbd 93e6 8a3e f5fb 413b
000000e0: 5583 2cbe 25ca c1bd f5ae d23d 832a 3b3e
000000f0: 57f8 b43d 028f 3fbe f473 64be dbaf 8abd
00000100: 5768 863d ea37 bcbd 70fd 87be 08cb f0be
00000110: 6422 9dbe c1d9 72bd 24e8 27be d955 66be
00000120: 1b4a babe fd01 e03c 3e01 dfbd 7e7e 143d
00000130: 2d7f 91bd 2ee1 91be c852 9abe b7e6 7cbe
00000140: 28a1 a7bc db47 66be bad7 18be 56e3 95be
00000150: a4b0 bebe 9a57 bdbd 38a7 63ba 7c97 c9be
00000160: 5707 a4be 1f4d acbe ee10 4cbc 28dd 2cbe
00000170: 8af2 91be d3d2 03be 0059 86be 22cb da3d
00000180: d71b 28be 82dd 59be b37e 1abd 0182 3cbe
00000190: 5513 1ebe 2b70 86be 22ab babe 0a2a 36be
000001a0: 87d4 1abe 39f9 6abe 540d 64be 45f4 c6bd
000001b0: cb94 94be 80c2 31be d4df 323e fd24 54be
000001c0: bffb ef3d 4a0a 203d 91c8 853d a45a c8bc
000001d0: ed05 82bd d9cf 6b3d 9d9b 203e 1932 903c
000001e0: d050 76bb 8b5d 163d 43b5 22be b324 21be
000001f0: ed4f 2d3e a940 493e 2d27 febc e393 a53d
00000200: 9703 81be b3cd fabd 58aa 2e3d 1d02 c83d
00000210: 4acf 793e 67f4 f2bc b477 cebe 971f a73c
00000220: 583e 563e a03d 65bd 2c5a 3ebc 1efb a3be
00000230: 4d25 ed3d a928 903e 7ff5 08be aef2 7f3e
00000240: f64a 40be 7007 5d3d 6b47 ecbd 37c6 c63d
00000250: 5f6f 323e 4c9d f63d 0d62 4abe 9ca8 c5be
00000260: fb19 f83b 891c 353e 0cd7 53be 9c12 69bd
00000270: dfb2 34be b5f8 e73d b08d 713d 612c d9bc
00000280: f2fa e4bc 1c20 c7be 1a15 a73e 684a 2bbb
00000290: 2c27 a93e cfd7 6a3e 781a a2be 3f8a 8ebb
000002a0: f55e 8a3e 432c 053e b93e 643d 3c44 ebbe
000002b0: 12fe 1e3e d80b c33e 55d3 2abd b41b a83d
000002c0: 4b1b 32be 5598 883e 2eca c2bd 0750 80bd
000002d0: 3d57 48bd 905b 1ebe 4ece e33e 4055 9cbd
000002e0: 64f8 21be 0259 913d f5f0 d5bd e6dc df3e
000002f0: 67e3 49bb a520 cebe d620 203e 228b f9be
00000300: 9d6a ec3e 3d7d b13e b358 ebbe faa2 92be
00000310: 85ea 4dbe 854a ad3e 1916 dc3e 2075 92be
00000320: 793d d3bc 15d2 d9bd 023e f1bd c98c 03be
00000330: ecb8 07be 389f e6bd 7369 67ba a69d 1b3d
00000340: 834e d2bd 9998 a63d 748d 3b3d 96d5 333d
00000350: 93d3 69be faa7 f53d b035 c7bd 7b4b 3cbe
00000360: 5c67 48be f04f 03be d7a7 c6bd 6ae3 0f3d
00000370: 9e91 27be 7e69 74be 1c5d f43c 0f0e 3cbe
00000380: c335 07be 1868 babd 8bf0 65bc 8017 31be
00000390: 7940 b5bc 42ef 86bd f921 a4be fc2e aebe
000003a0: c85e 403d 5f37 f6bc a25d 77be 7bac 0dbe
000003b0: b7ec 67be 124b 75be 8de4 ddbd 7c5b c03d
000003c0: fffc 17be 109d 0c3e b440 273e 45f8 7a3e
000003d0: cf6c 3e3e 929d f83c 98f3 f13c d97d 79bd
000003e0: 240c b6bd bfba 483e dc40 e8bd b65b 08be
000003f0: 8f1e 23be dbfe 693c 4dd0 9b3d 1150 b93d
0.18353769 0.04675 0.23256779 0.23892798 0.22375119 0.17865835 0.3196407 0.25036657
0.14928325 0.13690865 -0.1394971 -0.016424952 -0.1145203 -0.11030902 0.20642559 0.043200016
-0.20807908 -0.19652869 -0.3288092 -0.07535038 -0.12823267 -0.3047522 0.004313127 -0.17185253
-0.32368967 0.086282246 0.117139585 0.16354522 0.18797605 0.021443415 0.21324447 0.1038223
0.19255155 0.10927153 0.10943204 0.15060785 0.016987894 0.19229189 0.21696372 -0.0075477175
0.18903832 0.11620604 0.18418421 -0.0615265 -0.010132651 -0.14229876 -0.105360895 0.11084722
0.058911413 0.06083867 0.11892671 0.13168852 -0.087919235 -0.050681308 0.2712904 0.002959964
-0.16846974 -0.09462384 0.10287277 0.18277936 0.088364296 -0.18706897 -0.22309858 -0.06771823
0.0656287 -0.09190352 -0.26560545 -0.470299 -0.306903 -0.059289698 -0.16397148 -0.22493686
-0.36384663 0.027344698 -0.10888909 0.036253445 -0.07104335 -0.2849211 -0.30141282 -0.24697386
-0.020462587 -0.22488348 -0.14926043 -0.29275006 -0.3724414 -0.09245224 -0.00086842803 -0.39373386
-0.3203685 -0.3365259 -0.012455208 -0.1688124 -0.28505355 -0.12873392 -0.26239777 0.10683276
-0.1641687 -0.21275905 -0.037718486 -0.18408968 -0.15437062 -0.26257452 -0.3645869 -0.17789474
-0.15120135 -0.22946633 -0.2227071 -0.097145595 -0.2901977 -0.17359352 0.17468196 -0.20717235
0.11717939 0.039072312 0.06532396 -0.024457283 -0.063487865 0.057571266 0.15684362 0.017602013
-0.003758479 0.036710303 -0.15889458 -0.15736656 0.1692502 0.19653572 -0.03102454 0.08084848
-0.2519805 -0.12246265 0.04264292 0.09766028 0.24395481 -0.029657556 -0.403257 0.020400805
0.2092222 -0.055966973 -0.011618178 -0.32027525 0.1157938 0.2815602 -0.133749 0.24994919
-0.18778595 0.05396217 -0.115370594 0.09705775 0.17425297 0.12041721 -0.19763966 -0.386052
0.0075714565 0.17686667 -0.20687503 -0.056902513 -0.17646359 0.11326734 0.058973014 -0.02651042
-0.027951691 -0.38891685 0.32633287 -0.002613688 0.33037698 0.22933887 -0.3166082 -0.0043499763
0.2702557 0.13005166 0.05572388 -0.45950496 0.15526608 0.38094974 -0.04170545 0.08208409
-0.17393224 0.2667872 -0.09511219 -0.06265264 -0.048911322 -0.15464616 0.44493335 -0.07633448
-0.1581741 0.07097055 -0.104463495 0.4372322 -0.0030805708 -0.4025928 0.15637526 -0.48738962
0.4617509 0.34665862 -0.4596611 -0.28639966 -0.20108993 0.33845916 0.4298561 -0.28604984
-0.025786148 -0.10635773 -0.11779405 -0.12846674 -0.13254136 -0.11260837 -0.0008827664 0.037992142
-0.10268881 0.081345744 0.045789197 0.043904863 -0.22834615 0.119949296 -0.09727037 -0.18388169
-0.19570678 -0.12823462 -0.09699982 0.03512899 -0.16364142 -0.23868367 0.029829554 -0.18364738
-0.13204102 -0.091018856 -0.014034401 -0.17294121 -0.02212547 -0.065886036 -0.3205717 -0.3402022
0.04696539 -0.0300557 -0.24156812 -0.13835327 -0.22648893 -0.23954418 -0.10834608 0.09392449
-0.14842604 0.1373179 0.16333276 0.2450877 0.18596195 0.030348573 0.0295351 -0.060911033
-0.088890344 0.19602488 -0.11340496 -0.13316235 -0.15929626 0.014281954 0.076080896 0.090484746

conv1.bias f4 [16]
00000000: c1a4 d9bb 721a 5ebe c99d 1f3e 7933 96be
00000010: 012e 4abe 5061 a4bd 4a3e 773d 4e57 3dbb
00000020: 90bd b0be 3092 9ebd e35d 953c 9f2d 203d
00000030: e9b8 8ebe 8bf2 1a3e 6b3c b63e f269 06be
-0.0066419546 -0.21689776 0.15587534 -0.29336146 -0.19744112 -0.080263734 0.060362138 -0.002889115
-0.34519625 -0.07742727 0.018233245 0.039106008 -0.2787545 0.15131585 0.3559297 -0.13126352

conv2.weight f4 [32, 16, 5, 5]
00000000: 0bfc 60bd 871f 8bbd 05f4 2fbd 09e8 1c3d
00000010: 30c9 e23c f954 8cbd 9083 24bd c0ff 16bc
00000020: 9ba3 afbc cc4f 5bbb f9bf 2b3c e1ad 0d3d
00000030: 8351 bebb d62e 723d 50e8 2b3d 7421 4c3b
00000040: 74f7 cb3c 7b66 c6bb e3e7 a23d 103c b5bb
00000050: 274a 91bd 07ee e9bc 0c27 71bd 042e 623d
00000060: 6b91 913d ff99 51bd 98d9 b7bb d476 37bc
00000070: c0e1 2ebc cff7 123d 0c2c 01bd 5548 163d
00000080: 3da9 cfbc 6f6c 963c fada 883c fe73 86bb
00000090: 8073 1bbb f726 283d dac2 4e3c 2d1b d1bb
000000a0: 25a6 03bb 51b4 443d db96 fe3b e0ef d23c
000000b0: 4954 473d 655b 133d c3be 14bc 4b4a 52bc
000000c0: 6a81 16bb 0719 8aba deba 263d 71d6 17bd
000000d0: 1e53 cfbd b08d a53c b283 973c 6da1 e73b
000000e0: 3655 e4bc 2e7c 5abc a2bd 873d af5d 34bd
000000f0: 987c 223d d1a8 89bd a47b a9bd 1708 14bd
00000100: 39cd e5bc 1f88 c53c 916a e9bb 7802 a7bd
00000110: 0819 2bbd e5b6 123d ccb7 a7bc 735d 8abd
00000120: e482 87bd d0b2 2dbc 5a5a edbc b908 ea3d
00000130: 7627 74bd c048 e5bb a3bd 9b3c b962 52bd
00000140: 675e 103d 6882 273c caed a1bc 2853 b9bc
00000150: b1a4 44bd 66f9 793d 163e afbb 893e febb
00000160: 82ce 07bd 51f4 973c 5464 243d aa28 34bd
00000170: ea66 12bd ccca e6bc 8512 96bc 39fd 043d
00000180: a15e 8ebd b88b a0bd fb0c 1ebd 5420 103d
00000190: fa2a 233d 6226 2cbd c98f 4abd 589a b03c
000001a0: ed66 783c f4aa 813d 988f d43c 0468 db3c
000001b0: 18dc 873d 5dcb a5bb 389a 463b e4b5 6d3c
000001c0: ba8e f2bc 4d7d 87bc 7b7c b13c 43e4 f13c
000001d0: b105 8abc 0701 36bd 6267 24bd 1be9 05bd
000001e0: 60ac ab3d ee0e d3bc c378 6cbd 3c00 08bd
000001f0: 26be 6a3d 2c4d 123d dd90 b23b a290 ef3a
00000200: 953a cdbb 18f3 eb3c 4767 45bc cb76 243d
00000210: e6e5 ab3d 1537 413d 895a 6d3d 5ee8 25bd
00000220: 2de9 5a3d cd74 893c 730d 153d 25db 6e3c
00000230: 08ae 943c 0e22 0138 43e2 bbbb 6159 0e3d
00000240: bce3 563d 3fcd ff3b 74d8 483d 1574 d4bc
00000250: 448e 493d 2f89 5abd bb4d 163d 7849 ac3d
00000260: 721d 64bd 9580 01bd c5c7 93bd 686b 363c
00000270: b987 7e3d 8a03 07bd 138e 603d 64c9 843d
00000280: 131e 393c ece5 163d 24ed 78bd f490 90bc
00000290: 8f31 6e3d 248b ac3d f2dd 473d 1bc9 fcbc
000002a0: 49b2 85bc d1e3 203b 5e4a 923d c9f0 8abc
000002b0: 7917 36bd 2180 cdbc e958 03bd b86b 6d3d
000002c0: 7806 313d bf2c c43d ad03 f2bb be85 d63c
000002d0: 1f20 833c 788d ad3d 6438 913d faf8 a93d
000002e0: b1db 233d e043 4c3d 3445 ad3b b23a c13d
000002f0: b4fe 883b a563 4f3d a17a 443d 0e6c 143d
00000300: 85d5 cb3c b772 a43d b875 223d 7808 a73d
00000310: c577 c93c b109 8cbc 66d6 d93d a8f2 46bd
00000320: cadc 8a3d d1f7 fdbb 734a edbc 9698 1d3d
00000330: f273 883c c6fb 8b3d dbd8 493d c21f 143d
00000340: 96d0 cb3c c930 b23c 3ac5 933d 0543 1d3d
00000350: 6994 333c b951 623b 398c 6e3c 6431 183d
00000360: 13dd 8e3c 291f 49bd 41dc bc3c 77ac 2cbc
00000370: 3b41 933d d22c 8abb 88b3 1bbd d4f1 10bb
00000380: 89df 2a3d f97e aa3b 4ed1 863c da56 ab3b
00000390: 041d 5a3d 3e3c 0b3b 55e9 733d c78b 67bd
000003a0: 6d8a 8fbb 4e58 dd3c 740e 863c 046e 723d
000003b0: 4dac c53c 14b4 8ebd 58ad ab3a f8fe 50bb
000003c0: 4a4a 133d 4eaf d2bb 06ca 4fbd 6345 6abc
000003d0: fccf c9bc fe6f b43d a24a d0ba ac34 2dbd
000003e0: a544 b73c ac5e 83bc 593f 673d 04d1 7bbc
000003f0: c25c 93bd bbd1 b7bc 3709 69bd c348 1fbb
-0.054927867 -0.06793123 -0.042957325 0.038307223 0.027683824 -0.06852145 -0.04016453 -0.009216249
-0.021440318 -0.003346431 0.010482782 0.034589652 -0.005808057 0.059126697 0.041969597 0.003114787
0.024898268 -0.006054697 0.07954385 -0.0055308416 -0.070942216 -0.028555883 -0.05887513 0.055219665
0.071078144 -0.051172253 -0.005610656 -0.011197764 -0.01067394 0.03588086 -0.031536147 0.036690075
-0.025349254 0.018362252 0.016705979 -0.004103183 -0.0023719966 0.041052785 0.012619698 -0.0063814134
-0.0020088044 0.048023526 0.007769448 0.025749147 0.048664365 0.035975832 -0.009078684 -0.012835096
-0.002296532 -0.0010536023 0.040705554 -0.03706974 -0.10123275 0.020209163 0.018495414 0.007068804
-0.027872663 -0.013335271 0.066279665 -0.044034656 0.039669603 -0.06721652 -0.08275536 -0.036140528
-0.02805196 0.02411276 -0.0071232994 -0.08154768 -0.04177192 0.035818953 -0.020473383 -0.06756105
-0.06616762 -0.010601714 -0.028973747 0.11427445 -0.059607945 -0.006997198 0.019011324 -0.05136368
0.03524628 0.010223962 -0.019766707 -0.02262266 -0.048008624 0.06102886 -0.0053479774 -0.0077589196
-0.033155926 0.018549116 0.040134743 -0.043984093 -0.035742678 -0.028172873 -0.018319378 0.032468054
-0.06951643 -0.07839149 -0.038586598 0.03518708 0.039835908 -0.042028792 -0.04945353 0.021557972
0.015161258 0.06331435 0.025947377 0.026782997 0.066337764 -0.005059643 0.0030304324 0.014508698
-0.029609073 -0.01653924 0.021665802 0.029527789 -0.016848417 -0.044434574 -0.040137656 -0.03269301
0.08382487 -0.025763955 -0.057732355 -0.03320335 0.057310246 0.035718128 0.005449398 0.0018277357
-0.006263087 0.02880244 -0.012048549 0.040152352 0.08393459 0.04717167 0.05794767 -0.040504806
0.05344503 0.016779328 0.03638978 0.014578615 0.01814939 3.0787713e-05 -0.0057337596 0.034753207
0.05246328 0.0078064497 0.04903455 -0.025934258 0.04920794 -0.053353485 0.036695223 0.084124506
-0.055692144 -0.031616766 -0.072158374 0.011134006 0.062141154 -0.03296236 0.054822993 0.06483725
0.011298674 0.036840364 -0.06077303 -0.017647244 0.05815273 0.084249765 0.048795648 -0.030857613
-0.016320365 0.0024549852 0.07143091 -0.016960518 -0.04445598 -0.02508551 -0.032067213 0.057964057
0.04321906 0.09578847 -0.007385692 0.02618682 0.016006527 0.08474249 0.07090834 0.08299442
0.040004436 0.04986942 0.0052877907 0.09435023 0.0041807536 0.050632138 0.04796851 0.03623586
0.024882087 0.080296926 0.039663047 0.08155912 0.024593243 -0.017094465 0.106365964 -0.04857126
0.067803934 -0.0077504893 -0.028966164 0.038475595 0.01665685 0.06835131 0.049279075 0.0361631
0.024879735 0.021751778 0.07215352 0.038393993 0.010960677 0.0034533574 0.014559799 0.037156478
0.0174394 -0.049101982 0.023054244 -0.010539166 0.07190176 -0.004216769 -0.03801301 -0.0022116797
0.041717086 0.0052031246 0.016457226 0.0052288594 0.053250328 0.0021245624 0.059548695 -0.056529786
-0.0043805153 0.027019646 0.016364314 0.05918695 0.024130011 -0.06967941 0.0013097925 -0.0031890254
0.03595952 -0.0064295894 -0.050729774 -0.01429877 -0.024635307 0.08810423 -0.0015891383 -0.04228656
0.0223716 -0.016036354 0.056456897 -0.015369657 -0.071954265 -0.022438874 -0.056893554 -0.0024304844

conv2.bias f4 [32]
00000000: e8ca 523d 0208 db3c 9b88 af3c 2b2f 023d
00000010: 2a37 bd3d 4daf 51bd 9376 a73b 0614 da3b
00000020: 329a a6bc e1d5 6a3d 522e f2bb b7c5 fc3c
00000030: 5861 8f3c 673b 3abc 930b 50bd 81f7 d3bc
00000040: 3261 fd3a b3d5 c8bc 457e 48bd 3d02 3d3d
00000050: bb33 64bd 2bf7 863c eb5a 83bd 6b8c fcba
00000060: 78cf d63c db66 643d d2d1 ce3b 56c3 1c3c
00000070: be3a 8abb b062 b5bd 281f 2bbc 58bb 8c3d
0.051463038 0.026737217 0.021427443 0.031783264 0.09239037 -0.05119257 0.0051105707 0.006655219
-0.020337198 0.057332877 -0.0073907757 0.030855997 0.017502472 -0.011366702 -0.050792288 -0.025874855
0.0019331335 -0.024515962 -0.048948545 0.046144713 -0.055713397 0.01647528 -0.064138256 -0.0019267922
0.026221976 0.055762153 0.0063116336 0.009568056 -0.0042184284 -0.08856714 -0.01044444 0.068716705

fc1.weight f4 [120, 512]
00000000: 2b1e 54bd 2e52 bebc 7cec 2dbc eab5 773d
00000010: dd9d 613c c05f a9bc f774 4d3d d553 963d
00000020: a32d 453d 16b0 09bd 8ef2 ddbc 1d9b 053c
00000030: 9494 163c 1d6d 9dbc 5d4c c23c 4fde debc
00000040: 1ce1 45bb 6ec1 383c 24a1 833b ef20 24bd
00000050: cc4d a9bc 5520 f0bc 7e58 81bb 3ec6 193d
00000060: be9c e23c 00ce 173d 1d53 24bb 8850 ba3c
00000070: ab2f c5bb 233d 5e3c 400c 003d b997 cfbc
00000080: d5be 83bc 4983 5b3c 3ef8 cbbc bd90 413d
00000090: d3e5 cf3c dc13 463d c0c7 b8bc e8ba 82bc
000000a0: f01e 843d 766a 5a3a 31fa 0abd 48ec 2a3d
000000b0: 5c26 bb3c b8f2 2ebd f011 2bbd 7b5d bd3c
000000c0: 41eb 19bd 8e2e 10bc fef6 dd3c e63a 95bc
000000d0: 6725 35bc 5cac 0abb 977a 1dbc 6482 593d
000000e0: eb8b 4f3c 8424 7bbd 1ea5 c43c fe00 c6bc
000000f0: c41a 17bd d33e aebc 429a c03c c036 503c
00000100: 5a74 bebc 7f67 173b cd4f 03bd 8a44 653d
00000110: 6b65 b53c e4e3 973b e2f3 51bb 44db 0abc
00000120: 80ec 03bc 9e4c be3b 1109 bbbc 185b 9d3c
00000130: da0e 88bc 2c60 c83b 06f6 123c e40e 083c
00000140: b423 babc a6b2 183d 5d81 b83c 4e16 3a3d
00000150: cde9 cdbc 6660 d2bc 25c0 1ebd 626f e6bc
00000160: 29e1 6cbd 11c5 823c 21d0 15bd 87a6 d4bd
00000170: 77d0 81bc 89ad f73b d22c 843c 28a0 9abc
00000180: 64ff 0b3d 782e e83c 0d92 27bd 63a3 46bc
00000190: 08cd 2bbd fdb8 1ebd 6dee 123b 5fa9 663b
000001a0: eb36 ddbc 27b2 143c 21f1 f8bc 2581 30bd
000001b0: c55d f33c fa74 90bb b89f 35bd c953 033c
000001c0: a5f7 d4bc 01ec b5bc 7596 5cbc 348e 89bb
000001d0: c395 293d 7675 85bc 70da 63bb e9b9 adba
000001e0: f92c 00bc 197a 28bd 61cf cd3a a19b b9bc
000001f0: b35d 433b b89f 4a3d 7ee4 4cbc e8a1 7abc
00000200: 4cec 34bc dbc3 953c 5905 6eba 8934 2b3c
00000210: 55eb d73c c79a 463c 2432 8b3c 9f05 f5bb
00000220: f901 81bb fa96 10bb a287 01bd 4a45 523d
00000230: 2499 e2bb 1d47 c73c df53 e3bc e4d8 df3c
00000240: 0cf6 4e3b a6fd c1bb 6b00 3b3c 66b5 1a3d
00000250: 6406 6bbc 4ab2 833d f3e9 90bc 9fd6 3d3d
00000260: 025f 57bd e9ce d23c 4c51 ac3c 2aee eabc
00000270: fdb6 293d 81bb 97bc 2077 49bd 172a cfbc
00000280: f812 1cbd 7010 f23b 33d8 f7bb 1779 19bc
00000290: 0cba 00bd b7b8 3b3c 1696 fa3c 9904 50bc
000002a0: 0adc 30bd e211 2dbd 7e98 e7bc 1bb6 55bd
000002b0: 14de 053d 5453 f7bc 7522 ffbc 0b7c 1dbd
000002c0: 35a7 91bc 49b0 36bd 7fa1 2e3c afb9 083d
000002d0: c720 06bd 10de 1d3d 6bea 613c 2f5a a0bb
000002e0: b0e5 2c3c 201d 933b c18b b5bc bd25 f33c
000002f0: 32ca 3cbc afac e5bc 646d 9cbc 54cb a2bc
00000300: 74e9 bf3c 9eaf d8bc 4b2a f93c b074 243d
00000310: 732e 29bd ce93 ff3c be33 f23c f55c 44bc
00000320: 8cae b4bc 00a4 293d d008 e6bc e8a9 f33c
00000330: d76c 8bbb 4379 2ebd 95fb 963a 8bc5 48bd
00000340: 3183 50bc 2ba6 14bc c4dd 7f3c 64eb fa3a
00000350: b37d 6b3c b3b7 bb3c a664 7b3d 075e 063d
00000360: cc3b 863c b0e9 23bd 2901 cb3c 4995 eb3c
00000370: 485b b13c 63f8 6abd 3355 263d 3580 43bd
00000380: 0a4a 5dbb d981 1d3c 1fa1 62bd c9fd 6d3d
00000390: 318e e73c 8550 28bc e21f 7cba b6e3 813c
000003a0: 85e4 28bc f1c5 573d 5737 2ebc d34e 11bd
000003b0: d34f e8bc 5ddd 89bb 4530 8b3c 8f28 6d3b
000003c0: a43e 6c3c 7be7 c6bc 25ca c03c b22c 033d
000003d0: b4f2 a8bc 4c60 cd3c 3db2 e4bc 0af6 2c3d
000003e0: c731 39bd 8f73 c3bc cd91 733c b671 debb
000003f0: 9d8d 2e3c 68f4 bdbc cf70 5abc 401f debc
-0.051786583 -0.023232546 -0.010615464 0.06047622 0.013770548 -0.02067554 0.050160374 0.073402084
0.048139226 -0.033615194 -0.027093198 0.008154658 0.009190697 -0.019217068 0.023718053 -0.027205614
-0.003019399 0.011276586 0.004017012 -0.04007047 -0.02066698 -0.029312292 -0.0039473167 0.037542574
0.027662631 0.03706169 -0.0025073953 0.022743478 -0.0060176454 0.013564381 0.031261683 -0.025340902
-0.016082207 0.013398 -0.024898645 0.047257174 0.025378143 0.048358783 -0.022556186 -0.015958264
0.06451213 0.0008331904 -0.033930007 0.04172924 0.02284544 -0.042711943 -0.041765153 0.023115864
-0.03757787 -0.008800162 0.027095314 -0.018216562 -0.011056281 -0.0021159863 -0.009611747 0.053102866
0.012667636 -0.06131412 0.024004515 -0.024170395 -0.03689076 -0.021270191 0.023511056 0.012708366
-0.02324884 0.002310246 -0.032058526 0.055973567 0.022143086 0.004635321 -0.0032036235 -0.008475129
-0.008051991 0.0058074733 -0.022831472 0.019208476 -0.016608644 0.00611498 0.008969789 0.008304331
-0.022722103 0.037279747 0.022522623 0.045431428 -0.025135899 -0.025680732 -0.038757462 -0.028129283
-0.057831917 0.01596311 -0.03657544 -0.10383325 -0.015846474 0.007558529 0.016134653 -0.018875197
0.034179106 0.02834247 -0.04091077 -0.012123915 -0.04194358 -0.038750637 0.0022419945 0.0035196168
-0.027003726 0.009075678 -0.030388417 -0.04309191 0.029707799 -0.004408476 -0.044341773 0.008015581
-0.025996992 -0.022207262 -0.013463606 -0.00419786 0.04140259 -0.016291361 -0.003476765 -0.0013254258
-0.007823222 -0.041132066 0.0015702063 -0.022657217 0.0029810488 0.049468726 -0.012505649 -0.0152973905
-0.011042666 0.018281868 -0.00090797764 0.010449537 0.026357332 0.012121863 0.016991682 -0.0074774767
-0.0039370027 -0.0022062645 -0.03162349 0.05133561 -0.0069152284 0.024325902 -0.027749954 0.027325101
0.003157976 -0.00592013 0.011413674 0.03777065 -0.014344785 0.0643049 -0.01768968 0.046347257
-0.05258084 0.025733428 0.02103486 -0.028678019 0.041434277 -0.018522026 -0.049185872 -0.025288625
-0.038104028 0.0073872134 -0.0075636148 -0.009367249 -0.031427428 0.011457614 0.030589145 -0.012696409
-0.043178596 -0.042253383 -0.028270956 -0.052175622 0.032682493 -0.030191101 -0.03114436 -0.038448375
-0.017779926 -0.044601712 0.010658621 0.033380207 -0.032746103 0.038541853 0.0137888 -0.004893563
0.010552809 0.004489556 -0.022161366 0.029681081 -0.0115228165 -0.028036444 -0.01909513 -0.019872345
0.023426749 -0.026450928 0.030415675 0.040150344 -0.041304063 0.031198408 0.029565688 -0.011985053
-0.022055887 0.04141617 -0.028080374 0.029744104 -0.004254918 -0.042596113 0.0011519069 -0.049016517
-0.012726591 -0.009072821 0.015616838 0.0019143638 0.014373231 0.022914743 0.061375283 0.032804515
0.016385935 -0.040017784 0.024780827 0.028757708 0.021649972 -0.057365786 0.040608596 -0.04772969
-0.0033766055 0.009613478 -0.05532944 0.058103357 0.028266044 -0.010273104 -0.0009617788 0.015855651
-0.01030839 0.052679006 -0.010633311 -0.035475563 -0.028358376 -0.0042072968 0.01699079 0.0036187505
0.014419232 -0.0242803 0.02353389 0.032025047 -0.020623542 0.025070332 -0.027917022 0.04222683
-0.045213487 -0.023858814 0.014866305 -0.0067884577 0.01065388 -0.023187831 -0.01333256 -0.02711451

fc1.bias f4 [120]
00000000: 87d9 233a 2c4b 52bb 4fa7 0abd 8222 10bd
00000010: 7614 133d 437d 24bd 7fc6 103d d2d4 9dbc
00000020: 9534 b4bc 0bae af3c bc9d 87bc 9c4b ccbc
00000030: aefe 5f3d e8df 473d 7da3 983c cdb5 d33c
00000040: ad26 173d bcae fe3c 5107 693c a4bb 2f3c
00000050: 2207 c03c 3e3d 20b9 bbc8 823b 88b3 2e3d
00000060: 64dc 86bc 07a6 1cbd d073 c73c c8a3 22bc
00000070: e579 933d 67cc 2a3d 7875 233d bf88 793d
00000080: cfff 6d3c 5e7e 113d 9a00 cabb c442 b6bb
00000090: 834c 823b 339f 543c 1d25 2fbd 1032 08bd
000000a0: 85d6 0cbd 5ec6 133d ae0f 74bc 33a1 0dbd
000000b0: 3e09 3a3d 07b2 44bc 7ad3 1cbc bc8a 17bd
000000c0: 3bbf 08bc 46d0 f63b 0ec0 93bc fc68 4b3d
000000d0: 6467 dc3c 38fe d1bc a4cd 6cbc b56c fdbc
000000e0: b106 d53c a4f6 1f3d 6f37 133c bb59 883c
000000f0: 449e 113c a8cf 783d 5e09 d73b acf2 0f3c
00000100: 2736 04bb 0f78 013d afaf b43c 20ab 4abc
00000110: 2d2b 953d 1ccc 95bc d762 2a3c 2df5 68bd
00000120: b9d2 6f3c 370d 8dbc 1bc8 153d 8aac 9ebc
00000130: ac0e 1cbd 4fcb 1d3d e259 0abc 0400 a9bb
00000140: 0903 bfbc e1cf a13b 9fd4 113d c99f 4ebc
00000150: 606b 6fbb ecdc 8fbc 2550 0c3d ed95 2bbb
00000160: 0e45 3bbd 39d0 2e3d 646f c73b 48c3 203d
00000170: dc34 43bc 5120 053d f15d 2a3d 440f e13a
00000180: f5eb a0bc 9d8d 4d3c 1240 dbbb 3e2f debb
00000190: afef 0e3b 962f a4bb 8377 de3c f9a6 54bc
000001a0: 56d0 93bc 77f2 993c 0495 68bc 4617 aeb9
000001b0: ebc2 db3b 4204 b93c 5020 b0bc 334c 553d
000001c0: 6260 d83c 0177 0bbd 53e3 363d 1708 e4bb
000001d0: 2009 c43b a5cd 773d 2648 1bbd 1724 ec3c
0.00062503706 -0.0032088263 -0.033850964 -0.03518916 0.035908185 -0.04015852 0.03534555 -0.01926652
-0.02199773 0.021445295 -0.016554706 -0.024938397 0.05468624 0.048797518 0.018632645 0.025843525
0.03690212 0.03108918 0.014222936 0.010725889 0.023440901 -0.00015281604 0.003991214 0.042651683
-0.016462512 -0.038244274 0.024347216 -0.009926744 0.07200984 0.04169884 0.03990695 0.060921427
0.014526322 0.035520904 -0.0061646225 -0.0055621583 0.003976406 0.012977409 -0.042760003 -0.03325087
-0.03438427 0.03607785 -0.014896316 -0.03457756 0.04541897 -0.012005336 -0.009571904 -0.03699754
-0.008346374 0.0075321523 -0.018035915 0.049660668 0.02690477 -0.025633916 -0.014453325 -0.030935625
0.026004167 0.039053574 0.008985384 0.01664435 0.008887831 0.06074491 0.006562396 0.008785885
-0.002017388 0.031608637 0.022056429 -0.012369901 0.07283626 -0.018285803 0.010399542 -0.056874443
0.014637643 -0.017218215 0.03656779 -0.019369382 -0.03809993 0.03852397 -0.008444281 -0.0051574726
-0.023316877 0.004938111 0.035603162 -0.012611338 -0.0036532506 -0.017561398 0.03425612 -0.0026181892
-0.045720153 0.042679045 0.006086277 0.039248735 -0.011914458 0.032501522 0.041593496 0.0017170687
-0.019643763 0.01254597 -0.0066909874 -0.006780534 0.0021810343 -0.0050105555 0.027156597 -0.0129792625
-0.018043678 0.018792374 -0.014195684 -0.00033205206 0.0067065856 0.022585038 -0.021499783 0.052074622
0.026413146 -0.034049038 0.044650387 -0.006958972 0.005982533 0.060498852 -0.037910603 0.028825803

fc2.weight f4 [84, 120]
00000000: 10b2 cabd 63f0 7a3d 3f50 8abc f5bb fc3d
00000010: 4519 07bd 1111 1b3b be14 db3d 6f7f cbbc
00000020: bd57 533c f355 e6bd 0812 8c3d 867c ce3d
00000030: 347e 0abd bf30 57bd f111 703d a48a 84bc
00000040: fd2d 40bd 4e68 043d 2705 a2bc bf6d ad3d
00000050: d4fb 83bd f1e8 9c3d 921f 70bc 92c5 8a3c
00000060: f762 723c b4da 93bd dcca 863d 5cd6 c53c
00000070: 7162 b2bc 6903 b1bd 6657 8a3d acf6 8f3d
00000080: ae52 93bd 889e a43d e9ff 8bbd 1b72 ca3d
00000090: 7897 8cbd d85c 923d a94b 393d 1fac 27bd
000000a0: 52aa babc f6ae 43bd a853 423d 6111 9e3c
000000b0: 5820 aebd f531 72bd 3024 3b3d 45dd 083c
000000c0: e92c f9bd a840 24bc 9659 e2bd c446 b8bd
000000d0: 0bc4 42bd 9044 ebbc 6eb5 46bc 3351 c13b
000000e0: ffd9 753d 081d e7bc 896c d23d 51a7 8d3d
000000f0: 9ad0 40bd 4711 ed3d e972 2c3d addf 7b3d
00000100: 9cfd 843d 8a17 96bd 5234 b7bd d650 9cbc
00000110: 363c 763d 9fb3 7ebd 3b2d 183d cc27 a8bc
00000120: fc50 873c 16b8 22bc 5513 8f3d c034 c8bb
00000130: f2e1 bd3c e7f3 3cbd 75cd 37bd 6cf6 69bd
00000140: 1fa5 d5bb 4d2b abbd 2e1d 75bd f40d 003d
00000150: 56d4 f1ba 12c6 8c3b 6ce6 8e3d 2002 80bd
00000160: 70df ba3b 5735 c23c 61ab afbd 201c 99bd
00000170: 0bc6 efbc 552a 0d3e b8d8 8cbd e8db bb3d
00000180: 65e1 ceba 5b9a 8c3d ba10 7bbd a3ac c53c
00000190: 2bc4 f4bc 9e21 01bd 7d54 bc3d a24e e83c
000001a0: 42b5 2ebd 4104 c1bc d996 1dbd 736b 533d
000001b0: 7618 8cbd 322e 273d 02c9 083d ae5a 4fbd
000001c0: c51b a73d 5576 55bd b637 99bc 4766 a2bd
000001d0: 89d0 9f3d 6b50 873d a008 90bd ad47 c5bd
000001e0: b3e4 123d f207 a3bd 9877 edbc 76bc 263c
000001f0: b23e 543c cbdf d9bc 97e2 13be c3f8 a03d
00000200: f777 77bc 22cd 503d 88cb 243d e975 04be
00000210: 9b81 08bd b8c0 a0bc 725f 9ebd 92c7 313d
00000220: 1296 cebc 229a 40bd 5ee2 443d 315d 31bd
00000230: cdf7 ad3d 594a 3ebd 6390 c4bd 6f33 92bc
00000240: 5596 b43c 4707 1ebd 0d7d 7b3d d229 a33d
00000250: e750 f4bd ebe9 5a3d 7093 0dbc bee8 ce3d
00000260: 6c58 b6bd 545b 6dbd 5468 dd3b 20f1 e13d
00000270: f86c 313c e7ee 923d 11cd 143d f54b b9bd
00000280: 2cde bcbb 32c3 a1bd df37 97bd a1fc a13a
00000290: b0cc 4c3d a5d5 aebd a18c 1c3c d3bb 153d
000002a0: 836a 593d 7bbd b0bc a11d 1a3d 8189 563d
000002b0: b472 35bd eb87 0bbd 0704 dc3b b3aa 64bd
000002c0: 26e8 80bd 74a9 44bd 1425 3cbd 0cc0 3a3e
000002d0: 5551 f3bc 6775 393d 14d2 ab3d 4939 fb3c
000002e0: cc67 b63c 44fd 853d c10f 94bd c907 8bbb
000002f0: 5cc5 823d 7537 d83d b8c6 08bc 340b 723d
00000300: 6a72 bd3d 48ae 8b3d b8a9 da3b d10f 54bd
00000310: f996 fc3c fea3 a7bd a9b0 7bbd ef73 f4bd
00000320: 5654 0bbd 3fc5 c8bd 1883 9e3d c268 703d
00000330: 7338 81bd 348c 34bd d421 1e3d 14c1 38bd
00000340: d337 a6bc 07fa 99bd 0b22 343c b958 843d
00000350: d203 a43d f087 1dbd 49a6 8abd d2bc f7bc
00000360: 8463 da3d 485c aabd de97 d03d 8d65 dfbd
00000370: 1061 2abd 1216 d8bc 4289 a73d 6986 e83b
00000380: 1799 d5bb 174b 87bc 4092 ba3c 2e54 63bc
00000390: 1cce 97bd 4f9d fb3d 3423 46bd 1990 8fbd
000003a0: 98ce dabd c9f7 61bc 2dd5 393c 6eee b7bd
000003b0: 1d79 abbd 1d3c 483d 802b 7cbc 657d 403d
000003c0: 8ac4 913d 2cad 113d ad60 b1bd 2500 58bd
000003d0: b9c7 a73d 5e22 003d 6691 2dbd f8ce ccbd
000003e0: 1f15 393d 5512 473c 3bb0 743d 65db 8ebd
000003f0: 9026 a03d 12bd 8f3b 5b73 613c d2ff 093c
-0.09897244 0.061264407 -0.016883967 0.123405375 -0.032983083 0.0023661295 0.10697316 -0.024841039
0.012899336 -0.11246862 0.06839377 0.10082345 -0.033811763 -0.052536722 0.05861086 -0.01617939
-0.046918858 0.032326035 -0.019777847 0.08468198 -0.06444517 0.076616175 -0.014655964 0.016939912
0.014794103 -0.07219449 0.06581661 0.024150066 -0.021775456 -0.086432286 0.06754951 0.07029471
-0.07193504 0.0803805 -0.0683592 0.09885045 -0.06864828 0.07146615 0.04523817 -0.04093563
-0.022786293 -0.047774278 0.047443062 0.019295396 -0.08502263 -0.059129674 0.045688808 0.008353536
-0.12166769 -0.010025181 -0.110522434 -0.089978725 -0.047550242 -0.028719217 -0.012128217 0.0058995723
0.06002235 -0.028212085 0.10274608 0.06916679 -0.047073938 0.11575561 0.042101774 0.06149261
0.06493685 -0.073287085 -0.08945526 -0.019081514 0.060116015 -0.06218302 0.03715251 -0.02052679
0.016518109 -0.009931585 0.06986109 -0.006109804 0.023179028 -0.04613104 -0.044873673 -0.05711977
-0.006519928 -0.08357868 -0.05984228 0.031263307 -0.0018450122 0.0042960728 0.06977543 -0.06250405
0.0057029054 0.023707075 -0.0857761 -0.074760675 -0.029269239 0.1378568 -0.06877273 0.09172803
-0.0015783726 0.068653785 -0.06129525 0.024130171 -0.029878696 -0.0315262 0.09195802 0.028357808
-0.04265333 -0.023561599 -0.038473938 0.051616143 -0.06840603 0.04081554 0.03339482 -0.05062359
0.081595935 -0.052114803 -0.018703323 -0.07929664 0.07803447 0.066071354 -0.07032895 -0.09632812
0.035862636 -0.079605 -0.02898769 0.0101767685 0.012954401 -0.02659597 -0.14441906 0.078599475
-0.015104285 0.05097688 0.040233165 -0.12935604 -0.033326726 -0.019623145 -0.077330485 0.043403216
-0.025218043 -0.047021993 0.048067443 -0.043301765 0.0849453 -0.046457622 -0.09597852 -0.017846791
0.02204434 -0.03858116 0.061398555 0.07966961 -0.119294934 0.053445738 -0.008641109 0.10102986
-0.08903584 -0.057948425 0.0067568216 0.11032319 0.010829203 0.07174473 0.03632838 -0.09047691
-0.0057637896 -0.07898559 -0.073837034 0.0012358614 0.049999893 -0.08536843 0.009555013 0.036556076
0.053080093 -0.021574726 0.037625913 0.052377228 -0.044298843 -0.03406517 0.0067143473 -0.055826854
-0.06294279 -0.048013166 -0.045933798 0.18237323 -0.029701868 0.04527798 0.083896786 0.030666964
0.022266291 0.06542447 -0.07229567 -0.0042428714 0.063852996 0.105574526 -0.0083481595 0.059092715
0.092503384 0.06820351 0.006673064 -0.051772896 0.030833708 -0.08185576 -0.061447773 -0.11936175
-0.034015976 -0.09803247 0.07739848 0.058693655 -0.06309595 -0.04407902 0.03860648 -0.04510601
-0.020290291 -0.07518392 0.010994445 0.06462235 0.08008541 -0.03845972 -0.067699976 -0.030241404
0.10663512 -0.083183825 0.10185216 -0.10908041 -0.041596472 -0.026377711 0.08180477 0.007096101
-0.006518494 -0.016515298 0.022774816 -0.0138750505 -0.07412359 0.122858636 -0.048373416 -0.07009906
-0.10683936 -0.013791987 0.011342329 -0.08981024 -0.0837271 0.048885453 -0.015391231 0.046994586
0.07117565 0.03556554 -0.086610176 -0.052734513 0.08192391 0.031282775 -0.04237499 -0.10000414
0.04518616 0.012150367 0.05973838 -0.0697544 0.07819855 0.0043865526 0.013760413 0.008422809

fc2.bias f4 [84]
00000000: eb23 9b3d dc9c 323d 2bd7 2f3d 7785 85bd
00000010: 3360 813b c380 a63c ec3e 8f3c 21ef 6e3d
00000020: 9260 67bd abe3 3c3d bda6 74bd 4cf4 6f3d
00000030: 375e 893d 4535 89bd 0148 27bd 7da6 673d
00000040: a8e6 b93d fb73 dc3d c578 a1b9 b06e 713d
00000050: 1a82 7dbd 707a 6dbd f72a c1bd ef15 bf3d
00000060: ddc2 e8ba 7af8 b0bc 3fd5 d03d 215d 2e3d
00000070: 8aa9 cf3d 3398 f23d a348 473d 9a7b f53c
00000080: b99c a13d 3388 013c c029 793c e826 6cbd
00000090: 4985 b83d 3408 a4bd 9ca9 67bc 321c 843c
000000a0: a556 4f3d ffeb 5bbd 4776 a1bd cf80 8dbd
000000b0: 3723 b2bb cafd 93bd 362d d63c f785 acbd
000000c0: daf6 d03d 8d36 fcbc fb59 c33b f1be 90bd
000000d0: 08a5 1a3d 3679 9c3c 908f 903c d82e 0d3e
000000e0: a7f9 acbd 1c28 b2bc 484f bebc 5a77 8a3d
000000f0: e0f0 82bd 2f00 663d c9cd 8d3d a07a b3bc
00000100: 7c6e 053e e9cb 87bd 430a 413b 7d8a cd3d
00000110: 6986 d13c bc03 d8bb 9967 793d 96e0 78bd
00000120: ce4b 2abd 1108 3b3d 8a83 093c 1085 d5bc
00000130: f066 be3d 219f 1a3d 5296 16bd aa13 e9bc
00000140: 747f 883c 1472 073d c2d3 46bd c27e aaba
0.0757521 0.043606624 0.04292981 -0.06519597 0.0039482354 0.02032507 0.017486058 0.05833352
-0.05648858 0.04611556 -0.059729327 0.05858259 0.06707423 -0.066996135 -0.040840153 0.05655526
0.09077197 0.10764309 -0.00030798293 0.05894345 -0.061891653 -0.057978094 -0.09432023 0.093303554
-0.0017758269 -0.021602858 0.101969235 0.042569283 0.10139759 0.11845436 0.048653256 0.029966164
0.078912206 0.007906008 0.015207708 -0.05765429 0.09009797 -0.08009377 -0.014139559 0.016126726
0.05061974 -0.05369186 -0.07883888 -0.06909334 -0.005436327 -0.07226141 0.026144605 -0.08423989
0.10203333 -0.03078773 0.0059616542 -0.07067669 0.037755042 0.019100767 0.017646581 0.137874
-0.08446055 -0.021747641 -0.023231164 0.06761046 -0.063935995 0.05615252 0.06924016 -0.021909058
0.13030428 -0.0663069 0.002945558 0.1003618 0.025576787 -0.006592242 0.060889814 -0.060761057
-0.0415762 0.04566199 0.008393178 -0.026064426 0.092969775 0.037749413 -0.03676445 -0.02845176
0.016662337 0.033067778 -0.04854179 -0.0013007747

fc3.weight f4 [10, 84]
00000000: 0cce 16bb 1101 5dbd 429e 353e 876f 963c
00000010: 6cc1 553e ea37 9e3d 2d97 0fbe 67a8 2f3e
00000020: 39f1 bfbd 1437 18be 9cd4 14be 8f53 1a3c
00000030: a3f3 223d 0b80 50bd 2db6 c9bd 2e57 0e3e
00000040: 2e32 e3bd 277b 2ebc cae4 17bd 0f5d 3a3e
00000050: 4924 9c3c f724 443e 10aa 603c fd4b 5c3e
00000060: 04f2 fe3b 76fc 6d3d bdf8 44be b892 26be
00000070: 2fb5 613e ff6e 05be 2add 943d 0a13 153e
00000080: 6d3b 8e3e 3d12 70bd b970 18be 7282 113e
00000090: 0b6d 513e a90b 60bd cb49 1ebd 02dc 65be
000000a0: e6da ac3d a00a 893d 6226 d43c eb69 6dbc
000000b0: 374e 38bd b786 463d 768d f93c 516a adbd
000000c0: 776d 833c fe3e 81be e96b eebc b5ba 2c3e
000000d0: 453b 653e 2674 f83d 3d67 763d f0d8 1ebd
000000e0: c74d 17be 7524 6b3d 67d5 b23d 2f64 123e
000000f0: 5e59 d5bc 5ff7 1b3e 3fb9 13be 1765 893d
00000100: 1fea 5dbd 47e5 0d3d 6b58 b8bd d48f 4bbd
00000110: 3045 553e 4fe1 403e 2cef 0ebe 285d 063d
00000120: c9e6 69bd ff66 d7bd eb67 6a3d 7a64 41bd
00000130: 3ae0 0c3e f32d 413d ff1a 2bbe c20c 513d
00000140: 9686 153e 274e 20bd acd4 7d3d 3136 3cbe
00000150: 3959 41bb 225a 0dbe f951 dfbd 19a2 90bc
00000160: 4109 30be 4ca3 a0bd 3bdc 383e 55fc 46be
00000170: 937f f1bc bc8e 49be 68b0 f23d b737 7abd
00000180: 7f3b d7bd 063a c33c aa61 503d 6d34 0c3d
00000190: c17b 67be bf2a 14be 4dcf 913d 533f 59bd
000001a0: ae16 46bc 77f9 603d 3bda b93d 23a3 9cbe
000001b0: a724 5c3e c32a 92bd 4658 49bd cafc 553e
000001c0: cb21 56be 0c3a 79be 6114 1c3e c613 033a
000001d0: b877 39bd 8ec8 4dbe 0505 21be 46fc 2e3c
000001e0: 6cf1 333e f317 943d eb1b e93d 0a6b 12be
000001f0: 6ad5 d83c 43e2 053e 5b96 c1bd 323e 533d
00000200: e9c5 5a3d 219a c1bd 4467 1ebe ec74 063e
00000210: ac24 b43e 7ef3 1a3e 2105 b9bd 3198 76bd
00000220: e768 5c3e 0c9b cfbd 1def 77bc 9327 053e
00000230: 7109 14be 49c7 8c3d 33cd 953e e84a 2cbe
00000240: 785a 8c3c eb31 9ebd 9cce ef3d bf82 39be
00000250: cbac 073e 9c8a 15be 7d5d da3d f9cd fabc
00000260: 9992 3abe e055 713e e952 1fbe aaf3 8cbc
00000270: 8ab1 4b3d 63dc 47be 00fc b83d 8e8c 56bd
00000280: e339 3fbe 46aa 23be 753d 2fbd 52ac 1abe
00000290: 7bbe 703e eb85 2c3e c066 ae3d 92c2 253e
000002a0: db8b 313e d754 bcbd 9c56 c43d 6b62 0fbe
000002b0: b821 5bbd f3de 44bd 0f4f e9bd 44d5 29be
000002c0: 6231 a0be 0a3b cabd 501d 763d 3338 65bd
000002d0: 98ba ebbd 1fe3 983c 8360 4d3d ce39 713e
000002e0: 5c2d 3c3e 4b93 393e 4075 37bd 1e44 b0bd
000002f0: 2ee9 d0bc 8cf9 90be 7c36 a9bd 6b62 3bbd
00000300: 1551 48bd bfb7 113d 7a98 e83d e323 01be
00000310: 4b4e 8f3e 72bd 9b3e 17d6 293e d6a7 4dbd
00000320: 4661 8f3e 7a20 bd3c 3123 0fbe 302c c2be
00000330: 1e43 d73d d87a 1fbd f4ed efbc cc8c 0c3d
00000340: ccfe 9e3d cd40 123c 0411 b23c 9f61 2fbd
00000350: 1f74 e83c a56b 8bbd 1fe6 81be 235f 0d3d
00000360: d9ce 973d 129c dcbd d6b5 a5bd 7862 77be
00000370: 338b 23bd 230a 203d 2ac4 e7bd 981a 023e
00000380: dc4f fa3d 120a 86bd cc4a c1bd f9db 76bb
00000390: 5ebc e1bd d216 af3e a419 ea3d b57a 203e
000003a0: 68f3 0b3e 709d d7bd f54a 123e 0a90 03bd
000003b0: dfb3 14be a0ab 823e 2e62 0cbe c66f 0e3e
000003c0: b6e4 fe3c de42 843e df0c c3bd 4415 073e
000003d0: 6402 873e 095a 293e 1f25 e1bc 8e18 3fbe
000003e0: d491 f4bb eaf2 8bbd 3c70 bf3c 21ea 6fbe
000003f0: c07b d23d 259f 743e d426 a83d 2a0c 6f3d
-0.0023010997 -0.053956095 0.17736152 0.018363727 0.20874566 0.077255085 -0.14022513 0.17154084
-0.093721814 -0.1486476 -0.14534229 0.009419336 0.03978313 -0.05090336 -0.098492004 0.13900444
-0.110935554 -0.010649479 -0.037083425 0.18199562 0.01906027 0.19154726 0.013712421 0.21513362
0.0077803154 0.058102094 -0.19235511 -0.16266906 0.22041772 -0.13030623 0.07268746 0.14558044
0.27779713 -0.058611143 -0.1488675 0.14209917 0.20451753 -0.05469862 -0.038644593 -0.22447208
0.08440189 0.0669148 0.025897209 -0.014490585 -0.044996466 0.048468318 0.030462962 -0.08467544
0.016043408 -0.25243372 -0.02910419 0.16868098 0.22385891 0.121315286 0.06015705 -0.038781106
-0.14775763 0.057407815 0.087321095 0.1429603 -0.02604359 0.15231083 -0.14426135 0.067087345
-0.054178353 0.034642484 -0.090012394 -0.049697712 0.20827174 0.18835948 -0.13958424 0.032803684
-0.05710486 -0.10517692 0.05722801 -0.047214963 0.1375741 0.04716296 -0.16709517 0.051037557
0.14602122 -0.039137032 0.061970398 -0.18380047 -0.0029502644 -0.13803914 -0.10904307 -0.01765542
-0.1719103 -0.078436464 0.18052761 -0.19432195 -0.029479777 -0.19683355 0.11850053 -0.06108829
-0.10509395 0.023831379 0.05087439 0.034229685 -0.22605802 -0.14469431 0.071196176 -0.053038906
-0.012090368 0.05492541 0.09074827 -0.30593213 0.21498357 -0.071370624 -0.04915645 0.20897213
-0.20911328 -0.2433855 0.15242149 0.00050002 -0.04528019 -0.20096037 -0.15724571 0.010680264
0.17572564 0.072311305 0.11382278 -0.14298645 0.026468951 0.13074593 -0.09452506 0.051572986
0.053411398 -0.09453226 -0.1546908 0.1313054 0.35184228 0.15131947 -0.090341814 -0.060203735
0.21524392 -0.10136995 -0.015132693 0.13003378 -0.14456727 0.06873948 0.29258117 -0.1682545
0.017132983 -0.07724365 0.117093295 -0.18116282 0.13249509 -0.14603657 0.10662363 -0.030615794
-0.18219985 0.23567915 -0.15558971 -0.017206032 0.04972986 -0.19517665 0.0903244 -0.052380137
-0.18674426 -0.15982923 -0.04278322 -0.15104797 0.23510163 0.1684796 0.08515692 0.16187504
0.17338507 -0.091958694 0.09586832 -0.14002387 -0.053498954 -0.048064183 -0.11392032 -0.1658526
-0.31287676 -0.09874542 0.06008655 -0.0559618 -0.11510199 0.018662987 0.05014087 0.23557207
0.18376678 0.18122594 -0.044789553 -0.08606742 -0.025501814 -0.2831539 -0.08262345 -0.045748156
-0.04890545 0.035575625 0.113572076 -0.12611346 0.2798942 0.30417973 0.16585575 -0.05020889
0.280039 0.023086775 -0.13978268 -0.37924337 0.105108485 -0.038935512 -0.02928827 0.034313962
0.077634424 0.0089265825 0.02173663 -0.042817708 0.028375683 -0.06807641 -0.2537088 0.034514558
0.074125 -0.107719555 -0.08091323 -0.24158657 -0.039927673 0.039072167 -0.11316712 0.12705457
0.12222263 -0.065448895 -0.094380945 -0.0037667735 -0.11022256 0.34197098 0.11430672 0.15671809
0.13667071 -0.10528076 0.14286406 -0.03211979 -0.1452174 0.25521564 -0.13709328 0.13909826
0.031114917 0.25832266 -0.09523939 0.13191706 0.2636901 0.16538252 -0.027483521 -0.1866171
-0.007463673 -0.068334416 0.023368947 -0.23429157 0.1027751 0.23888834 0.08210531 0.05836121

fc3.bias f4 [10]
00000000: 1af1 05bd c5d0 b1bc 5576 db3d dcb4 93bb
00000010: 648b c4bd 92c1 2ebe c06f 023c e2ab 28be
00000020: e121 173e 5227 43bd
-0.032700635 -0.021705994 0.107159294 -0.004507644 -0.09596899 -0.17066029 0.007961214 -0.16471818
0.14759018 -0.04764492
