04_cnn/4_resnet.pth (torch_old, 749521 bytes, 97 tensors)

conv1.weight f4 [16, 1, 5, 5]
-0.7846417 1.777835 -1.3847941 0.3679586 0.33106932 -1.5308235 2.4658499 -0.803339
-0.07153611 0.93054444 -1.8999586 2.213103 0.14956248 -0.3787576 -0.3009671 -1.5867878
2.1298668 -0.70427513 1.0156994 -0.4719451 0.27588257 1.8051102 -1.8356737 0.72396994
0.39417347 -0.08696415 0.07152197 -0.22551844 0.63283414 -0.34345704 0.40042603 0.049469627
-1.7062036 2.292112 -0.6527355 -0.25276405 2.221039 -3.2304392 -0.69778085 1.824478
-0.07301317 1.5486377 -0.27013013 -1.5925062 0.15279707 -0.39427242 0.3719258 1.5220282
-0.7757647 -0.44469666 -0.2816138 -0.062269863 -0.5658189 0.73588836 -0.015050344 -0.83706737
0.021900704 -0.46400717 0.79983443 0.5722027 -1.2559928 0.42010096 0.24337697 -0.35821408
1.510433 -1.4710332 0.6633725 1.803519 -0.26527712 -0.7082371 -0.47691733 0.41669437
1.3008306 -1.1939297 -2.553527 0.6707096 0.2486243 -0.32184672 -0.46955964 0.13361621
-0.23016907 -0.389194 -1.1826365 -1.1992042 -0.74844414 -1.657909 -1.3952367 -1.6210638
-1.4704694 -0.93305326 0.10089883 -0.1573386 -1.1609583 -0.67710894 0.4613154 -0.46203607
0.25336325 0.24104369 0.57648283 0.4700353 1.3554232 0.78514796 -0.9053773 -0.16328089
-0.19427934 -2.053975 -2.0275328 -3.1227236 -0.4882619 0.28675416 -0.2370481 0.018858718
0.16149864 1.0463568 0.63081896 0.8054753 1.1012665 2.0219321 -0.25378144 -0.1337057
0.07914481 -0.22634752 1.8706727 -0.13545413 0.108435206 -0.057136305 0.9299482 -0.7782397
-0.7051301 -0.84334314 0.9411744 0.69164747 -0.77387846 -0.2176864 -0.687301 0.29079184
1.4149739 0.632615 -0.7818513 -1.0004125 -0.9637762 2.311529 0.6998269 -1.0379214
-1.0687016 -1.7460792 2.562109 0.24868037 -0.8098642 -0.046245407 0.07501797 0.30752626
0.59981006 1.1069119 -0.25672436 1.6496602 -0.44303745 -0.6949464 -1.6195871 -1.0478544
0.33286574 0.26460034 -1.4209337 -1.9759165 -0.771852 -1.3638403 0.24420667 2.6884463
1.1478119 0.48219466 -0.41654924 -0.62743807 -0.8757391 -0.5742339 0.44437686 0.20805115
0.69878614 0.17430395 -0.5995634 -0.0591091 -0.8657506 -0.90776956 -0.58897537 1.9249858
1.1372333 0.6893609 1.4366093 1.5527914 2.6218927 -0.26377678 0.9206681 1.0317087
0.67924005 -2.2513535 0.3191782 -0.56086785 -1.8016756 -2.0227523 -0.90785414 0.822359
-0.17597942 -0.35631806 -0.8702423 -1.2154768 0.04771694 -0.19693054 -0.23743498 -1.122101
-1.4336928 -0.34978753 -0.2613262 -0.50832486 -1.1484193 -1.477328 -0.48530582 -0.013075216
-0.41681212 -0.72834957 -0.92596424 -0.4812185 0.86793274 -0.038607523 0.2727639 -0.36254984
-0.11486187 -0.88011414 0.1599784 -1.0606313 0.0042717424 0.21246848 -0.94078904 0.5212355
0.71582276 0.46427065 0.4246122 0.17117448 0.7948681 0.7802085 0.5322961 0.12416736
-0.13851233 0.71489525 0.7730259 0.78312683 -0.30013278 -0.7588732 -0.12951837 1.4143773
0.47570398 -0.41691872 0.3122458 -0.44852096 0.06441433 -1.8196827 -2.6317604 0.55222076
00000000: 47de 48bf 1990 e33f ef40 b1bf 1265 bc3e
00000010: eb81 a93e 06f2 c3bf 7cd0 1d40 a0a7 4dbf
00000020: 8681 92bd 2938 6e3f d831 f3bf 7ba3 0d40
00000030: e826 193e 84ec c1be 5c18 9abe dd1b cbbf
00000040: bd4f 0840 604b 34bf 7002 823f caa2 f1be
00000050: 7b40 8d3e da0d e73f 5bf7 eabf 1856 393f
00000060: 1bd1 c93e 431a b2bd 1c7a 923d 4eee 66be
00000070: 6b01 223f 9ad9 afbe a404 cd3e aaa0 4a3d
00000080: e164 dabf f7b1 1240 ac19 27bf 4a6a 81be
00000090: 8125 0e40 84bf 4ec0 c4a1 32bf 7f88 e93f
000000a0: ee87 95bd c339 c63f 7f4e 8abe 3ed7 cbbf
000000b0: d676 1c3e 13de c9be 0f6d be3e d2d1 c23f
000000c0: 8498 46bf 48af e3be af2f 90be af0e 7fbd
000000d0: 82d9 10bf 2e63 3c3f b895 76bc 0c4a 56bf
000000e0: 1b69 b33c 5992 edbe f3c1 4c3f e07b 123f
000000f0: 5fc4 a0bf 7917 d73e d037 793e d667 b7be
00000100: de55 c13f d14a bcbf c8d2 293f b6d9 e63f
00000110: 67d2 87be 074f 35bf 822e f4be f758 d53e
00000120: 9e81 a63f b0d2 98bf fd6c 23c0 a0b3 2b3f
00000130: 5e97 7e3e 18c9 a4be 1f6a f0be b0d2 083e
00000140: 71b1 6bbe 7044 c7be a260 97bf 867f 99bf
00000150: 099a 3fbf 5d36 d4bf 1e97 b2bf 057f cfbf
00000160: 5738 bcbf 94dc 6ebf 0ca4 ce3d 5f1d 21be
00000170: 489a 94bf 0357 2dbf 8831 ec3e fe8f ecbe
00000180: d4b8 813e 28d4 763e 6194 133f 78a8 f03e
00000190: 827e ad3f 75ff 483f cfc6 67bf 1b33 27be
000001a0: 2af1 46be 5474 03c0 19c3 01c0 b4da 47c0
000001b0: 77fd f9be 71d1 923e bdbc 72be 997d 9a3c
000001c0: e65f 253e 05ef 853f 5a7d 213f a133 4e3f
000001d0: 4df6 8c3f 5667 0140 a4ef 81be 26ea 08be
000001e0: ad16 a23d a5c7 67be 3472 ef3f 7db4 0abe
000001f0: 4713 de3d c207 6abd 1611 6e3f b83a 47bf
00000200: 6883 34bf 56e5 57bf cef0 703f cf0f 313f
00000210: e61c 46bf 2fe9 5ebe f5f2 2fbf abe2 943e
00000220: dd1d b53f 0ef3 213f 6827 48bf 840d 80bf
00000230: 09ba 76bf 17f0 1340 db27 333f 9cda 84bf
00000240: 37cb 88bf 867f dfbf 98f9 2340 11a6 7e3e
00000250: 4353 4fbf d36b 3dbd 05a3 993d 1574 9d3e
00000260: 278d 193f 4aaf 8d3f 6071 83be 1128 d33f
00000270: ced5 e2be 02e8 31bf a14e cfbf 1820 86bf
00000280: 616d aa3e b279 873e 28e1 b5bf d5ea fcbf
00000290: 1898 45bf 5292 aebf 5011 7a3e 810f 2c40
000002a0: 80eb 923f 38e2 f63e f145 d5be c89f 20bf
000002b0: 7030 60bf fe00 13bf 5d85 e33e 5c0b 553e
000002c0: a6e3 323f bc7c 323e fd7c 19bf 621c 72bd
000002d0: d5a1 5dbf 9663 68bf 17c7 16bf ef65 f63f
000002e0: dc90 913f f579 303f d0e2 b73f dec1 c63f
000002f0: 17cd 2740 c00d 87be e8b0 6b3f 080f 843f
00000300: ade2 2d3f 2d16 10c0 536b a33e 0995 0fbf
00000310: 4e9d e6bf c674 01c0 2169 68bf 1f86 523f
00000320: f333 34be 526f b6be 33c8 5ebf be94 9bbf
00000330: d772 433d 29a8 49be 2822 73be 01a1 8fbf
00000340: 3f83 b7bf 5a17 b3be 8ccc 85be 9421 02bf
00000350: 67ff 92bf 1519 bdbf 017a f8be 6e39 56bc
00000360: 6668 d5be 1e75 3abf fe0b 6dbf 4562 f6be
00000370: d730 5e3f ec22 1ebd b6a7 8b3e 22a0 b9be
00000380: b33c ebbd 294f 61bf 61d1 233e c4c2 87bf
00000390: f9f9 8b3b 5691 593e 8dd7 70bf b16f 053f
000003a0: 2940 373f e2b4 ed3e c566 d93e 5d48 2f3e
000003b0: 7a7c 4b3f bfbb 473f 8f44 083f 754b fe3d
000003c0: 2dd6 0dbe 6003 373f 06e5 453f 007b 483f
000003d0: 01ab 99be 8445 42bf 77a0 04be 510a b53f
000003e0: 798f f33e 5f76 d5be aede 9f3e 8aa4 e5be
000003f0: a9eb 833d 5deb e8bf c36e 28c0 575e 0d3f

bn1.weight f4 [16]
1.1048383 1.2948034 0.6068521 1.7639683 1.0941302 0.60722464 1.0834439 0.9104178
1.3039274 0.21023989 0.5572841 0.33254895 1.0504392 2.7632911 1.7294434 1.2223978
00000000: 576b 8d3f 1ebc a53f a95a 1b3f b7c9 e13f
00000010: 750c 8c3f 1373 1b3f 4aae 8a3f 2411 693f
00000020: 18e7 a63f 2049 573e 2caa 0e3f db43 aa3e
00000030: cb74 863f c3d9 3040 675e dd3f 8877 9c3f

bn1.bias f4 [16]
-0.667072 -0.5069946 -0.08606116 -2.9508893 -0.123102516 0.18748355 -1.3918903 -0.40304318
-2.0722575 -1.240453 -0.39032528 -0.7543651 -0.65379035 -2.3677502 0.7160635 -0.26136714
00000000: 3bc5 2abf 66ca 01bf d540 b0bd 5fdb 3cc0
00000010: 2c1d fcbd b0fb 3f3e 7629 b2bf ad5b cebe
00000020: de9f 04c0 2ac7 9ebf b7d8 c7be 121e 41bf
00000030: ce5e 27bf 3889 17c0 f04f 373f ead1 85be

bn1.running_mean f4 [16]
-0.84792435 -0.30309963 0.26076648 1.9782606 0.3275433 -0.3553652 0.6313291 -0.668172
2.4093776 -1.1666604 -0.31548506 -0.24559225 -0.022980915 1.6478425 0.31023383 -0.11082338
00000000: 9211 59bf e02f 9bbe 2f83 853e a537 fd3f
00000010: c1b3 a73e 6df2 b5be c99e 213f 520d 2bbf
00000020: 3e33 1a40 2155 95bf 4287 a1be 897c 7bbe
00000030: 7942 bcbc 81ec d23f f8d6 9e3e 5ef7 e2bd

bn1.running_var f4 [16]
2.7346504 0.675179 0.64701927 10.032832 1.3210438 1.6674455 1.7891364 2.3628213
15.048076 3.6152658 1.221762 1.7767363 1.4344757 9.388505 1.9204531 1.3301638
00000000: 8304 2f40 88d8 2c3f 0ea3 253f 7b86 2041
00000010: f717 a93f db6e d53f 6c02 e53f 7738 1740
00000020: ebc4 7041 8460 6740 b262 9c3f 186c e33f
00000030: e69c b73f 5137 1641 68d1 f53f cf42 aa3f

group1.group.0.conv1.weight f4 [16, 16, 3, 3]
-0.1536627 -1.2187651 -0.17278239 -1.4272606 -3.2248542 -0.5812177 -1.3855032 -2.758385
-0.30718356 1.1444255 0.72899514 -0.35796994 -1.0469905 -1.0999833 0.39783895 -3.5567827
-2.1045694 1.067339 -1.264329 -1.4356086 -0.33610272 -3.3079007 -1.346808 -0.24402075
-3.844927 -1.1596168 -0.95307964 -0.00064498396 1.1274202 1.2083459 1.5510159 1.0762931
0.30509248 0.76780087 0.11362697 0.5787639 0.6419814 1.2612292 0.5336485 -0.5756334
0.8068416 -0.9377399 1.7624485 2.1963255 -0.1213865 1.4548436 0.2874831 0.26758957
-0.4596314 -0.8273509 -0.11598173 -1.406418 -0.90962774 -0.4092339 1.5718964 0.50187564
0.7406283 0.81259954 1.0085019 -1.4416561 0.6848018 0.74593705 -1.0147054 2.50227
1.167603 -0.48530227 0.7332563 -0.16118 -1.2579973 -0.8287814 -1.1868981 -1.1169487
0.4815025 1.2633302 0.7999017 0.7621575 0.891602 0.28362584 0.11988471 -0.0071325256
0.49814686 0.13278328 -0.080633715 0.40786672 -1.1045542 -0.6768937 -0.38031337 -0.23619887
-0.2873806 0.3140739 1.1143556 1.3922846 1.4347752 0.10635181 -0.7042118 -0.5289866
0.6414091 -0.8340561 -1.5390748 0.17571563 0.2789321 0.02574964 -0.35021272 -0.5218294
-1.0120159 1.4648328 0.38539562 -0.6255521 0.10265217 -0.51278776 -0.7224578 0.35446033
0.2983637 -0.33390355 -1.8538625 -1.3173009 -1.3827453 -1.0570066 -0.91967076 -0.5309097
-0.10091868 0.19624671 0.6719749 -0.8542578 -0.77794975 0.22543897 0.23162124 -0.031066941
-0.20283134 -5.132951 -0.2978402 0.48379117 -5.469509 0.49709228 -0.39942753 1.427684
0.39270627 0.51184326 -2.0051763 -0.03388274 -0.12747529 -3.4294984 0.73316705 -0.122250296
-0.6776359 0.58282834 1.5078158 -1.5233763 0.28497383 1.0862525 -0.55499667 0.77676445
-0.3970985 -0.31786895 -0.4606825 -0.7485385 -0.36755452 0.8659106 -0.9142704 0.03148003
0.17268448 -1.1695185 -0.03373883 -0.22882126 0.4319078 -0.4429678 -0.02011628 -0.11090169
0.016734036 0.13331233 -0.7352819 0.84661275 0.9630686 -1.1751739 1.0479747 1.4116238
-0.7112992 -0.16692452 1.8013011 2.0876324 0.21173067 -0.4614104 -1.2823325 -0.2835526
-0.38314623 -2.0924923 1.2781062 1.575988 -0.10827416 0.09866157 -0.04023008 -0.91025543
-0.18912715 0.026338385 -2.0129511 0.031295292 0.42124438 -1.9995327 0.07762806 -0.9808511
-1.7479558 0.3149806 -0.9146952 -2.1956398 1.1368167 -0.043681502 -0.97886896 0.0722592
-0.80770445 -1.0911661 0.17639175 -1.2100005 -1.3019506 -0.85190105 -1.2402346 -1.7516494
1.6695119 0.8229341 -1.4968135 1.9660827 1.6805851 -0.4756593 0.9476208 2.0406733
1.3268614 -1.8742554 -1.278647 -1.1663079 -2.4356308 -0.78410363 -0.4059035 -1.2409372
-0.7301715 -0.394605 -0.44197068 -0.5379946 -0.9081194 0.4904064 -0.097930074 -1.1772406
1.1109807 0.46574956 -0.76326907 0.5112482 -0.5363549 -2.3844023 0.6220749 -0.03169252
-1.9200925 0.97289073 0.8759185 -0.5369985 -1.7400035 1.0550318 1.098364 -0.42821553
00000000: c159 1dbe 7f00 9cbf deed 30be 7ab0 b6bf
00000010: 0364 4ec0 afca 14bf 2b58 b1bf 6189 30c0
00000020: 2a47 9dbe 897c 923f 6d9f 3a3f d647 b7be
00000030: c903 86bf 41cc 8cbf 8cb1 cb3e 54a2 63c0
00000040: 44b1 06c0 909e 883f 88d5 a1bf 06c2 b7bf
00000050: a815 acbe a5b4 53c0 3464 acbf 93e0 79be
00000060: 4913 76c0 536e 94bf 07fd 73bf 2414 29ba
00000070: 4e4f 903f 14ab 9a3f b087 c63f f9c3 893f
00000080: 1535 9c3e 998e 443f 42b5 e83d df29 143f
00000090: e558 243f f56f a13f 309d 083f b65c 13bf
000000a0: 2c8d 4e3f b90f 70bf ea97 e13f 9990 0c40
000000b0: 7c99 f8bd 5138 ba3f fc30 933e 8001 893e
000000c0: cf54 ebbe 45cd 53bf d487 edbd 8105 b4bf
000000d0: 5ddd 68bf 1b87 d1be e733 c93f ec7a 003f
000000e0: d199 3d3f 8606 503f 9716 813f 3088 b8bf
000000f0: 2c4f 2f3f bbf5 3e3f dee1 81bf 3125 2040
00000100: 0474 953f 8a79 f8be afb6 3b3f 5f0c 25be
00000110: 0e06 a1bf 052b 54bf 47ec 97bf 2df8 8ebf
00000120: 7f87 f63e ceb4 a13f 5cc6 4c3f c11c 433f
00000130: 0740 643f 6837 913e 1d86 f53d f6b7 e9bb
00000140: 1b0d ff3e 57f8 073e 4a23 a5bd e8d3 d03e
00000150: 0862 8dbf e848 2dbf 6fb8 c2be 1ede 71be
00000160: 8d23 93be 4bce a03e 34a3 8e3f 6236 b23f
00000170: b7a6 b73f face d93d 3947 34bf aa6b 07bf
00000180: 6333 243f b384 55bf 6700 c5bf ccee 333e
00000190: 30d0 8e3e e9f0 d23c 154f b3be 9d96 05bf
000001a0: bd89 81bf a47f bb3f 9352 c53e 2f24 20bf
000001b0: 4d3b d23d 0f46 03bf fff2 38bf d37b b53e
000001c0: 20c3 983e 68f5 aabe 5e4b edbf 519d a8bf
000001d0: ccfd b0bf fe4b 87bf 8b6f 6bbf b3e9 07bf
000001e0: 74ae cebd e6f4 483e 8c06 2c3f a4b0 5abf
000001f0: b727 47bf 79d9 663e 1e2e 6d3e 1980 febc
00000200: 05b3 4fbe 2241 a4c0 837e 98be 7ab3 f73e
00000210: 3806 afc0 e182 fe3e c481 ccbe 59be b63f
00000220: cc10 c93e 2908 033f cf54 00c0 a1c8 0abd
00000230: e288 02be e77c 5bc0 d6b0 3b3f 5d5e fabd
00000240: 8c79 2dbf 3d34 153f 1c00 c13f fffd c2bf
00000250: 17e8 913e 520a 8b3f 4314 0ebf 09da 463f
00000260: 7f50 cbbe b8bf a2be 94de ebbe 38a0 3fbf
00000270: 1b30 bcbe 51ac 5d3f a00d 6abf 34f1 003d
00000280: 33d4 303e c8b2 95bf ba31 0abd 1f50 6abe
00000290: 0523 dd3e adcc e2be e6ca a4bc 6d20 e3bd
000002a0: d115 893c 0783 083e 6f3b 3cbf 9dbb 583f
000002b0: aa8b 763f 196c 96bf 0924 863f 17b0 b43f
000002c0: b417 36bf 43ee 2abe 0991 e63f c59b 0540
000002d0: edcf 583e fc3d ecbe 7923 a4bf ce2d 91be
000002e0: be2b c4be 65eb 05c0 fc98 a33f fab9 c93f
000002f0: d8be ddbd 140f ca3d 4cc8 24bd 8006 69bf
00000300: 8caa 41be 99c3 d73c 31d4 00c0 7e2f 003d
00000310: 58ad d73e b0f0 ffbf 76fb 9e3d 0f19 7bbf
00000320: 04bd dfbf 2345 a13e 7729 6abf 5d85 0cc0
00000330: 3683 913f 60eb 32bd 2897 7abf a2fc 933d
00000340: b8c5 4ebf 55ab 8bbf 0aa0 343e 4ce1 9abf
00000350: 51a6 a6bf 3016 5abf 02c0 9ebf 0c36 e0bf
00000360: 91b2 d53f cfab 523f 9697 bfbf 99a8 fb3f
00000370: 6a1d d73f 9e89 f3be 4797 723f 649a 0240
00000380: 98d6 a93f 9ae7 efbf b4aa a3bf 9449 95bf
00000390: 60e1 1bc0 04bb 48bf 95d2 cfbe 08d7 9ebf
000003a0: 85ec 3abf ab09 cabe fb49 e2be 04ba 09bf
000003b0: 837a 68bf 8c16 fb3e 908f c8bd d2af 96bf
000003c0: 9e34 8e3f ba76 ee3e 9a65 43bf 29e1 023f
000003d0: 8e4e 09bf 0c9a 18c0 4d40 1f3f 04d0 01bd
000003e0: 97c5 f5bf 5e0f 793f 323c 603f bc78 09bf
000003f0: 6fb8 debf 480b 873f 3197 8c3f 113f dbbe

group1.group.0.bn1.weight f4 [16]
0.67435604 0.27474695 0.7238631 0.42454737 0.36456427 0.6012232 0.23709975 0.59273005
0.54530555 0.47159052 0.35202578 0.8432701 0.44312572 0.6183966 0.6971396 0.9716534
00000000: 99a2 2c3f a2ab 8c3e 184f 393f 465e d93e
00000010: 2ba8 ba3e c3e9 193f 47ca 723e 28bd 173f
00000020: 2599 0b3f 5074 f13e b93c b43e 8de0 573f
00000030: 60e1 e23e 3d4f 1e3f be77 323f 47be 783f

group1.group.0.bn1.bias f4 [16]
0.5596307 -0.4347419 0.4548306 -0.013282403 0.676226 0.37744272 0.2579324 1.4182262
0.3795195 -0.7214562 0.25983274 -0.02201479 0.110599644 -0.03754662 0.5334525 -0.30143863
00000000: f543 0f3f 7e96 debe 8edf e83e 709e 59bc
00000010: 261d 2d3f 2c40 c13e b70f 843e 7088 b53f
00000020: 6150 c23e 5bb1 38bf cc08 853e 5c58 b4bc
00000030: 1182 e23d 7cca 19bd 5890 083f 2a56 9abe

group1.group.0.bn1.running_mean f4 [16]
-12.938395 14.610725 -15.0213995 -7.579088 -4.7226973 6.4454966 14.12134 -9.90568
-9.210282 7.877062 5.0634146 -4.414546 4.416133 -3.9841173 -11.431745 -5.7850447
00000000: aa03 4fc1 88c5 6941 a757 70c1 e487 f2c0
00000010: 5620 97c0 8241 ce40 02f1 6141 aa7d 1ec1
00000020: 515d 13c1 e410 fc40 7e07 a240 f643 8dc0
00000030: f650 8d40 c7fb 7ec0 6de8 36c1 161f b9c0

group1.group.0.bn1.running_var f4 [16]
63.73382 75.01496 73.76143 78.14597 53.226013 30.275497 75.37928 46.3348
70.09482 76.36061 35.7267 121.585144 59.895542 53.6895 120.15465 140.8872
00000000: 6fef 7e42 a907 9642 da85 9342 bd4a 9c42
00000010: 70e7 5442 3834 f241 31c2 9642 d656 3942
00000020: 8c30 8c42 a2b8 9842 24e8 0e42 982b f342
00000030: 0995 6f42 0cc2 5642 2e4f f042 20e3 0c43

group1.group.0.conv2.weight f4 [16, 16, 3, 3]
2.1199515 -0.41798872 0.57834375 1.5263826 -0.6800798 0.27139932 -0.6153122 -1.8645461
0.8541858 0.1456994 -0.7765948 -0.2345078 -0.45988938 -1.5650513 -2.1770337 -0.55890185
-1.037235 -1.7422472 1.2410539 0.11961977 -1.505183 0.92013973 -0.046732463 -1.9360082
1.1332669 0.2447368 -1.3356398 0.51730376 -0.5854043 -1.3255762 0.2719172 -0.42408502
-1.298021 0.11178997 -0.7500276 0.51075554 -1.170195 0.07852996 -1.0656909 -0.73227245
0.48943472 -0.35088477 -0.5242546 0.77138954 0.41265064 0.8664408 0.6437934 -0.2638186
-0.84679615 -0.7930842 0.8795651 0.4302696 0.8948324 -0.104612455 0.3419111 0.855253
0.27421942 0.0035334583 0.25329903 0.0031485967 -0.5646203 -1.0643225 -1.6779284 0.3035647
-0.83550256 -0.17686978 0.5268337 -1.1769372 -1.4172792 1.780124 -0.7182938 -1.2111276
0.8671261 -0.5387975 0.4652025 1.8393979 -0.56863403 0.40120012 -0.9121117 -2.0494132
0.17295134 -1.2717202 -0.1528584 -0.12963203 -0.45855814 -1.9806173 -2.5996513 0.13406023
-1.5926217 -2.0815392 0.6404076 0.10900713 0.114179336 -0.35080427 -1.2358456 0.0011993118
-1.3179725 -0.5225759 0.48322502 0.39795688 -0.12484111 0.5851252 0.5188255 -0.5992849
-0.474179 -0.6990424 -0.08729292 0.6924979 -1.7012502 -0.9178346 -0.7418907 0.15715003
0.17807229 -1.631487 1.3977141 -0.48150653 -0.4384534 0.29389504 0.7145186 -2.2605052
1.4554108 0.664271 -1.7850937 0.12608448 -0.0723498 -0.5298034 1.5016793 -0.7934648
0.6116131 1.0067776 -2.3368385 -0.03799158 -0.28531787 -2.655245 -0.10287871 0.18994986
-1.9502757 -0.084404156 -0.5859511 -2.3141844 -2.009334 -1.1636958 -2.5442994 -0.5704774
1.2587879 0.046832327 -0.21562321 1.5846434 -1.2864947 -0.6551199 0.62377214 -0.9246324
1.0731969 0.4823184 0.7287662 -1.0489566 0.3804422 0.35661945 -1.1228769 -0.42944294
0.029704861 -0.79321784 1.5838296 -0.080227256 -1.2910655 -0.35961437 -0.9469448 -2.2200785
-0.5405745 -0.20602007 -1.3071203 1.141361 1.317854 0.07942779 1.0601794 0.57065105
-0.8002027 -0.1895709 -1.188549 -1.0133395 -1.1166978 0.6870853 0.0552084 -2.0643532
-1.2964493 -0.90053684 -0.1837092 -0.4788773 -0.34932962 0.05158315 0.03388181 0.77095956
-0.5526637 0.14669071 0.62117714 -1.2302494 -0.55827886 1.5942407 0.50651336 -0.34675226
-2.791418 0.66725045 0.56964505 -1.3917636 -1.0952165 0.16863164 -0.35995758 0.5158324
0.5031289 1.3236452 1.1345013 0.11335775 -0.22887205 -0.17962949 1.2164258 0.77142036
-0.014802132 0.68550026 -0.64988816 1.2802361 -0.23098381 0.6048034 1.555119 -0.8093267
0.13047282 0.9317091 0.1053221 0.49772617 0.6175361 -0.4466502 -0.70799553 0.91597503
-0.5644853 0.118439786 0.21354981 0.43968856 -2.1069496 1.4937127 0.41020483 -0.39805853
-1.0952199 -0.23721667 -0.1635312 0.8147328 1.5236543 0.09127599 1.1459612 0.7617298
0.51209253 -0.66640973 0.2509686 -0.3180011 -1.1509211 -1.3452637 -2.283158 0.89895445
00000000: 49ad 0740 9e02 d6be 560e 143f 8160 c33f
00000010: b619 2ebf daf4 8a3e 1a85 1dbf 72a9 eebf
00000020: ecab 5a3f 3932 153e ebce 46bf d022 70be
00000030: 9f76 ebbe 9a53 c8bf 8554 0bc0 3114 0fbf
00000040: 1ec4 84bf f501 dfbf dbda 9e3f 36fb f43d
00000050: d6a9 c0bf 478e 6b3f 8a6a 3fbd 1ecf f7bf
00000060: e40e 913f 499c 7a3e 3ff6 aabf 056e 043f
00000070: 0edd 15bf 7bac a9bf bb38 8b3e ac21 d9be
00000080: 8d25 a6bf 24f2 e43d cf01 40bf e0c0 023f
00000090: f3c8 95bf 51d4 a03d 8f68 88bf 3576 3bbf
000000a0: 3097 fa3e 2ba7 b3be 8d35 06bf c979 453f
000000b0: f246 d33e 10cf 5d3f a5cf 243f 3b13 87be
000000c0: a2c7 58bf 9107 4bbf 2e2b 613f 4c4c dc3e
000000d0: bc13 653f 0e3f d6bd f90e af3e dcf1 5a3f
000000e0: 7d66 8c3e 9891 673b 69b0 813e b058 4e3b
000000f0: f58a 10bf b83b 88bf 5cc6 d6bf d56c 9b3e
00000100: 7fe3 55bf 5a1d 35be 93de 063f e1a5 96bf
00000110: 6869 b5bf 1adb e33f 1ae2 37bf 3b06 9bbf
00000120: fafb 5d3f a2ee 09bf 062f ee3e 6471 eb3f
00000130: 0092 11bf 1a6a cd3e 2780 69bf 9629 03c0
00000140: 281a 313e bac7 a2bf ea86 1cbe 42be 04be
00000150: 22c8 eabe de84 fdbf b060 26c0 1647 093e
00000160: 07db cbbf f037 05c0 c1f1 233f 213f df3d
00000170: dbd6 e93d 9e9c b3be 3030 9ebf 3a32 9d3a
00000180: 53b3 a8bf 89c7 05bf 4569 f73e 01c1 cb3e
00000190: b2ac ffbd c4ca 153f bfd1 043f bc6a 19bf
000001a0: 97c7 f2be 71f4 32bf a1c6 b2bd 8b47 313f
000001b0: 91c2 d9bf 35f7 6abf 8dec 3dbf f0eb 203e
000001c0: 9558 363e 91d4 d0bf 4ce8 b23f 0688 f6be
000001d0: f77c e0be 6979 963e b1ea 363f 1eac 10c0
000001e0: e74a ba3f aa0d 2a3f f37d e4bf 4a1c 013e
000001f0: 222c 94bd 32a1 07bf 0737 c03f 8220 4bbf
00000200: ad92 1c3f 17de 803f c38e 15c0 0f9d 1bbd
00000210: 2f15 92be 89ef 29c0 13b2 d2bd 3782 423e
00000220: a2a2 f9bf 16dc acbd e400 16bf 991b 14c0
00000230: ee98 00c0 fcf3 94bf cdd5 22c0 cf0a 12bf
00000240: f61f a13f 41d3 3f3d 55cc 5cbe 98d5 ca3f
00000250: dcab a4bf f0b5 27bf 88af 1f3f b5b4 6cbf
00000260: 845e 893f 70f2 f63e 6c90 3a3f 3644 86bf
00000270: 52c9 c23e d396 b63e 6eba 8fbf f2df dbbe
00000280: 9c57 f33c 5310 4bbf eeba ca3f 304e a4bd
00000290: a241 a5bf 601f b8be f96a 72bf c415 0ec0
000002a0: 1763 0abf edf6 52be b84f a7bf 1e18 923f
000002b0: 71af a83f 0aab a23d f5b3 873f 3016 123f
000002c0: 16da 4cbf e01e 42be 6022 98bf 1cb5 81bf
000002d0: f4ef 8ebf d2e4 2f3f 3422 623d 5d1e 04c0
000002e0: 0df2 a5bf 9589 66bf 441e 3cbe 682f f5be
000002f0: 55db b2be da48 533d a7c7 0a3d 9b5d 453f
00000300: 5e7b 0dbf 1736 163e 7705 1f3f d078 9dbf
00000310: 5deb 0ebf 1410 cc3f dcaa 013f 8389 b1be
00000320: 98a6 32c0 edd0 2a3f 42d4 113f 4f25 b2bf
00000330: 0e30 8cbf c6ad 2c3e 5c4c b8be 980d 043f
00000340: 0ecd 003f 356d a93f 5737 913f 1c28 e83d
00000350: 6f5d 6abe cbf0 37be d7b3 9b3f ce7b 453f
00000360: a484 72bc f27c 2f3f 125f 26bf c7de a33f
00000370: 0587 6cbe 65d4 1a3f 240e c73f 0930 4fbf
00000380: ab9a 053e 7d84 6e3f 1db3 d73d f7d5 fe3e
00000390: d916 1e3f 56af e4be 323f 35bf 577d 6a3f
000003a0: 1c82 10bf 8f90 f23d cdac 5a3e dc1e e13e
000003b0: 43d8 06c0 fa31 bf3f 5e06 d23e 54ce cbbe
000003c0: 2a30 8cbf ede8 72be b974 27be 5492 503f
000003d0: 1b07 c33f e8ee ba3d dbae 923f b900 433f
000003e0: 7f18 033f d499 2abf f57e 803e 0ad1 a2be
000003f0: 6251 93bf 9a31 acbf 431f 12c0 e121 663f

group1.group.0.bn2.weight f4 [16]
0.25984317 0.20973974 0.44902703 0.2255027 0.34074593 0.34317663 0.65834314 0.5023284
0.29433662 0.77771485 0.5684444 0.7433956 0.365384 0.16801497 0.3223393 0.16868308
00000000: 2a0a 853e 04c6 563e dfe6 e53e 2eea 663e
00000010: 4076 ae3e d9b4 af3e 2d89 283f 9898 003f
00000020: 4ab3 963e 5218 473f 9285 113f 2d4f 3e3f
00000030: 9d13 bb3e 1e0c 2c3e a809 a53e 42bb 2c3e

group1.group.0.bn2.bias f4 [16]
-0.04900612 0.030846395 -0.33790112 -0.4204393 -0.14863066 -0.43902528 -0.6794169 -0.088948295
-0.22116 0.11951481 -0.29690865 -0.33663946 -0.7916661 -1.2840825 0.34742975 -0.32780078
00000000: a4ba 48bd 94b1 fc3c 6001 adbe d243 d7be
00000010: a332 18be ecc7 e0be 44ee 2dbf 862a b6bd
00000020: c477 62be 2ec4 f43d 6904 98be 025c acbe
00000030: a1aa 4abf d15c a4bf 50e2 b13e 81d5 a7be

group1.group.0.bn2.running_mean f4 [16]
-4.586011 -1.289611 -2.7573442 0.6300094 -0.5987812 -3.4325786 -4.973616 -3.0271626
2.9412978 -3.7719617 -4.0636497 0.67477995 -2.905429 2.1726074 -1.1645346 -3.828396
00000000: 9ac0 92c0 f911 a5bf 5478 30c0 4c48 213f
00000010: ba49 19bf 5eaf 5bc0 dd27 9fc0 08bd 41c0
00000020: 393e 3c40 d267 71c0 6b09 82c0 61be 2c3f
00000030: 8cf2 39c0 000c 0b40 780f 95bf 7104 75c0

group1.group.0.bn2.running_var f4 [16]
9.78286 14.573219 14.7523 15.34819 11.503616 13.707271 13.41561 9.523904
14.971818 10.228418 16.51059 10.625377 13.652969 24.629248 14.485284 9.539489
00000000: 9886 1c41 e82b 6941 6c09 6c41 3092 7541
00000010: d00e 3841 fb50 5b41 57a6 5641 e961 1841
00000020: 918c 6f41 9aa7 2341 b015 8441 8b01 2a41
00000030: 9072 5a41 b308 c541 b9c3 6741 bfa1 1841

group1.group.0.skip.weight f4 [16, 16, 1, 1]
-0.0063570994 -0.4483159 -0.19650926 -0.18247095 0.2528886 -0.072287545 -0.15451758 0.6299984
-0.21520965 0.020511195 0.38280386 0.059365045 -0.2048725 0.51874024 -0.3849268 -0.4303952
-0.11792432 0.043481402 -0.24383964 -0.078948066 0.08159481 -0.1370839 -0.04836667 -0.42043117
-0.2820156 -0.7699163 -0.3271389 -0.65081805 0.052207496 -0.44300428 0.13018326 -0.07936688
0.096661486 0.48038864 0.036230385 0.13051325 0.14520106 0.2768291 0.06133069 -0.39274362
-0.33069816 0.3679628 0.27889803 -0.43511218 0.101989515 0.24581589 0.49799612 0.1226203
0.13681531 -0.1289322 0.40865415 0.15043052 -0.36886722 0.047266513 -0.26804635 0.5017083
-0.6358409 -0.088433266 0.6339751 -0.01379738 0.33535054 0.25221834 0.24302354 -0.5493584
0.11564371 -0.11089563 0.3948426 -0.19276343 -0.20646122 0.09864421 -0.4050299 -0.7507398
0.4998292 0.20193122 -0.038186338 -0.14812663 -0.0023142428 0.10970445 0.6020657 -0.6616224
0.08314319 0.31037658 0.21719049 -0.22342506 -0.25297675 -0.23006827 -0.12379567 0.017179616
-0.15779033 0.40594074 0.027649999 0.570513 -0.277958 0.81526154 0.10943203 -1.042118
0.04564032 -0.031357992 0.8978255 0.42986068 0.36745244 0.5341256 0.19218887 -0.61198413
0.19897637 0.5094599 0.106289946 0.29747453 0.0933572 0.73384964 0.7789055 0.31269985
0.57652986 0.379398 0.5887515 -0.011811044 0.096569166 0.20532237 -0.14337076 0.08897341
0.40537697 -0.1732086 -0.23847479 -0.17777178 0.009848105 -0.16282657 -0.20716225 0.13090664
0.2587673 0.008557185 -0.15888424 -0.019205354 0.6986309 0.17407131 0.15896615 -1.0569959
-0.15393697 -0.3751484 -0.1927411 -0.27412125 0.26589105 -0.23128913 0.23334748 -0.2674017
-0.31599402 0.09225935 -0.041194346 -0.06965722 0.3204466 -0.3503245 -0.24714564 0.34597358
0.011763762 0.22758059 -0.2641159 0.048609003 0.21548374 0.24456844 -0.08909441 0.33637294
-0.065666236 -0.38198826 0.35415444 -0.14493099 -0.029384121 0.32982975 0.02794545 0.2823984
0.21462086 -0.3984965 -0.44625562 0.48996451 -0.28015757 -0.4570717 1.0768757 -0.27277598
0.25100386 0.060425688 -0.06464825 0.10164361 -0.23644438 -0.1955039 -0.2760094 -0.081805155
-0.33880952 -0.021568041 -0.29318532 -0.037023652 0.11036341 0.5773017 -0.11200036 0.4686898
0.13578533 0.20996802 0.38983306 0.03934851 -0.17062292 -0.081704065 0.044510115 0.19399655
0.5356488 -0.21927024 0.28912282 0.45901373 0.22980826 0.25450724 -0.207016 0.29602742
-0.37173343 -0.011372222 -0.2149449 0.12728974 0.4653394 -0.080767654 0.054605436 0.016535765
0.19943528 -0.1680497 0.4201604 -0.10804609 -0.10209733 0.08228655 0.034131493 -0.04079357
-0.32671484 -0.15902694 -0.44606632 -0.30347013 -0.25384313 1.0145856 -0.06365357 -0.079503946
0.06558098 -0.100927055 -0.12733525 -0.19222562 -0.5016085 -0.23985332 0.29818326 -0.39978582
0.08944747 -0.57043165 -0.25741175 0.5833554 -0.56195945 0.3104581 0.12961395 0.18844266
-0.34611753 -0.00349098 -0.45780206 -0.1552632 -0.6329789 0.10597828 -0.12495794 -0.41283384
00000000: 374f d0bb a989 e5be b939 49be aad9 3abe
00000010: 9d7a 813e 7e0b 94bd db39 1ebe 9347 213f
00000020: eb5f 5cbe 1807 a83c defe c33e c328 733d
00000030: 19ca 51be 29cc 043f 2015 c5be c25c dcbe
00000040: 4e82 f1bd 8e19 323d 19b1 79be 86af a1bd
00000050: 2e1b a73d b95f 0cbe 211c 46bd c142 d7be
00000060: 5964 90be 3c19 45bf c07e a7be 039c 26bf
00000070: 87d7 553d 75d1 e2be c34e 053e 1a8b a2bd
00000080: 75f6 c53d 80f5 f53e 5066 143d 44a5 053e
00000090: 96af 143e 8bbc 8d3e e435 7b3d b115 c9be
000000a0: 4551 a9be 9f65 bc3e b9cb 8e3e 06c7 debe
000000b0: e1df d03d 29b7 7b3e 59f9 fe3e 5a20 fb3d
000000c0: 5019 0c3e cd06 04be 1e3b d13e 750a 1a3e
000000d0: 2adc bcbe 889a 413d 5f3d 89be f56f 003f
000000e0: 78c6 22bf 801c b5bd 314c 223f 680e 62bc
000000f0: 11b3 ab3e c322 813e 2adb 783e c1a2 0cbf
00000100: 9cd6 ec3d 401d e3bd cf28 ca3e c763 45be
00000110: 926a 53be fa05 ca3d 1460 cfbe 7c30 40bf
00000120: 9de9 ff3e 0fc7 4e3e 4769 1cbd 82ae 17be
00000130: 8daa 17bb baac e03d fa20 1a3f 1660 29bf
00000140: fa46 aa3d aee9 9e3e 2f67 5e3e 8ac9 64be
00000150: 2b86 81be 0497 6bbe 9688 fdbd 44bc 8c3c
00000160: ca93 21be 77d7 cf3e 4082 e23c 240d 123f
00000170: 8350 8ebe fbb4 503f e61d e03d 1f64 85bf
00000180: 58f1 3a3d 3d71 00bd e4d7 653f b316 dc3e
00000190: ba22 bc3e 75bc 083f 29cd 443e feaa 1cbf
000001a0: 76c0 4b3e f76b 023f 8bae d93d 954e 983e
000001b0: 0f32 bf3d 92dd 3b3f 5a66 473f 321a a03e
000001c0: 7697 133f 7440 c23e 6bb8 163f 1c83 41bc
000001d0: 0ec6 c53d 0740 523e c9cf 12be b137 b63d
000001e0: 928d cf3e 985d 31be bc32 74be ce09 36be
000001f0: f259 213c 02bc 26be 5722 54be 640c 063e
00000200: 267d 843e 6f33 0c3c 8db2 22be 8c54 9dbc
00000210: 7ad9 323f c03f 323e 06c8 223e a44b 87bf
00000220: a7a1 1dbe 7313 c0be ec5d 45be 9f59 8cbe
00000230: df22 883e 0fd7 6cbe a4f2 6e3e e0e8 88be
00000240: f8c9 a1be 78f2 bc3d 67bb 28bd 72a8 8ebd
00000250: 9411 a43e bc5d b3be bf13 7dbe 7323 b13e
00000260: cbbc 403c e30a 693e 333a 87be 3c1a 473d
00000270: c5a7 5c3e 2670 7a3e 2177 b6bd 1339 ac3e
00000280: 057c 86bd f793 c3be bb53 b53e ca68 14be
00000290: f8b6 f0bc 72df a83e dbed e43c 8696 903e
000002a0: 92c5 5b3e bc07 ccbe 9e7b e4be a1dc fa3e
000002b0: d070 8fbe 4d05 eabe 10d7 893f 4ba9 8bbe
000002c0: 9483 803e ed80 773d 4d66 84bd 862a d03d
000002d0: 7a1e 72be 2d32 48be 1b51 8dbe 7689 a7bd
000002e0: 7178 adbe 76af b0bc 631c 96be 1da6 17bd
000002f0: 3606 e23d 0bca 133f 7260 e5bd 1cf8 ef3e
00000300: 4f0b 0b3e db01 573e 3398 c73e e72b 213d
00000310: c6b7 2ebe 7654 a7bd 3d50 363d 08a7 463e
00000320: 4820 093f 6188 60be e807 943e d903 eb3e
00000330: db52 6b3e c64e 823e 01fc 53be e890 973e
00000340: d853 bebe 8e52 3abc 841a 5cbe 3e58 023e
00000350: f740 ee3e 8369 a5bd f3a9 5f3d 0376 873c
00000360: c338 4c3e 3815 2cbe 441f d73e 4547 ddbd
00000370: 6818 d1bd da85 a83d 77cd 0b3d 2917 27bd
00000380: 2b47 a7be f5d7 22be ce62 e4be 7060 9bbe
00000390: baf7 81be f1dd 813f ce5c 82bd f7d2 a2bd
000003a0: 524f 863d d8b2 cebd 2c64 02be cbd6 44be
000003b0: 6a69 00bf 1c9c 75be 7aab 983e bab0 ccbe
000003c0: 3c30 b73d cf07 12bf 79cb 83be c856 153f
000003d0: 93dc 0fbf 5df4 9e3e 85b9 043e 1df7 403e
000003e0: 5136 b1be edc8 64bb 0865 eabe 51fd 1ebe
000003f0: e80a 22bf 240b d93d f3e9 ffbd f55e d3be

group1.group.0.bn_skip.weight f4 [16]
1.0 1.0 1.0 1.0 1.0 1.0 1.0 1.0
1.0 1.0 1.0 1.0 1.0 1.0 1.0 1.0
00000000: 0000 803f 0000 803f 0000 803f 0000 803f
00000010: 0000 803f 0000 803f 0000 803f 0000 803f
00000020: 0000 803f 0000 803f 0000 803f 0000 803f
00000030: 0000 803f 0000 803f 0000 803f 0000 803f

group1.group.0.bn_skip.bias f4 [16]
0.0 0.0 0.0 0.0 0.0 0.0 0.0 0.0
0.0 0.0 0.0 0.0 0.0 0.0 0.0 0.0
00000000: 0000 0000 0000 0000 0000 0000 0000 0000
00000010: 0000 0000 0000 0000 0000 0000 0000 0000
00000020: 0000 0000 0000 0000 0000 0000 0000 0000
00000030: 0000 0000 0000 0000 0000 0000 0000 0000

group1.group.0.bn_skip.running_mean f4 [16]
0.0 0.0 0.0 0.0 0.0 0.0 0.0 0.0
0.0 0.0 0.0 0.0 0.0 0.0 0.0 0.0
00000000: 0000 0000 0000 0000 0000 0000 0000 0000
00000010: 0000 0000 0000 0000 0000 0000 0000 0000
00000020: 0000 0000 0000 0000 0000 0000 0000 0000
00000030: 0000 0000 0000 0000 0000 0000 0000 0000

group1.group.0.bn_skip.running_var f4 [16]
1.0 1.0 1.0 1.0 1.0 1.0 1.0 1.0
1.0 1.0 1.0 1.0 1.0 1.0 1.0 1.0
00000000: 0000 803f 0000 803f 0000 803f 0000 803f
00000010: 0000 803f 0000 803f 0000 803f 0000 803f
00000020: 0000 803f 0000 803f 0000 803f 0000 803f
00000030: 0000 803f 0000 803f 0000 803f 0000 803f

group1.group.1.conv1.weight f4 [16, 16, 3, 3]
-0.68510854 -1.1111811 -1.5893738 -1.0501751 -1.033036 -0.33308524 -0.6661973 -0.83102006
-0.5713872 -0.37619144 -1.2412143 -0.9100609 -0.43032935 -0.70712274 -0.30247787 -0.30874276
-0.8972616 -0.5417325 -0.44891146 -0.6385614 -1.3535783 -1.1079042 -1.2826248 -0.7588772
-1.1461761 -0.851624 -0.7346109 0.043483645 -0.11888197 0.711896 -0.31595847 -0.17942648
0.420102 -0.17765106 0.54910034 0.21599792 -1.2510134 -1.3195208 -0.904316 -1.4518206
-1.1132145 -0.9057726 -0.5880123 -0.08734867 -0.10012346 -0.3581757 -0.12585838 -0.06897404
-0.4963398 -0.9816449 -1.2785566 -0.76376504 -1.2353207 -1.6555879 -1.5876311 -0.52944136
-0.54232407 -0.7063433 -0.44795614 -0.6199008 -0.5275677 -0.02145749 -0.9462627 0.912456
-0.21605486 -0.6189601 -0.27770832 -0.49201503 -0.32757306 -0.19657394 -1.1640834 -0.07878518
-0.13646603 0.79036814 0.61973345 -0.20043229 0.4835701 0.08194578 -0.23018909 0.15808812
-0.5618514 -0.68576646 -0.5967976 0.29965317 -0.4552156 -0.3349525 -0.02091109 -0.5331956
-0.09626601 0.17240857 -1.5587715 -1.0604722 -1.0680157 0.018443497 0.43830582 -0.05826338
-0.09295701 -0.14029281 -0.14157952 -0.40252855 -0.37484768 -0.7574298 -0.71188754 -0.46765092
-0.6457299 0.4338876 -0.23764804 0.006973077 -0.9798996 -0.5320586 -0.45410082 -0.7419277
-0.50454277 -0.14043827 -0.85957295 -0.6370216 -1.0693362 0.5882763 0.34146985 0.4649
0.44696617 0.42662546 0.47753468 0.78122544 0.8033503 0.43752447 -1.9074379 -1.3693408
-0.58609784 -1.6765771 -0.7803662 -0.3521053 -1.7676924 -0.38486645 -0.47965443 0.77884716
-0.12054219 -0.2964436 -0.20338313 -1.0042372 0.1412481 -0.29282847 -1.1142336 -0.95117545
-0.7803882 -1.8900762 -1.4886122 -1.4878169 -2.3709407 0.67302376 -1.0040221 -2.5116892
-1.7033364 -1.002827 -1.911717 -2.3776472 -1.3644719 -0.7463005 1.3385658 0.6774407
-1.0830948 -1.006505 -2.3104692 -1.2594854 -0.13287103 -1.3625674 -0.17310475 0.45470247
0.9859725 -0.08703771 -0.87131524 -0.5574512 0.483815 0.037358146 1.878794 1.9244834
-1.002807 0.48097757 0.72643983 -1.3437941 -0.42372924 -0.4596579 -0.09368287 0.7387302
0.91597307 -0.527143 0.7692836 0.9406648 0.90154225 -1.1941245 -2.9249017 -0.61073285
-0.105783105 -1.7409607 -0.9207432 0.28806028 -1.1227604 -1.1914066 0.0033391346 -0.13027842
0.6673793 2.828873 2.0706677 -0.70695084 1.2443721 1.0813748 -0.33874053 -0.9167455
-1.1204774 -0.25582564 -0.8269617 0.7296653 1.0463727 -0.2620248 0.18796355 1.1756427
-1.8167064 -0.49484205 -0.970011 -1.5615135 -0.91202486 -0.40135115 -3.4009383 -1.8423787
-0.42730632 -1.0507307 0.35635316 1.059209 -0.14627644 0.66095686 0.041556485 -0.96219635
-1.7722375 -0.8946013 -1.6675966 -0.1976055 0.6208416 -0.3083391 -0.7702867 -0.18934901
0.17240115 -0.33791956 2.2422287 0.84058994 0.5612404 -1.7148827 0.493942 0.011639471
-0.17600062 -1.9188462 -0.84463733 -1.0170887 -0.13374244 -0.05185927 -0.676387 -1.1306889
00000000: 4663 2fbf 2f3b 8ebf 9a70 cbbf 236c 86bf
00000010: 863a 84bf 268a aabe e88b 2abf bbbd 54bf
00000020: 6e46 12bf 2a9c c0be 1ce0 9ebf c0f9 68bf
00000030: 2154 dcbe ff05 35bf 61de 9abe 8813 9ebe
00000040: f0b2 65bf fbae 0abf b9d7 e5be c378 23bf
00000050: 0e42 adbf cecf 8dbf 0d2d a4bf c745 42bf
00000060: e6b5 92bf 0804 5abf 760f 3cbf e81b 323d
00000070: 6478 f3bd d13e 363f 4fc5 a1be 93bb 37be
00000080: 9c17 d73e 29ea 35be d791 0c3f 8f2e 5d3e
00000090: 3521 a0bf 0fe6 a8bf 4181 67bf 42d5 b9bf
000000a0: d07d 8ebf b7e0 67bf f987 16bf dce3 b2bd
000000b0: 870d cdbd ce62 b7be 05e1 00be 4342 8dbd
000000c0: 4020 febe 154d 7bbf bea7 a3bf 1b86 43bf
000000d0: fd1e 9ebf 4eea d3bf 7f37 cbbf 7889 07bf
000000e0: c0d5 0abf ead2 34bf 825a e5be d2b1 1ebf
000000f0: ad0e 07bf 9ec7 afbc 463e 72bf b796 693f
00000100: 7c3d 5dbe 2b74 1ebf c92f 8ebe 65e9 fbbe
00000110: a8b7 a7be ae4a 49be af00 95bf 205a a1bd
00000120: c0bd 0bbe 9155 4a3f daa6 1e3f 1f3e 4dbe
00000130: 8096 f73e 30d3 a73d b0b6 6bbe dae1 213e
00000140: 7ed5 0fbf 648e 2fbf bac7 18bf 246c 993e
00000150: 0512 e9be e57e abbe bc4d abbc 827f 08bf
00000160: 1d27 c5bd df8b 303e d385 c7bf 8ebd 87bf
00000170: bdb4 88bf d116 973c 9f69 e03e 95a5 6ebd
00000180: 3f60 bebd eba8 0fbe 39fa 10be 3918 cebe
00000190: 09ec bfbe ebe6 41bf 433e 36bf f16f efbe
000001a0: 8e4e 25bf 8426 de3e 025a 73be 697e e43b
000001b0: b3da 7abf fe34 08bf e77f e8be f9ee 3dbf
000001c0: b729 01bf 0dcf 0fbe f90c 5cbf d913 23bf
000001d0: 02e0 88bf 4799 163f 23d5 ae3e 5f07 ee3e
000001e0: c0d8 e43e a76e da3e 6d7f f43e 64fe 473f
000001f0: 5ea8 4d3f 3503 e03e ed26 f4bf 8f46 afbf
00000200: 820a 16bf 149a d6bf 14c6 47bf 2547 b4be
00000210: bf43 e2bf 370d c5be 4495 f5be 8762 473f
00000220: d3de f6bd 75c7 97be ab43 50be d88a 80bf
00000230: 58a3 103e 9ded 95be 359f 8ebf 3c80 73bf
00000240: 85c7 47bf 04ee f1bf d88a bebf c970 bebf
00000250: 7ebd 17c0 494b 2c3f cc83 80bf 84bf 20c0
00000260: ed06 dabf a35c 80bf 25b3 f4bf 5f2b 18c0
00000270: 04a7 aebf 8d0d 3fbf 2056 ab3f c16c 2d3f
00000280: daa2 8abf 28d5 80bf bade 13c0 d136 a1bf
00000290: 580f 08be 9c68 aebf 5f42 31be c3ce e83e
000002a0: b268 7c3f d440 b2bd 840e 5fbf 1fb5 0ebf
000002b0: 9ab6 f73e db04 193d 527c f03f 7955 f63f
000002c0: fb5b 80bf b142 f63e f6f7 393f 7201 acbf
000002d0: 0af3 d8be 4858 ebbe cedc bfbd 6c1d 3d3f
000002e0: 367d 6a3f d8f2 06bf c5ef 443f 69cf 703f
000002f0: 79cb 663f 12d9 98bf 9731 3bc0 fd58 1cbf
00000300: d0a4 d8bd cdd7 debf d4b5 6bbf a37c 933e
00000310: 9db6 8fbf 0380 98bf 62d5 5a3b b567 05be
00000320: 5fd9 2a3f 410c 3540 d285 0440 bbfa 34bf
00000330: 9647 9f3f 7d6a 8a3f 666f adbe d5af 6abf
00000340: ce6b 8fbf 94fb 82be c3b3 53bf 58cb 3a3f
00000350: 8aef 853f 1d28 86be 8479 403e 767b 963f
00000360: d689 e8bf f05b fdbe a452 78bf addf c7bf
00000370: 767a 69bf e67d cdbe f9a8 59c0 11d3 ebbf
00000380: e5c7 dabe 587e 86bf ec73 b63e 2994 873f
00000390: 7ec9 15be 7834 293f 2237 2a3d 8052 76bf
000003a0: aed8 e2bf 9704 65bf ce73 d5bf 1959 4abe
000003b0: 7aef 1e3f 9fde 9dbe 8231 45bf b5e4 41be
000003c0: ed89 303e cb03 adbe ad80 0f40 e730 573f
000003d0: 73ad 0f3f 4781 dbbf f7e5 fc3e 7bb3 3e3c
000003e0: 8239 34be c19c f5bf 273a 58bf f62f 82bf
000003f0: c7f3 08be 636a 54bd b327 2dbf 6aba 90bf

group1.group.1.bn1.weight f4 [16]
0.18138795 0.36827666 0.58278763 0.5760692 0.27853888 0.4940032 0.96036446 0.08247839
0.52969384 0.5515899 0.14463723 0.12939328 0.9739058 0.37655526 0.33551362 0.083261155
00000000: c3bd 393e c28e bc3e 9231 153f 4579 133f
00000010: a69c 8e3e fded fc3e 72da 753f 6eea a83d
00000020: 049a 073f ff34 0d3f c81b 143e ac7f 043e
00000030: e451 793f dacb c03e 71c8 ab3e d384 aa3d

group1.group.1.bn1.bias f4 [16]
-0.5797565 0.3405352 0.32430384 0.06259681 0.43530872 0.8505322 0.33613175 -0.6252269
-0.10902413 0.37652445 -0.61408156 -0.16697593 0.05476548 0.07038247 0.28556013 -1.1190473
00000000: ec6a 14bf a15a ae3e 270b a63e c232 803d
00000010: c9e0 de3e 7abc 593f 7619 ac3e df0e 20bf
00000020: 0b48 dfbd d0c7 c03e 7334 1dbf bdfb 2abe
00000030: c551 603d af24 903d f034 923e f13c 8fbf

group1.group.1.bn1.running_mean f4 [16]
-14.075863 -15.771087 -11.135501 -11.9148 -13.109239 -17.461433 -3.727576 2.9282465
-12.228216 -10.988676 3.3824918 5.290031 -27.064743 -0.07311622 -12.847013 -11.822185
00000000: bc36 61c1 5f56 7cc1 032b 32c1 05a3 3ec1
00000010: 71bf 51c1 04b1 8bc1 9b90 6ec0 6468 3b40
00000020: c6a6 43c1 9ed1 2fc1 bf7a 5840 ef47 a940
00000030: 9884 d8c1 f5bd 95bd 5e8d 4dc1 ab27 3dc1

group1.group.1.bn1.running_var f4 [16]
139.41058 98.58382 99.6829 59.79585 88.08594 114.9775 75.54908 53.765198
51.404217 77.14044 79.42045 86.12179 88.20161 78.18604 87.045906 75.94523
00000000: 1c69 0b43 ea2a c542 a55d c742 f32e 6f42
00000010: 002c b042 7bf4 e542 2119 9742 900f 5742
00000020: eb9d 4d42 e847 9a42 45d7 9e42 5b3e ac42
00000030: 3967 b042 415f 9c42 8117 ae42 f5e3 9742

group1.group.1.conv2.weight f4 [16, 16, 3, 3]
-1.003173 -1.6477545 -0.44654104 -1.5305585 -1.5074066 -0.08697078 -1.0203664 -1.0826714
-0.009620891 -0.66304153 -2.2121465 1.0221711 -0.113043055 -0.6845583 0.6241944 -1.1105536
-1.685463 0.21403667 -0.8003571 1.2292347 -0.39882916 -1.1986006 0.15781842 -1.2531773
-2.2210093 -0.5575565 -0.35770828 -0.40839756 0.78538376 -0.026627213 -0.472131 0.5784041
-0.7375138 -1.6931987 -0.29803342 0.05889872 1.8887615 -0.7461543 0.24491726 -0.3515165
-1.7249142 -0.22056681 0.19536716 -1.3934054 -0.4624678 1.1964073 1.7141249 -0.70565933
0.29510412 0.5479148 0.3467321 -0.84139675 -0.639515 -1.4127846 0.42879793 -0.20776658
0.49977392 1.0692512 0.9517301 0.5099504 -1.2717352 -0.3591588 -0.2309588 0.479612
0.00040882808 0.199164 -0.47555122 -0.3528096 -0.01421714 -0.7265184 -0.6710044 -0.7521559
-1.2341671 0.6183733 0.5128712 -0.5556743 0.7676702 -0.16364677 0.8029515 0.20323153
0.2682297 -1.6764619 0.67009187 -0.93209416 -1.4218744 1.7896011 1.0825838 0.42331985
1.9830332 -0.53411996 -0.18268 -0.010700789 0.06040465 -0.52706885 -0.27310848 -0.31711298
-0.5492396 -0.3488805 -0.22269914 0.0021367879 1.2964553 0.5347291 -0.97038144 0.032081798
-0.4484395 -0.81056404 -1.6206993 -3.8419263 0.37037104 1.3771492 -0.70900404 0.7077689
1.46938 -0.051572066 -1.0922737 -0.23837136 -1.024434 -3.4513433 -1.1466315 0.25281718
-1.1797067 -2.5933952 -0.51891804 -0.4360661 -0.46717814 -1.0102624 0.940013 -0.1778345
1.6575055 -0.46449956 0.042881362 1.452586 -1.146928 -1.7247752 -0.08032344 -1.6952515
-0.4007743 -0.16361055 -1.4339226 -1.2616771 0.75695914 -0.5551234 -0.92046833 1.2528855
-0.7328604 -1.1182976 -0.56439173 0.5674379 0.5321686 0.29365405 -0.07651984 0.14162926
0.043809187 0.16277418 0.001392707 0.61598533 -0.3706749 -0.25821504 0.82004064 -0.5856439
-1.497134 0.70935494 0.10778283 -0.96432656 1.643751 0.8240215 -0.8681768 0.6609575
1.8365666 1.303289 -0.06053155 1.0426897 0.49545383 0.14226252 0.674349 -1.2347164
0.24765821 1.8585492 -0.60265994 -1.2618865 0.82917446 0.32231206 2.282121 0.8642135
-0.5837061 -0.6414654 0.97899604 -0.9692638 1.0115207 1.410856 1.4503478 2.6336484
0.24151884 -0.91554666 -0.47093964 0.7139699 0.6845079 -1.0760393 0.3666669 -0.8586725
0.7182464 -2.06546 -1.2436689 0.9466916 -1.3218389 0.7376234 1.4499693 -0.22179048
-0.5079314 0.056374036 0.008330387 0.07869933 -0.4198007 0.13588104 -0.6974612 -0.48837858
2.014731 0.44015878 0.70721835 -0.3528382 0.27769205 -0.5408985 1.3209757 0.7199955
0.056228936 -1.164141 0.5014553 0.8080691 -0.8762379 0.24225189 0.15106712 0.117123045
2.0676908 -0.55479884 -0.0004023124 0.50333524 0.2570691 -0.35199928 0.07047177 0.14695667
-0.26516616 0.40894634 0.43341854 0.7289197 -1.0158536 -1.1988071 0.26678938 0.12999752
-0.97240883 -1.0577825 -0.81820744 -0.7762546 0.20465182 0.45548102 0.91766983 -1.6399728
00000000: f967 80bf 9fe9 d2bf 07a1 e4be 57e9 c3bf
00000010: b3f2 c0bf bc1d b2bd 5e9b 82bf fa94 8abf
00000020: f1a0 1dbc 17bd 29bf cf93 0dc0 81d6 823f
00000030: 1e83 e7bd 363f 2fbf 34cb 1f3f 9f26 8ebf
00000040: 40bd d7bf 6e2c 5b3e 34e4 4cbf 9057 9d3f
00000050: 5633 ccbe bf6b 99bf 279b 213e 1d68 a0bf
00000060: 0425 0ec0 06bc 0ebf 8a25 b7be 7c19 d1be
00000070: e90e 493f 5021 dabc 28bb f1be 4b12 143f
00000080: b4cd 3cbf bcba d8bf d697 98be c93f 713d
00000090: f0c2 f13f f803 3fbf 97cb 7a3e f8f9 b3be
000000a0: fdc9 dcbf 44dc 61be 540e 483e 1c5b b2bf
000000b0: 94c8 ecbe e023 993f 7268 db3f 17a6 34bf
000000c0: e317 973e 2544 0c3f df86 b13e c765 57bf
000000d0: 41b7 23bf 20d6 b4bf 678b db3e c3c0 54be
000000e0: 5ee2 ff3e 39dd 883f 95a4 733f 1c8c 023f
000000f0: 38c8 a2bf aae3 b7be 7780 6cbe b48f f53e
00000100: fa57 d639 a6f1 4b3e 737b f3be 76a3 b4be
00000110: 02ef 68bc 1cfd 39bf f2c6 2bbf 4a8d 40bf
00000120: 30f9 9dbf b64d 1e3f 874b 033f ac40 0ebf
00000130: 0986 443f 0593 27be 3b8e 4d3f ed1b 503e
00000140: 6755 893e 4e96 d6bf 248b 2b3f b99d 6ebf
00000150: fbff b5bf a611 e53f 1b92 8a3f 61bd d83e
00000160: 08d4 fd3f 16bc 08bf 7710 3bbe 5d52 2fbc
00000170: de6a 773d fced 06bf e0d4 8bbe a25c a2be
00000180: f79a 0cbf 77a0 b2be 3e0b 64be 5a09 0c3b
00000190: 3ff2 a53f 02e4 083f eb6a 78bf 3468 033d
000001a0: dd99 e5be 2081 4fbf 1373 cfbf 1fe2 75c0
000001b0: 46a1 bd3e 6d46 b03f 4a81 35bf 5830 353f
000001c0: a514 bc3f 3b3d 53bd a0cf 8bbf 9f17 74be
000001d0: a720 83bf cfe2 5cc0 d2c4 92bf 4171 813e
000001e0: a100 97bf 30fa 25c0 d0d7 04bf 0e44 dfbe
000001f0: f931 efbe 4750 81bf b1a4 703f 3f1a 36be
00000200: 2429 d43f e3d2 edbe 5ea4 2f3d 57ee b93f
00000210: 89ce 92bf 6fc5 dcbf 9e80 a4bd 00fe d8bf
00000220: 4a32 cdbe 8689 27be c78a b7bf a37e a1bf
00000230: 13c8 413f 911c 0ebf d0a3 6bbf 8d5e a03f
00000240: bd9c 3bbf 6024 8fbf fa7b 10bf 9c43 113f
00000250: 343c 083f d359 963e 6fb6 9cbd 4307 113e
00000260: 4371 333d 46ae 263e 7e8b b63a 37b1 1d3f
00000270: 1ac9 bdbe c334 84be 2fee 513f c2ec 15bf
00000280: 16a2 bfbf 4998 353f 3fbd dc3d 1bde 76bf
00000290: 6f66 d23f 13f3 523f d640 5ebf 8334 293f
000002a0: 9d14 eb3f 2dd2 a63f eeef 77bd db76 853f
000002b0: 20ac fd3e 44ad 113e 23a2 2c3f 300b 9ebf
000002c0: 1d9a 7d3e f1e4 ed3f ec47 1abf 7f85 a1bf
000002d0: c744 543f 1606 a53e 450e 1240 193d 5d3f
000002e0: c36d 15bf 1437 24bf 7c9f 7a3f ac21 78bf
000002f0: 8379 813f ee96 b43f ffa4 b93f b28d 2840
00000300: b750 773e 4461 6abf 001f f1be bbc6 363f
00000310: e93b 2f3f a8bb 89bf c4bb bb3e f6d1 5bbf
00000320: ffde 373f 7f30 04c0 8b30 9fbf 615a 723f
00000330: 0432 a9bf e3d4 3c3f 9898 b93f 0b1d 63be
00000340: cb07 02bf 76e8 663d 2d7c 083c 1d2d a13d
00000350: 1ef0 d6be 6624 0b3e d18c 32bf c20c fabe
00000360: 5af1 0040 7e5c e13e 430c 353f 35a7 b4be
00000370: a72d 8e3e 5378 0abf bb15 a93f a051 383f
00000380: 5050 663d 9302 95bf 605f 003f 9edd 4e3f
00000390: 2151 60bf e110 783e 57b1 1a3e 35de ef3d
000003a0: 0c55 0440 4c07 0ebf 75ed d2b9 94da 003f
000003b0: 909e 833e 4039 b4be 8153 903d cf7b 163e
000003c0: dcc3 87be 6a61 d13e 09e9 dd3e 7b9a 3a3f
000003d0: 7e07 82bf 8372 99bf 9e98 883e 121e 053e
000003e0: c9ef 78bf 6b65 87bf 0b76 51bf 9fb8 46bf
000003f0: 3f90 513e cf34 e93e 69ec 6a3f a1ea d1bf

group1.group.1.bn2.weight f4 [16]
0.37212342 0.331882 0.0025958475 0.08004973 0.0645219 0.073755525 0.48991275 0.52926767
0.22355047 0.21704552 0.63891894 0.50795555 0.1516793 0.21314108 0.38643438 0.12992653
00000000: f686 be3e 70ec a93e 181f 2a3b 1df1 a33d
00000010: 0f24 843d 230d 973d d8d5 fa3e 167e 073f
00000020: 6aea 643e 2e41 5e3e 3190 233f 6009 023f
00000030: d251 1b3e a841 5a3e bada c53e 760b 053e

group1.group.1.bn2.bias f4 [16]
-0.6428075 -1.2514279 -0.8408888 -0.38245264 -0.3179405 -0.5696773 -1.3733954 -0.5274015
-0.6204179 0.01272751 -0.0265153 0.0118200835 -0.7177044 -1.2198615 -0.72683805 -0.45282024
00000000: 088f 24bf ca2e a0bf 7d44 57bf d5d0 c3be
00000010: 19c9 a2be 5fd6 11bf 6ccb afbf c903 07bf
00000020: b5d3 1ebf 0c87 503c 9d36 d9bc 06a9 413c
00000030: 7abb 37bf 6c24 9cbf 0f12 3abf 0ed8 e7be

group1.group.1.bn2.running_mean f4 [16]
-2.203802 2.5149033 1.2798755 0.08792635 -1.321246 -0.6190849 -4.871118 -1.9789639
-1.9355136 3.1446872 0.40124407 -0.2641698 2.8923457 -6.7932596 0.6014534 -0.23188332
00000000: 180b 0dc0 2df4 2040 f6d2 a33f bb12 b43d
00000010: 971e a9bf 597c 1ebf 33e0 9bc0 b04e fdbf
00000020: e9be f7bf 8e42 4940 dd6f cd3e 4441 87be
00000030: 311c 3940 6262 d9c0 daf8 193f d272 6dbe

group1.group.1.bn2.running_var f4 [16]
13.830888 25.329136 13.937089 11.049667 15.811955 12.541109 14.884535 16.523249
18.95112 12.343214 24.434444 9.579563 18.053083 26.692995 13.487578 8.62778
00000000: 514b 5d41 12a2 ca41 51fe 5e41 70cb 3041
00000010: c5fd 7c41 62a8 4841 0e27 6e41 9d2f 8441
00000020: e59b 9741 ce7d 4541 be79 c341 e445 1941
00000030: b76c 9041 418b d541 1fcd 5741 630b 0a41
