04_cnn/4_vgg_net.pth (torch_old, 184920 bytes, 40 tensors)

b1_c1.weight f4 [16, 1, 3, 3]
00000000: bc81 2bc0 09e0 89bf 7ea6 60bd 0b96 e1be
00000010: 20ba 20bf 4ef6 c83e 73e9 04bf 6a4a 583d
00000020: c386 933e caea 0c40 6801 3a3e 146a 2cbf
00000030: a4cd 0fbf 4608 b5bf c587 833f 64e5 1ac0
00000040: 202e a3be 1fcf 0440 3527 27bf 77e1 35be
00000050: cd74 a33f 9ea2 0abf 1582 1cbe 21ad e83e
00000060: e081 903f 58a6 5ebe b1a4 b9be 357b 4dbf
00000070: b9bd 0a40 1ce1 38be f358 0fc0 2da2 1540
00000080: dbd2 593f e83f 20c0 95ec 6a3e b5a1 a43f
00000090: e64c ae3f 1578 a03f f283 553f 455f 553f
000000a0: a96a 83bf bec7 923e 28c1 473f f260 40c0
000000b0: 93bb 90bf a252 2b3f bfd9 3bbe ef09 aabe
000000c0: 6176 d93e 118a b2be 0640 1f3e fa22 463f
000000d0: 7bd3 53bd 193d c23e 9f47 14bf 325b f5bf
000000e0: af19 833f c3f8 0140 5802 a7bf b350 863f
000000f0: 05f6 873e 0f63 0ac0 4e4f a33f f9b1 8bbf
00000100: 3fc7 e4bf 2938 0fc0 585c 093d 2426 22bf
00000110: e46e 73bf c231 023e fb9e 9a3d 6397 0a3f
00000120: 8047 61bf ca62 7b3f be19 4a3f aadc 8a3f
00000130: 847a 313f f46d d83f 5c33 c03f 9371 b0bf
00000140: d005 b23f 27b6 a63e 9e2d dfbe 8837 843e
00000150: 35cd a1bf 19e9 79c0 4d41 a6bf 5670 bb3e
00000160: eb8d 03bf b4a3 b23d c367 9d3e 7eef 25bf
00000170: 9f3e f4bf 01a9 3f3f 753b 3f40 ffac 923e
00000180: 6b10 943c 1ca9 ce3e fffc f7bf beb0 a1bf
00000190: 4973 39be b61b 36bf f63e d9bf f7ef cd3f
000001a0: 96d8 bc3f 6487 edbf cd26 183f c201 0a3f
000001b0: d156 9f3d adfd b23e ae26 85be 2a04 0abf
000001c0: b8bd f4bd 98f6 7bbf d99c e63e 6479 503e
000001d0: e6f6 e6bd dcd3 c73e 3016 463f 5bb6 953e
000001e0: 6381 83be 31a5 873e dd89 5c3f 2eaf babf
000001f0: a3b9 e9be 455b bb3f 6588 04bf a0bf febf
00000200: c2a9 2cc0 5321 883d fb1b 4bbf d63c 9bbf
00000210: 6cc2 18bd 502c b03d d35c 76bd 839c 70be
00000220: ea51 b2bf a641 13c0 46bc bd3f 1526 2240
00000230: b30b 72bf 8f7d 93bf 4562 a93f c9e4 16be
-2.6797934 -1.0771495 -0.05484628 -0.44059786 -0.62784004 0.39250416 -0.51918715 0.05280534
0.28813753 2.2018304 0.18164599 -0.6734936 -0.5617316 -1.414315 1.0275809 -2.420251
-0.31871128 2.0751417 -0.652942 -0.1776179 1.277002 -0.54154384 -0.15283997 0.45444587
1.1289635 -0.21743143 -0.36258462 -0.80266124 2.1678298 -0.18054622 -2.239804 2.3380234
0.85087365 -2.5039005 0.22941811 1.2861849 1.3617218 1.2536646 0.8340446 0.83348495
-1.0266925 0.28668016 0.7802911 -3.005917 -1.1307243 0.6692296 -0.18344782 -0.33210704
0.42473128 -0.3487096 0.15551767 0.7739712 -0.051715355 0.3793724 -0.57921785 -1.9168456
1.0242213 2.0308082 -1.304759 1.0493377 0.26554886 -2.162296 1.2758577 -1.0913688
-1.7873305 -2.2378027 0.03353533 -0.6333945 -0.9509108 0.12714294 0.07549854 0.5413725
-0.87999725 0.98197615 0.7894553 1.0848591 0.6932757 1.6908555 1.5015674 -1.378466
1.3908024 0.32560846 -0.4358949 0.25823617 -1.2640749 -3.9048522 -1.2988678 0.36609143
-0.51388425 0.0872263 0.30743226 -0.6481856 -1.908161 0.74867254 2.988004 0.2864761
0.018074235 0.40363395 -1.9374083 -1.2632062 -0.18110384 -0.71136034 -1.6972339 1.6088856
1.4753597 -1.8556943 0.59434205 0.5390893 0.07780231 0.34959164 -0.26006073 -0.53912604
-0.119502485 -0.9842315 0.4504154 0.20358807 -0.11277561 0.39028823 0.77377605 0.2924069
-0.25684652 0.2649322 0.8614786 -1.4584711 -0.45649442 1.4637228 -0.5177062 -1.9902229
-2.6978612 0.06646981 -0.7933957 -1.2127941 -0.03729479 0.08602202 -0.060147118 -0.23497204
-1.3931248 -2.3008819 1.4823081 2.5335743 -0.945491 -1.1522692 1.3233114 -0.14735712

b1_c1.bias f4 [16]
00000000: 650e 09c0 8094 b3bf 2007 25c0 aba2 ad3e
00000010: 3878 60bf 7b32 2abf 61a3 6abe d701 edbf
00000020: 6083 a5bf be40 8dbf e80f a73d 4537 88bf
00000030: 2921 06bf 3b03 9abf 4cb9 a2bf e1bb 9ebf
-2.1415036 -1.4029694 -2.5785599 0.33913168 -0.8768344 -0.6648328 -0.22913887 -1.8516186
-1.2930717 -1.1035383 0.08157331 -1.0641867 -0.5239435 -1.2032236 -1.2712798 -1.2401086

b1_c2.weight f4 [16, 16, 3, 3]
00000000: 9342 313e a7e9 5fbd 6dad e5be e9f7 3d3f
00000010: db12 4c3f 64b9 0fbf 33ee f2bd d352 16bf
00000020: ccb2 24c0 2439 163e 689a f83f e0d8 de3e
00000030: e1f9 693e 9ab4 443f e570 31c0 b0ca 1f3f
00000040: f667 b93d 10b9 e6be 51d8 213f db85 a7bf
00000050: 6c14 8e3e e6c8 87bf 620c 6fbf 9dee 033f
00000060: c23b 81be ba99 28bf 3462 e03c cd16 213e
00000070: 065d 2ebf b83d 52be 445b 2d3f 553b 1dbf
00000080: 6084 b3be 0b75 953e 2f2d 133f de18 0b3f
00000090: a6f8 773f c428 abba f9af 73bd 6221 59be
000000a0: c0f7 42c0 2f07 f1bf 37d0 ae3e 9dd5 8f3c
000000b0: 27f9 d7be 2bb2 d2be 877d 42bf 25e2 c6bd
000000c0: 6c3c 07be 2c38 fbbe c73a 3cbc 37cd 85bd
000000d0: 2c20 f3be e7d9 45be c5b6 41bf 592c 3fbe
000000e0: f691 1b3f 4813 f53e fc05 913f 9b23 893f
000000f0: e221 73bf 1dfc 35bf 14a1 20bf 99c8 db3f
00000100: 0181 6a3f 5415 2dbf 7117 1e40 52bb 37bf
00000110: 6f27 6cc0 3739 f8be 0bad 57c0 fec5 1cc0
00000120: cabe 2cc0 82a9 dcbf 0dbf 19c0 729a aabf
00000130: 5bad 5abe d359 0dbd 6928 9a3c 3e1c f23e
00000140: 8ac0 283f 015f 8040 de92 d23f e7ee 02c0
00000150: 653d ec3f c2fb b6bf 931a 64c0 562d dc3f
00000160: c98c c4bf a775 8fbf 3328 e1be a9dd 2bc0
00000170: e6ba 00c0 baf0 d83e 3b98 493f 7376 afbf
00000180: a01e 49be 3d59 5ebf 82a4 14c0 4284 80bf
00000190: eda5 69bf 26d9 f83d 1188 8d3f f739 b33f
000001a0: 4e91 223f de26 b33d cb6b f73e 03ce 96be
000001b0: f86c 073f d3c7 643e 4029 e0be 099b 013e
000001c0: c03c 14be 5ce0 92be 80ae 20be 332e 9bbe
000001d0: b16b 96be 319d bc3f e7f7 1e3f 7dde 70bf
000001e0: c9fc 573f b20d 59be d2eb 43bf fa68 013e
000001f0: 2a14 76bf f373 aebe 3e3a 1840 60ad 5f3f
00000200: 4267 83bf b699 2640 e681 29bf c011 57c0
00000210: 9e68 80bf 2deb 7bc0 04b2 01c0 cee6 38bf
00000220: c819 07c0 38fb 29c0 ca55 c1be e810 e03d
00000230: 4c4d 05c0 6c6b c2bf 4932 b0bf 0322 f8bf
00000240: 0f1f d3bf 6b4f 66bf 4287 7ebf 5593 fcbf
00000250: b72e 16be cc55 03bf ea17 7ebf 24c2 1240
00000260: c540 4bbe a8d2 09c0 8f45 223f 4bb2 bd3e
00000270: 45ed 813c fc5d ef3f 41f0 2f3f 7df9 cf3f
00000280: a309 19c0 6f4b e0bf 14fc 0a3f efc6 55bf
00000290: b07c 33bf 204c 09c0 f257 9abf c055 95be
000002a0: 2524 edbf 9a7f 343f 601a 0340 4508 50bf
000002b0: bb77 c73f 3e76 8abc c82c 2dc0 c23b 2240
000002c0: e0d1 c5bb 60cf 2cc0 5985 6f3f e0d4 f2be
000002d0: 4785 d43f fd0f b3be f5d2 dabf bd9d 1b40
000002e0: 7bd8 91be 34e5 3abf fb3f 96be c949 fdbf
000002f0: 68d2 3f3f eb17 2cbf 2bfb 19bf 297b a5be
00000300: fefc 23bf 637b f2be f2f7 9fbd bb1b 1cbf
00000310: 5319 7fbe 927b 5dbe 3efd b0be b780 c8bf
00000320: d9cd 17bf 7185 2ebf 01f2 25c0 8779 ec3d
00000330: 0b5e e9bf 955d 0a3f 5ae4 653f 504b 05c0
00000340: 4820 80bf b145 16bf 8cf0 47bf 5a2f 8abf
00000350: 41ca 813e 257b 6b3f 5e6b c1bf c18f 10c0
00000360: 1187 b53f 3335 65bf ee70 c2bc 0b33 773e
00000370: 0cb9 9abe c3dd a5be 8239 b3bf 4898 d8be
00000380: e19a af3e 2ed7 52bf fabf 9dbf afe0 81bf
00000390: e2c2 3f40 21d9 503f f879 6dbf 35a3 1840
000003a0: 2945 41be 190c 2dbf 90a9 173f b50a 69bf
000003b0: a38f 04be 5999 66bf 758b aa3e a4fb 41be
000003c0: df3b 343f af78 803f 5c6b 8bbf 0e31 6dbf
000003d0: c2d5 893f 547f 463e ee09 4dc0 02b7 8e3f
000003e0: c658 b43e f776 ac3d c9d6 d53f adc9 803e
000003f0: 80c6 92be 361e e3b9 38fd 3dbe af21 993e
0.17310552 -0.054666188 -0.44858876 0.74206406 0.7971627 -0.5614226 -0.11861839 -0.5872013
-2.573413 0.14670235 1.9422121 0.43524837 0.22849227 0.76838076 -2.7725155 0.6241865
0.09053032 -0.45063066 0.632207 -1.3087724 0.27749956 -1.0608184 -0.9337827 0.5153597
-0.25240904 -0.6585957 0.027390577 0.15731354 -0.6811069 -0.20531356 0.67717385 -0.6141866
-0.35061932 0.2919086 0.5749082 0.5433482 0.9686378 -0.0013058414 -0.059493992 -0.21204141
-3.0463715 -1.8830317 0.3414323 0.017557913 -0.42182276 -0.41151556 -0.7597279 -0.097111024
-0.13206643 -0.49066293 -0.011488623 -0.06533282 -0.47485483 -0.19321404 -0.7566951 -0.18669261
0.60769594 0.47866273 1.1329951 1.0713991 -0.94973576 -0.7108782 -0.62745786 1.7170593
0.91603094 -0.6761067 2.4701807 -0.71770203 -3.6899068 -0.4848115 -3.3699367 -2.4495845
-2.6991448 -1.723923 -2.4022858 -1.3328383 -0.21355192 -0.03450949 0.018818097 0.47287172
0.6591879 4.011597 1.645107 -2.0458314 1.8456236 -1.429558 -3.564122 1.7201335
-1.5355464 -1.120778 -0.43975982 -2.685404 -2.0114074 0.4237116 0.7874791 -1.3708023
-0.19640589 -0.86854917 -2.3225408 -1.0040362 -0.9126881 0.12150793 1.1057149 1.4002064
0.6350297 0.08747648 0.48324427 -0.2945405 0.5290065 0.22341852 -0.4378147 0.12656797
-0.144763 -0.28686798 -0.15691566 -0.30308685 -0.29379037 1.4735471 0.6209702 -0.9408949
0.84370095 -0.2119663 -0.7653171 0.12637702 -0.9612452 -0.34072837 2.3785548 0.87373924
-1.0265887 2.6031318 -0.66213834 -3.3604584 -1.0031927 -3.936229 -2.0264902 -0.7222718
-2.1109486 -2.6559582 -0.37760764 0.109407246 -2.0828428 -1.5189033 -1.3765346 -1.938538
-1.6493853 -0.8996493 -0.9942514 -1.9732462 -0.14666258 -0.5130279 -0.9925524 2.2930994
-0.19848926 -2.1534824 0.6338739 0.3705009 0.01586021 1.8700557 0.68725973 1.6248013
-2.3912132 -1.752302 0.5429089 -0.83506674 -0.70112133 -2.1452713 -1.2058089 -0.29166985
-1.8526655 0.70507205 2.0484848 -0.8126262 1.5583414 -0.016902085 -2.7058582 2.5348973
-0.006036982 -2.7001572 0.9356285 -0.47428036 1.6603173 -0.34973136 -1.7095629 2.4315026
-0.28485474 -0.73005986 -0.29345688 -1.9788142 0.7493043 -0.67223996 -0.60148877 -0.32320526
-0.6405791 -0.47359762 -0.07810964 -0.60979813 -0.24912004 -0.2162917 -0.34568208 -1.5664281
-0.59298474 -0.68172365 -2.5928957 0.11546617 -1.8231825 0.54049045 0.8980156 -2.0827217
-1.0009851 -0.5870009 -0.7810142 -1.07957 0.2534962 0.9198478 -1.5110891 -2.258774
1.4181844 -0.895343 -0.02373549 0.24140565 -0.30219305 -0.32395753 -1.4001925 -0.4230368
0.3429785 -0.8235959 -1.2324212 -1.0146693 2.9962697 0.8158131 -0.92764235 2.3849614
-0.18874039 -0.67596585 0.59243107 -0.9103196 -0.12945418 -0.9007774 0.33309522 -0.1894365
0.70403856 1.003683 -1.0892138 -0.92652977 1.0768359 0.1938451 -3.203731 1.11496
0.3522398 0.08421128 1.6706172 0.25153866 -0.28667068 -0.00043319323 -0.18553627 0.2990851

b1_c2.bias f4 [16]
00000000: 92f1 1140 ab82 ec3d 85d7 bc3f 31ca b33f
00000010: f49d a2bd c031 353e 8994 ebbe a7fc 19bf
00000020: b074 8b3e ee01 8b3d 881d ec3f 7df5 60bf
00000030: 339d 42bf 0439 42bf fdd5 233e 61f0 4abe
2.2803693 0.115483604 1.4753271 1.4046079 -0.079402834 0.1769476 -0.4601176 -0.6015114
0.27237463 0.067874774 1.8446512 -0.87874585 -0.76021117 -0.7586825 0.15999599 -0.1981826

b1_c3.weight f4 [16, 16, 3, 3]
00000000: 315f 143f e5fc 12bf 5abd 32bf 9072 123f
00000010: bb98 953d 177e d8be 84df 033e 8665 a9bd
00000020: 7d8b 96be 766a ce3e f2fa f7bf 89c8 cabe
00000030: e7a3 1440 e70e 45c0 efd7 7d3f 78b9 0440
00000040: 45df f2bf a120 5e3c a2b3 10c0 e9d8 70be
00000050: 5938 f23e 70ac 02c0 b69b 2a3f 7975 f7be
00000060: 5f82 59bf 5159 053e fc06 303f 6d2b bc3c
00000070: e123 92bf 3bd6 56be 669f d2be 2158 5cbf
00000080: 5647 9d3e 550b e6bf a82a 993d 183f 9a3f
00000090: 9525 453f b930 1e3e 3e00 29bf 27b7 0340
000000a0: 39a7 a33e 2e9c cdbf d765 123f a8cf 473f
000000b0: b925 1fbf 6a81 f8bd a914 81be 9d11 45be
000000c0: 3035 afbd 8ddf 68bb 85df 71be 365e 4abe
000000d0: 3bbf 26be eb18 51be 8257 d6be 9704 09bf
000000e0: 21af aa3e c011 133f 23e2 b03e 6e1b afbe
000000f0: 5efa 37be 7cdf 08bf 2885 dcbe f0d6 e5be
00000100: a763 963e 048c 07bf b08d 8cbe cc6b ccbf
00000110: 984a 3bbe 859b 79bf e5fc a3bf 10ca 033f
00000120: bcf8 df3f 97c1 35c0 d125 a5bf f539 8b3f
00000130: e39f 9cbf ad0e 673f a617 f63f a232 8fbf
00000140: ca12 8dbf b9dc 33bf d461 ffbe bddd f5be
00000150: afbb 87bf a66f 26bc 4e89 6c3f 8c5f 503f
00000160: ec65 a6bf 41d7 4a3e de50 a0be ba28 bc3f
00000170: 5995 14bf a63d 12c0 e2ac 0540 a1df 26bf
00000180: 4673 06c0 83be c03f a3ef 4f3f 2fb4 cd3e
00000190: 1d1c 30c0 d0bf 2d3e 54d9 85bf 9e95 b4bf
000001a0: 523c 863f b0be bcbe f130 98bf 647c 723f
000001b0: 5f02 513f 1331 2dbe 543d 8f3e 259b cc3e
000001c0: 0f54 26bf 7ebd f3be 0b96 11bf 9a30 4ebf
000001d0: 8cfe 83be 97c3 9bbe 2e37 45be f798 bfbd
000001e0: 2e56 6bbd f628 46bd 76a6 623f 52c0 b53e
000001f0: b918 9fbe ad16 873e d0a2 073e 2da8 7ebf
00000200: 4bcf 5e3f 772d f73e c394 a6be 8eb3 283f
00000210: 2bea b8be 1048 8f3f 1ff5 12be 65fe d33e
00000220: 62b5 b1be 00ae 32bf fe5e 80be 9ec7 d3be
00000230: 86d6 a83c f364 7ebf e802 01bf 2093 ce3e
00000240: 7a8e 9e3f 01ce 223f ebdd 133f bcec b63f
00000250: fa1d b63e ec2a ab3c 0246 353f 9355 bcbf
00000260: 2aa2 24bf 748b fc3d 951e e43d 40e7 bdbf
00000270: 5377 d73e 0214 11c0 d6e8 39bf b63c dcbf
00000280: 81b5 a2bf 19b2 923f 38fd 02c0 8645 353f
00000290: aea6 1e40 cde4 293f 1a11 bd3e 1873 a63f
000002a0: 1903 a8bf f466 88bf f6b3 b23f 60d9 ad3e
000002b0: 4686 7ac0 8403 893f 4a80 0ac0 a2eb 843f
000002c0: ee2c f43f c1c6 02bd 3070 8bbd 6e0e 89bf
000002d0: 8156 84bf f657 14bf 8ef9 debf f509 7a3e
000002e0: a6a0 733e 10a8 18bf 13f8 393f 46b6 96be
000002f0: b1e8 17bf b966 ed3c 7f6d a2be 3b67 0ebe
00000300: 2d72 823e 7fd8 7539 c9b8 1c3e e116 e2bd
00000310: faef 803d 9949 883e 23ba d33e 3e80 1dbf
00000320: c0cc b9bf 57ab 39c0 0d22 aebf 304b 31c0
00000330: 0a68 1cbf a1bc e4be ec48 8dbe 5c8a 1c3e
00000340: a5cb 893e 9ad3 37bf f597 05c0 7570 0bc0
00000350: f349 05bf 4ead f6bf 3d5b 21bf a9bf dd3f
00000360: c747 c53e cae5 92be fdad a5bf cbf4 2e3f
00000370: ffd5 bbbf ace0 2e3f 0e33 e93f eb23 a6bf
00000380: 4b5b 8abc bd09 cfbf de17 02c0 4ba1 9abf
00000390: 9aa8 41c0 d4a1 f2bf e9b0 2bc0 1d39 2fbf
000003a0: 6d85 ebbc bc3b 32c0 0dc8 10c0 5009 653c
000003b0: bbd4 503f 5937 8a3e dbae d73f ceb4 e93c
000003c0: 7a45 cebd 1e99 373f a45a efbf 8527 aa3f
000003d0: ec20 5bbf 71cb 8dbf de2c 93bb 0fe1 92bf
000003e0: 7fca 43bd 7c11 d2bf 0dbf d2bf 1690 883f
000003f0: f389 153e 8f2d 79bf 61df 7bbe e7ae 9dbf
0.5795775 -0.57417136 -0.6982018 0.5720606 0.07304522 -0.422837 0.12878233 -0.08271317
-0.29403296 0.40315598 -1.9373457 -0.3960612 2.3225038 -3.0790346 0.99157614 2.07382
-1.8974386 0.013557584 -2.260964 -0.23520245 0.47308615 -2.0417747 0.66643846 -0.48331812
-0.84964556 0.13022353 0.6876066 0.022969926 -1.1417199 -0.2098016 -0.41137236 -0.86071974
0.30718488 -1.7972208 0.07478839 1.2050505 0.7701047 0.15448274 -0.66015995 2.0580537
0.31963518 -1.6063287 0.57186645 0.78051233 -0.62166935 -0.12134059 -0.25211075 -0.19245
-0.085550666 -0.0035533637 -0.23620422 -0.19762501 -0.16283886 -0.20419662 -0.41863638 -0.5352263
0.33336738 0.5744896 0.3454753 -0.34200615 -0.17966601 -0.5346601 -0.4307034 -0.44890547
0.29372904 -0.5294802 -0.2745185 -1.5970397 -0.18290174 -0.9750293 -1.2811552 0.514802
1.7497783 -2.8399408 -1.2902166 1.0877062 -1.2236294 0.9025677 1.9225967 -1.1187327
-1.1021359 -0.7025867 -0.49879324 -0.48020735 -1.0604151 -0.010158455 0.9239701 0.8139579
-1.2999854 0.19808675 -0.31311697 1.4699929 -0.58040386 -2.2850127 2.088677 -0.6518498
-2.1007857 1.505814 0.8122503 0.40176532 -2.751716 0.16967702 -1.0456948 -1.410816
1.0487158 -0.36864233 -1.1889936 0.94721055 0.81644243 -0.16913252 0.27976477 0.39962116
-0.64972013 -0.4760551 -0.5686957 -0.8054291 -0.2578014 -0.3042266 -0.1925933 -0.093553476
-0.057455234 -0.048378907 0.8853525 0.3549829 -0.3107355 0.26384488 0.13245702 -0.99475366
0.87035054 0.48276874 -0.3253537 0.6589898 -0.36116156 1.1193867 -0.14351319 0.41405025
-0.34708697 -0.6979675 -0.25072473 -0.41363233 0.020610105 -0.99372786 -0.5039506 0.40346622
1.238723 0.63595587 0.57760495 1.4290996 0.35569745 0.02089449 0.7080995 -1.4713615
-0.6430994 0.12331286 0.111386456 -1.4836197 0.42083225 -2.2668462 -0.72620904 -1.7206028
-1.2711641 1.1460601 -2.0467052 0.7080921 2.4789233 0.6636475 0.3692711 1.3003874
-1.3125945 -1.0656419 1.396117 0.33954906 -3.9144454 1.0704198 -2.1640801 1.038441
1.9076211 -0.031927828 -0.068085074 -1.0707529 -1.0338899 -0.5794672 -1.7419908 0.24417861
0.23791751 -0.59631443 0.72644156 -0.2943594 -0.59339434 0.028979646 -0.31724164 -0.13906567
0.25477734 0.00023445672 0.15304865 -0.1103952 0.06295772 0.2661865 0.4135295 -0.6152381
-1.451561 -2.9010828 -1.3604141 -2.770214 -0.6109625 -0.44675162 -0.27594697 0.15287155
0.2691318 -0.71807253 -2.0873997 -2.1787388 -0.5206596 -1.9271638 -0.63029844 1.7324115
0.38531324 -0.2869094 -1.2943722 0.68342274 -1.4674681 0.6831157 1.8218706 -1.2979711
-0.016889235 -1.6174847 -2.0327067 -1.2080473 -3.0259156 -1.8955636 -2.6826727 -0.6844652
-0.028750146 -2.784896 -2.2622101 0.013979271 0.815746 0.26995352 1.6850237 0.028528597
-0.10071845 0.71718013 -1.8699536 1.329331 -0.8559711 -1.107771 -0.0044914326 -1.1474932
-0.047800537 -1.6411586 -1.6464554 1.0668972 0.14603405 -0.9733514 -0.24596931 -1.2319001

b1_c3.bias f4 [16]
00000000: 64ba c1be b001 a8be 4792 453f 74fb 76be
00000010: 478f 0e3e 2534 efbf 5af9 f53e 2050 c63f
00000020: 9724 4a3d 0549 153f 5456 903e 4211 79bf
00000030: ea41 dd3f 4c48 003e 2419 813f c8a1 c83f
-0.37837517 -0.32813787 0.77176327 -0.24119359 0.13921843 -1.8687788 0.48041803 1.5493202
0.0493513 0.58314544 0.28190863 -0.9729196 1.728574 0.12527579 1.0085797 1.5674372

b1_bn.weight f4 [16]
00000000: 488e 8c3f 2ca2 b43f 69ff 7a3f a700 b73f
00000010: 26b3 533f fb59 293f 50d2 413f a13a 8e3f
00000020: e2e1 1a3f b0b1 d23f a215 283f deff 503f
00000030: 1712 3d3f 2594 223f 68d8 a73f 656f 813f
1.0980921 1.4111991 0.98045975 1.4297074 0.82695234 0.66152924 0.75711536 1.1111642
0.6050092 1.6460476 0.6565801 0.8164042 0.7385573 0.635073 1.3112917 1.011212

b1_bn.bias f4 [16]
00000000: 4f52 05bf d3b6 4dbe 31e4 18bf 0149 983d
00000010: 7ea8 6dbe 74fa 96bf cd3e d6be 6a53 5cbf
00000020: 22cb 55bf 8531 a8bf b0b9 b43d 2a60 93bc
00000030: d8f5 2fbf e7cd 9e3c fc87 cfbf a674 06bf
-0.5207872 -0.20089273 -0.5972319 0.074357994 -0.23208806 -1.1795182 -0.41844788 -0.8606478
-0.8351308 -1.3140112 0.088244796 -0.01799019 -0.687345 0.019385291 -1.6213374 -0.5252174

b1_bn.running_mean f4 [16]
00000000: a876 b5bf 2b02 45c0 b7e7 1ec0 b3de e83b
00000010: 0caf a8bf 836e 6dbf dc32 073f ab9d 75bf
00000020: e5fa d5bf 2417 16bf 10c2 a13f 6c08 febf
00000030: 00c5 373c b8ba aa3f d431 1ebe 94cd 99bf
-1.4176836 -3.0782573 -2.4828928 0.007106626 -1.317842 -0.9274675 0.5281198 -0.9594371
-1.6717192 -0.5862906 1.2637348 -1.984632 0.011216402 1.3338232 -0.15448695 -1.2015862

b1_bn.running_var f4 [16]
00000000: cb4a 9c41 c34b 9e41 a6f0 0841 1229 7141
00000010: dabd 3541 a2f6 c440 41e2 1a41 9477 9141
00000020: 547b cc40 87ee 7141 53a8 3241 e0dc 6541
00000030: 60b0 9741 07b9 7e41 8c52 6241 7f48 1441
19.53652 19.786993 8.558752 15.072527 11.3588505 6.1551065 9.680238 18.183388
6.3900547 15.120734 11.166095 14.366425 18.96112 15.920173 14.145153 9.267699

b2_c1.weight f4 [32, 16, 3, 3]
00000000: 717a 9a3f e201 4f3f fac9 9c3f 0833 0f3e
00000010: 66ac b3be 11ce 1f3f 4ae2 cfbf 9436 f4bf
00000020: 4086 31bf a2b9 20be dc69 10bc 935b ef3f
00000030: fc5c 94bf 502f 283f b4a8 0540 a675 26c0
00000040: a5c5 59c0 db91 22bf b2a8 78bf a7e4 3cbf
00000050: 1a2e debd c414 f7bf 7c03 8abf b47c 9fbf
00000060: de64 febf 49ae 0bc0 54b7 0cbf d007 c5bf
00000070: 69d0 9d3e 6b4b 13c0 3135 9abf 7f3a 023f
00000080: d019 40bf a5dc c5bf 1dd3 1a3f 56a9 56bf
00000090: aba4 253e 7dac 94be bfb1 ac3e 8a7b 36bf
000000a0: 960d 24c0 843d bd3e 4d1d e1bf 77f6 1dc0
000000b0: b807 a8bf 3edf b3bf 3d1c acbd 842b 61be
000000c0: 1c29 9dbf eca1 7dbf b3e8 30bf ec54 85bf
000000d0: 5e0b 2dbf f2ec 32be 7219 25bf 1a7e 59bf
000000e0: c135 443f e3ea d83f 80d4 073f ed4d be3e
000000f0: 4fba 2dbf d339 2dc0 6729 ad3d 810a a03f
00000100: 1764 973f 1c01 aabf 4de7 61bf 04e7 0f3f
00000110: 95ec 63bf 2946 bbbf df4a 373d e963 99bf
00000120: 7431 04c0 2c19 483f 8230 ab3f dd22 b6bf
00000130: 1795 1e3f 30a2 303f d2e2 08c0 7f00 c0bf
00000140: a9a7 9bbf b7d3 26c0 80a1 1fc0 d9c8 8dbf
00000150: 9382 c4bf d67a 1dc0 de5e 40be 676e 473e
00000160: 4e52 7bbf 7031 22bf 8908 8fbf 1dac 99bf
00000170: 7607 1ac0 bc85 e5bf 8a8f 79bd a42e 49bf
00000180: 1670 b5bf 1ed9 ac3f 42a7 ca3e d4ba 043e
00000190: cb1d c03f 6708 f03f 0f7e 44be 00f2 2f3f
000001a0: 8344 e03f 54f4 a9bf 4ed6 cbbf fe94 d1be
000001b0: 149d 1d3f af5c b5bf 0757 f13d b727 a3bf
000001c0: fe64 bebf f4da 20bf 6e1f 31bf fc79 39bf
000001d0: d699 393f c9f5 bbbf 68b0 17c0 43f8 62c0
000001e0: c7c3 b3bf 8018 93bf 5736 9cbf 10ee 15bf
000001f0: d4df 053f b451 243e 3a28 09bf d746 bd3e
00000200: c045 933d 3ce5 0ac0 bc88 26bf 0ff0 323b
00000210: 473b a7be 615b 9dbf 5851 b3be 09a4 70bf
00000220: ccd8 0e3f 8367 c03e 6ae5 f6be 46e0 3e3f
00000230: b001 e7bd 4f70 293f 1338 ba3f caf6 e13f
00000240: 2e44 d9bf f10d 8bbf c272 f53e eb46 3bc0
00000250: 5cb3 b7bf 5600 a23f aee0 48c0 f833 59c0
00000260: 317f 8f3e 827d 13c0 40ce 1fbf 7c4f d13e
00000270: d4a1 01c0 1bac 29be ef5c 683f 7595 ccbf
00000280: 2721 ffbf 4447 63bd cd44 623f e916 303f
00000290: df02 48be e791 733f 68af 683f 5e51 5ebf
000002a0: 4083 1fc0 d068 83bd f8d4 863f 390e 2bc0
000002b0: 039c ff3e 69dd 7c3e d281 8ac0 d499 c33e
000002c0: e4f5 f0bf bc9c 6cc0 ddf8 b63e a1ff 81bf
000002d0: 4039 98bf 6802 913f ce7b 863c 06ef a3bf
000002e0: d9c5 843f 91f5 71bf adfc 3fbf 5c06 87be
000002f0: ca0e 8e3c 4c67 da3d 8b14 06c0 ee1c b73d
00000300: c42c 0d3f df77 42bf 5bb8 8abd 989e 043f
00000310: be2f 3fbf 35a1 52bf 0881 27be 5092 4e3f
00000320: 771f 29bf 387b 773e 0764 0f3f 28b9 343f
00000330: 9814 0ec0 4a7d ae3f 3e89 4cbe c962 89bf
00000340: 77f9 6e3f af8e 873f 51f4 12c0 7da2 e0be
00000350: 7e15 213f 6ec4 3dc0 9be2 633d 566b 493c
00000360: f1e5 54bf 6bde 583f 4a2a e73f e5eb 59bf
00000370: 8b39 f33f b08c 183f 7a62 c2bf d5e4 853f
00000380: ce1c 273e 527f 09c0 f89d ad3f 5ccf b83f
00000390: 8edb d5bf 5dff 58be 7e2c 92bf 3aa4 34bf
000003a0: 52dd 543e 3c27 953f 9153 c2bf 1697 56bf
000003b0: 0371 34be 2c9b 4abf 0e0d 87bf 124a f2bf
000003c0: 8673 43c0 20c6 dd3c d0e2 21bf 1153 b0bf
000003d0: 2d72 36bf d808 90be 434d 01c0 da74 603f
000003e0: 47e3 84bd 89f1 11c0 8960 593f 6108 a0bf
000003f0: e478 fbbf fff7 fc3d 406e b4be 34cc 2ac0
1.2068616 0.8086225 1.2249138 0.1398431 -0.35092467 0.6242381 -1.6240933 -1.9079156
-0.69345474 -0.15695813 -0.008814301 1.8699821 -1.1590877 0.65697193 2.0884218 -2.6009307
-3.4026883 -0.6350381 -0.9713241 -0.73786396 -0.10848637 -1.9303212 -1.0782313 -1.2459931
-1.9874532 -2.1825125 -0.54967237 -1.5393009 0.30823067 -2.3014781 -1.2047483 0.5087051
-0.75039387 -1.545796 0.60478383 -0.83852136 0.16176097 -0.29037848 0.3372936 -0.71282256
-2.5633292 0.36960995 -1.7587067 -2.468168 -1.3127356 -1.4052503 -0.084038235 -0.21989256
-1.227817 -0.990752 -0.6910507 -1.0416541 -0.6759547 -0.174732 -0.6449195 -0.8495804
0.7664452 1.6946682 0.53058624 0.37168828 -0.6786241 -2.7066543 0.084551625 1.2503206
1.182742 -1.3281589 -0.8824356 0.56211877 -0.8903287 -1.4630786 0.044749137 -1.1983615
-2.0655184 0.7816341 1.3374178 -1.422939 0.61946243 0.6899748 -2.138844 -1.5000151
-1.2160541 -2.606672 -2.4942322 -1.1076919 -1.5352348 -2.4606223 -0.18786189 0.19475709
-0.9817246 -0.63356686 -1.117448 -1.200565 -2.4067054 -1.7931437 -0.060927905 -0.7858679
-1.4174831 1.3503759 0.39580733 0.12961894 1.5009092 1.8752564 -0.19188713 0.6872864
1.7520908 -1.3277688 -1.5924776 -0.40933985 0.6156781 -1.416891 0.11784177 -1.2746495
-1.487457 -0.62834096 -0.6918858 -0.7245176 0.7250036 -1.4684383 -2.370142 -3.5464027
-1.4044122 -1.1491852 -1.2204083 -0.5856638 0.5229466 0.16046792 -0.53577006 0.3696811
0.07191038 -2.1702414 -0.6505239 0.002730373 -0.32662413 -1.2293512 -0.35022998 -0.940003
0.55799556 0.37578973 -0.48221904 0.74560964 -0.11279619 0.66186994 1.4548362 1.7653439
-1.6973932 -1.086363 0.47939116 -2.9262035 -1.4351611 1.2656353 -3.1387134 -3.393797
0.28026727 -2.3045354 -0.6242409 0.40880954 -2.0255022 -0.1656956 0.90766805 -1.5983111
-1.9931992 -0.055487886 0.8838623 0.6878496 -0.19532345 0.95144504 0.9089265 -0.86842906
-2.4923859 -0.06416476 1.0533743 -2.672743 0.49923715 0.24693836 -4.328347 0.382033
-1.882504 -3.6970663 0.35736743 -1.0156137 -1.1892471 1.1328859 0.016416457 -1.2807319
1.0372878 -0.9451533 -0.7499493 -0.2637204 0.017341036 0.106642336 -2.0950038 0.08941065
0.5514643 -0.7596416 -0.06773444 0.51804495 -0.74682224 -0.8227723 -0.16357815 0.80692005
-0.66063637 0.24168098 0.56012005 0.70595026 -2.220007 1.3631985 -0.19974229 -1.0733272
0.93349403 1.0590419 -2.296162 -0.4387397 0.6292342 -2.965114 0.05563603 0.012293657
-0.8316336 0.8471438 1.8059781 -0.8512557 1.9001936 0.5958967 -1.5186303 1.0460459
0.16319582 -2.148396 1.3563833 1.4438281 -1.6707628 -0.21191163 -1.1419828 -0.7056309
0.20787552 1.1652598 -1.5181752 -0.8382429 -0.17621236 -0.79143023 -1.0550859 -1.8928854
-3.053926 0.027072012 -0.63236713 -1.377535 -0.7126797 -0.28131747 -2.0203407 0.876783
-0.06488662 -2.2803671 0.84912926 -1.2502557 -1.9646268 0.12351989 -0.35240364 -2.6687136

b2_c1.bias f4 [32]
00000000: e534 043f 07bf 323f faec 87bf 9a6a 3a3f
00000010: e404 b33f f2ca 3440 c357 863f 313d a73f
00000020: 4450 883f 1205 323f d8b5 a23f e608 3040
00000030: 7859 4840 7720 943e f518 1a40 d0d3 3b3f
00000040: 79db 14bd 6775 d43f ddf5 74bd 0aba 1b40
00000050: ce4d 13be 7fff 0840 9915 4cbf e7c1 d4bd
00000060: e119 a6bc e993 36be 6a24 e8be 03ab 963e
00000070: 0bcf 863f d205 0540 16c9 67bf d0d3 503e
0.5164321 0.69822735 -1.0619195 0.7281891 1.3985868 2.8248868 1.0495533 1.3065549
1.0649495 0.69538987 1.2711744 2.750543 3.1304607 0.2893102 2.4077733 0.73370075
-0.036342118 1.6598328 -0.059804786 2.43323 -0.14385149 2.1405942 -0.79720455 -0.103885464
-0.020276012 -0.17829861 -0.45340282 0.29427347 1.0531934 2.0784802 -0.9054121 0.203933

b2_c2.weight f4 [32, 32, 3, 3]
00000000: cb11 fdbf 1bcf 88be 7615 46be 122c b3bf
00000010: 14ff f1be 18ce 533c 1339 62bf 24cb adbf
00000020: a5aa 88bf 19a2 29c0 83d7 383f d659 d83f
00000030: 9d9c 08c0 30bf ecbe 5849 0a3f 9639 10c0
00000040: 8f50 50bf bdeb 0c3f 70e4 353f 7192 7dbf
00000050: 5d36 11c0 e098 883e 66c0 8e3f 071e 1f3e
00000060: b56b d5be 1ac2 463f effc a23f 922f a13f
00000070: 38fa 563f 9277 b3bd 2e5b b9bd 017c d23c
00000080: cc6c 85bc 48d2 c8bf ec61 1fbf 2b91 753f
00000090: ac6c 6e3f 1fbe a93f 362f 1d3f 0185 b03f
000000a0: 639f 10bf 8158 22c0 267d 9ebd 90c8 25c0
000000b0: 9c82 6cc0 f3bb 873f 4f83 b7bf c57d eebe
000000c0: 6c80 113f aad8 c2bf b2e4 40bf 95de da3c
000000d0: cbc9 7a3f aff0 d5bf b7e8 473f 0555 0240
000000e0: bff1 06c0 61e3 593f b7a2 c13f 7a12 0cbf
000000f0: 3894 833f 435a d63e 4a2f 01bf 43c3 09be
00000100: 1ee5 023f 36fe a53d 29ea 933f 3101 b63f
00000110: 7878 8cbe f64a dabf 454e 493f 9e4b 0cc0
00000120: 3d98 ac3e 8af5 8d3f ad35 c0be daa9 2a3f
00000130: 9c74 a9bf b5bf 8dc0 00cc 9f3e 83e9 48bf
00000140: aba6 64c0 725d 003f 9e41 4cc0 4d7f c8bf
00000150: 5dbf 0c3e e470 c1bf 46db fdbd fc5b 7a3f
00000160: 0a46 a33e 0189 eebf 304a 1cc0 0d62 62bf
00000170: b952 39bf 9eb8 d5bf 8312 1bbf f575 803e
00000180: b3e6 963e 08ae 353e fb6c 8e3e ebc1 043f
00000190: 39b4 9fbf ad2d ddbe 1d50 c13f debc 0b3f
000001a0: cc76 b6be 1822 aa3f 3a60 6f3f bcf8 19c0
000001b0: 99a5 99bf 407f 9ebf 565c 9abe 9c58 c13e
000001c0: 3184 3e3f a3ec 013f 8a4f 7b3f ff21 373f
000001d0: b882 fdbe fe11 c2bd 3a88 3fbf 09b5 2dc0
000001e0: eed6 e73d f42e d2bf f028 9fc0 a603 d3be
000001f0: dac3 09c0 2fd8 8dc0 e4c9 89bd b675 22bd
00000200: 3879 b5bf 9af0 7d3d 35b8 53be 00ca 95bf
00000210: 8959 083e c438 8e3d 269a f1be 0753 013f
00000220: 62a2 e13f 3fa8 19be a1b2 89bf 12a0 443f
00000230: 050c 7f3e 6536 19c0 43b6 c7bf a91b 85be
00000240: 83c1 e5bf b716 07c0 3569 b2be 661d 973d
00000250: 267f d0bf a155 58bf 7fdb fa3f 4e66 9dbf
00000260: cf8c 69bf 40fb 2140 9ded 82bf 35e6 02c0
00000270: 4428 3b40 286b 983f 0ea7 82be c646 b83e
00000280: b840 483f 54f6 a2be 3e70 963f 84a5 e73e
00000290: 4feb cbbe 752f 0640 785a 823f a227 413f
000002a0: 37c4 fc3f 5bdc 8ebe 7bdb aabf c038 0b40
000002b0: 2d57 d93f c8d7 c9bf e2ed d43f 313f 2e40
000002c0: e5cf 023f 7b36 c13e 13a0 4f3f 05b2 2bbf
000002d0: b067 353f c466 3d3f e1e4 fa3f 5038 ecbe
000002e0: b0e1 923e 265d 5a3f 152b 7dbf 6cb9 3ebf
000002f0: 0000 afbe ee39 2a3d 04c2 9abf 07fb 51c0
00000300: f588 a33f ca14 e8bf f272 a2c0 6dcf 323f
00000310: d1f9 f2bf b3df a9c0 03ab 85bf 9d23 d73f
00000320: c5b3 dbbf d9b1 c8bf cdd4 b43c fabd b8bf
00000330: 6af6 e7bf 17a6 6fbf 0a66 dcbf 30ff b03f
00000340: d0db 8abf a964 823e 4512 a63f d315 8b3e
00000350: 4132 803e ab4c 08bf 8074 d4bf e63a 813f
00000360: 5188 50bf d3ed 22bf 3878 103f 33c8 ed3e
00000370: b21e 24bf 7c20 a93f c8d6 bf3f 4448 2cbe
00000380: a8ad a83f 54d8 6c3e 6a18 8f3f a12d 09bf
00000390: ccbd df3f 8d14 223e 6a12 f0bf 833a f6bd
000003a0: 1e07 bebf 3040 90c0 2d6f 4c3f 5435 55c0
000003b0: e75b 6dc0 be92 4c3f a9be 533e 821e 033f
000003c0: f3f8 763f a472 fbbe abfe 0cc0 7b6f 16c0
000003d0: eb6a 1fbf 132f 063f 6d0c ffbf ee21 d3bf
000003e0: 209a 57bf 76c4 6abf dbcd 94bf d579 73bf
000003f0: fa79 12c0 9665 a8be 4a98 45bf 56b9 17bf
-1.9771055 -0.2672051 -0.19344124 -1.3997824 -0.47264922 0.012927555 -0.8836834 -1.3577619
-1.0677077 -2.6505187 0.72203845 1.6902416 -2.134559 -0.46239614 0.54018164 -2.2535148
-0.8137292 0.5504721 0.7105169 -0.99051577 -2.268943 0.26679134 1.1152465 0.15538798
-0.41683736 0.77639925 1.2733439 1.2592642 0.83975554 -0.087630406 -0.09050594 0.025693895
-0.01628723 -1.5689173 -0.6225879 0.95924634 0.9313457 1.3261145 0.61400163 1.379059
-0.56493205 -2.5366518 -0.07738714 -2.5903664 -3.6954718 1.0604233 -1.4336947 -0.4658033
0.5683658 -1.5222371 -0.7534896 0.026717464 0.9796416 -1.6714076 0.7808947 2.0364392
-2.108505 0.8511258 1.5127782 -0.54715693 1.0279608 0.4186574 -0.5046278 -0.13453393
0.51130855 0.081051275 1.1555835 1.4219114 -0.2743566 -1.7054126 0.78635055 -2.1921153
0.337099 1.1090558 -0.3754095 0.6666542 -1.3238711 -4.4296517 0.31210327 -0.7848131
-3.5726726 0.50142586 -3.191505 -1.5663849 0.13744874 -1.5112576 -0.12395339 0.97796607
0.31889373 -1.863556 -2.442028 -0.88430864 -0.7239185 -1.6696966 -0.6057512 0.25089994
0.29472885 0.17742169 0.2781752 0.51858395 -1.2476875 -0.4319891 1.5102574 0.54585063
-0.3563751 1.3291655 0.93506205 -2.4058065 -1.2003661 -1.2382584 -0.30148572 0.37762916
0.7442046 0.50751704 0.9816824 0.7153625 -0.49513793 -0.09476088 -0.7481724 -2.7141745
0.113202915 -1.6420579 -4.9737473 -0.4121372 -2.1525788 -4.4326396 -0.06727961 -0.03966304
-1.4177618 0.061997034 -0.20675738 -1.170227 0.13315405 0.06944421 -0.47187918 0.50517315
1.762768 -0.15005587 -1.0757638 0.7680675 0.24906929 -2.393945 -1.5602497 -0.25997666
-1.794968 -2.1107614 -0.34845892 0.07378654 -1.6288803 -0.8450566 1.9598235 -1.2296846
-0.9123048 2.53096 -1.0228764 -2.0453007 2.9243326 1.1907701 -0.25518078 0.35991496
0.7822375 -0.31828558 1.1753004 0.45243466 -0.39827964 2.0966465 1.0183859 0.754511
1.974738 -0.27902493 -1.334823 2.1753387 1.6979729 -1.5768976 1.6635096 2.722607
0.5109847 0.37736878 0.8110363 -0.6706851 0.7086134 0.7398493 1.9601098 -0.46136713
0.2868781 0.85298383 -0.9889386 -0.7450168 -0.34179688 0.041559152 -1.2090459 -3.2809465
1.2776171 -1.8131344 -5.0765314 0.69847757 -1.8982488 -5.308557 -1.0442814 1.6807743
-1.7164236 -1.5679275 0.022074128 -1.4432976 -1.8122075 -0.9361281 -1.721864 1.3827877
-1.0848331 0.25467423 1.2974325 0.27165088 0.2503834 -0.53241986 -1.6598053 1.0096099
-0.81458 -0.6364414 0.5643344 0.46441802 -0.6410934 1.3213038 1.4987421 -0.16824442
1.3177996 0.23129398 1.1179326 -0.5358525 1.7479796 0.15828152 -1.875562 -0.12022879
-1.4845922 -4.5078354 0.7985714 -3.33138 -3.7087343 0.7991141 0.206782 0.51218426
0.96473616 -0.491109 -2.2030437 -2.3505542 -0.6227252 0.5241558 -1.9925667 -1.649473
-0.8421955 -0.91706026 -1.1625322 -0.95107776 -2.2886949 -0.32890004 -0.771855 -0.59267175

b2_c2.bias f4 [32]
00000000: 4044 88bf 4fdf b6be eb39 a83f 6072 b53f
00000010: 0001 acbe 61cb a3bf 93d9 573f 9467 b43f
00000020: 2bf0 15bf 8adc 9abe 7ef1 e1be 8992 423f
00000030: 5eff 3d3f e675 a33e d13d ffbe df83 6ebf
00000040: f897 b0be 535e fa3d 2ccf 623f efe6 83bf
00000050: 5a47 7d3f d724 27bd 921d cd3e 0ac3 883e
00000060: e84d e43e 82eb c83e 121d 363f 8b82 c5be
00000070: c8f7 173e 178e 90bf b956 0e40 0481 3d3f
-1.0645828 -0.35717246 1.3142675 1.417553 -0.33594513 -1.2796441 0.84316367 1.409411
-0.5856959 -0.30246383 -0.44129556 0.76004845 0.74217784 0.31925887 -0.4985185 -0.9316997
-0.34490943 0.12225022 0.8859737 -1.030485 0.98937 -0.040806618 0.40061623 0.26711303
0.44590688 0.39242178 0.7113811 -0.3857616 0.14840615 -1.1293362 2.2240431 0.7402499

b2_c3.weight f4 [32, 32, 3, 3]
00000000: d070 50c0 7bf2 0fbe 2a65 cbbf 69b3 3dbf
00000010: af2a 51be 4715 48c0 2dce e5bf 9244 0cbf
00000020: a2bc 37c0 f701 d9bf 9058 3b3e e426 dfbf
00000030: c9e3 8bbf d72a fcbf 7c17 36c0 65c7 04be
00000040: 74a0 89bf e6b9 92bf 823a 18c0 0025 4fbf
00000050: 9320 d33e 9aa9 54bf ce28 d5bf 8c07 9dbf
00000060: a30d 313f 2391 afbf 42ed 1cc0 705f 8e3f
00000070: f1c0 203f 30cf cf3f 229d 05c0 c937 94bf
00000080: 4722 19c0 4b43 a23e ef8b ae3f bb58 30c0
00000090: 04d8 9d3e 4239 69bf f816 10c0 9d71 fa3e
000000a0: 8405 18bf e43b bebf a050 b93e a717 a1be
000000b0: f348 bebf ef9b 8fbf f046 0bc0 17ae c03e
000000c0: 9af2 87be 3354 05c0 9149 61bf c994 35bf
000000d0: 1180 c5be c689 43be 0c95 813e 3d7e 9e3f
000000e0: e161 e4bf a6b4 7b3e 13b4 c63f 5cc5 b2bf
000000f0: d864 e13d d498 ad3f 7772 89bf a2f1 73bf
00000100: 44d3 4c3f 5e56 403f 8a52 e43f 3ec1 8d3f
00000110: f21d de3c 5feb babf ecbd b43e 4034 4ec0
00000120: 8b1e 25bd c4dc 80bd ccd0 1abd 8b27 8ec0
00000130: a0a8 373d 2d14 a8bf e7b9 3fc0 dea6 893d
00000140: d218 c2bf 8745 7e3e 1e5d 40c0 9285 0a40
00000150: 82a9 053f 7252 16c0 e369 2d3f 76e6 5c3f
00000160: a438 24c0 501f 7bbd 7de8 07c0 ae51 16bf
00000170: 5e5b 4abf b740 4ebf b4ea 2cbf 1c76 86c0
00000180: 093b 04bf 8699 8fbf f86c babf 51c7 3d3f
00000190: aec7 d2bf 9115 31c0 43e7 0a3f 48fa a53d
000001a0: 7650 e5bf 7617 573f ac35 f43e 9d7a 05c0
000001b0: df19 d53f d8c8 01bf fa14 34c0 7ed0 7d3e
000001c0: f7d8 073e 59ee eebf b7e0 c3bd 4d3e 263f
000001d0: bd67 0ac0 e2b0 2dbe 357f 82be bd43 813e
000001e0: 3c11 79bf 1c07 68be d9dc b6bf cb5e f0be
000001f0: c5a4 58bf f4ca 0cc0 8466 4dbd 1169 61bf
00000200: c8d3 35c0 4d4e 893f 544f 8ebe 0678 83bf
00000210: 4eb7 b2bf 0979 0bbd 2219 3ec0 21bb 16be
00000220: 91a2 77bf f935 7cbf 5d1c 42be f55f 62bf
00000230: 67e8 2ec0 c082 ea3d 0b54 ccbf 9d23 4dc0
00000240: 0a4e 01be 5f64 34be 0772 fabf 159d 5f3f
00000250: 4017 863f 889a 4abf 7999 95bd 1fb8 1b3f
00000260: a66e 69be 3607 093d 2970 3bbf 2de4 a03f
00000270: 35eb 933f 9716 e8bb ed9b 9b3f 84f9 5d3f
00000280: 2f45 63bf dfb9 843f e5ba 283e 4443 dfbe
00000290: 3a44 1d3f 8c8e 2bbf af42 15c0 e7c6 81bf
000002a0: 9b11 89bf 35bf 63bf cdf4 cbbf 0ea9 563f
000002b0: acc5 9abf 5c1c c13f bfc2 fcbf dfac 37c0
000002c0: 4e88 403f 19c0 2ebf e926 2ac0 224b 36bf
000002d0: b0f7 9e3e 2ee3 2cbf b2d7 db3e f5af 51be
000002e0: df77 44bf ca24 32bf 9a77 933e ca4e f9bf
000002f0: c198 72bf abb6 bd3f 4ebf d43f e04e 983f
00000300: 43fd f1bf 54a2 43bf 109c bfbf 8628 f3bf
00000310: 967c 27c0 5dbc d8bf 58b5 cd3f 1c62 07bf
00000320: 432d 1bc0 99d9 8cbf fedd 8abf 5754 23c0
00000330: 3d19 98bf 3b9b 00c0 dbb0 8fc0 8dd4 f1bf
00000340: 7123 3ebe 1a21 1ebf 5fa4 03bf 0107 2bbe
00000350: 7151 923d b5f8 f7bf 3d10 9dbf a6b1 563e
00000360: 02c9 113e b5bb 6dbd 6316 39c0 b0e9 d53f
00000370: 9f0e f93f c953 edbf 7c9c 783f 5107 a03f
00000380: d45d a2bf ff66 5c3f fe12 4c3f 33a4 cc3f
00000390: f967 d03e 5bff 56be 3c86 543f 062a c5bf
000003a0: c440 093f 55a1 c83f a125 8dbf 18ee 85bf
000003b0: 2a0b 16c0 392f b9be 24e0 adbf 2cc0 42c0
000003c0: e0d0 963d 7654 d9bf 4f8f 34c0 f238 933c
000003d0: 0773 dbbf 3f9e 0ac0 48b1 a4bf da83 73bf
000003e0: 5f4c c3bf c027 08c0 8e2f 29bf ba59 4bbf
000003f0: f162 68bf e458 02bf 101f b3bf 7f0c bfbe
-3.2568855 -0.14057343 -1.5890248 -0.74101883 -0.20426439 -3.1262987 -1.7953545 -0.5479213
-2.8708882 -1.6953725 0.18295503 -1.7433743 -1.092889 -1.9700574 -2.8451834 -0.12966688
-1.0752091 -1.1462982 -2.378571 -0.8091583 0.4123579 -0.8307129 -1.6653078 -1.2267928
0.69161433 -1.3716167 -2.451981 1.1122875 0.62794405 1.6235104 -2.0877156 -1.1579524
-2.3927171 0.31691965 1.3636454 -2.7554157 0.3082887 -0.91102993 -2.251402 0.48914805
-0.59383416 -1.4862027 0.36194324 -0.31463358 -1.4866012 -1.1219462 -2.1762047 0.3763282
-0.26552278 -2.083264 -0.8800288 -0.70930153 -0.3857427 -0.19095525 0.25309026 1.2382275
-1.784237 0.2458063 1.5523704 -1.3966479 0.110055625 1.3562264 -1.0738057 -0.9529058
0.80009866 0.75131786 1.7837689 1.1074598 0.027113888 -1.460308 0.3530115 -3.221939
-0.04031233 -0.06292108 -0.03779678 -4.442327 0.044838548 -1.3131157 -2.9957216 0.067212805
-1.5163825 0.2483121 -3.0056834 2.1644025 0.52211773 -2.348782 0.67739695 0.86289155
-2.565957 -0.06130916 -2.123565 -0.58718383 -0.79045665 -0.80567497 -0.6754563 -4.2019176
-0.5165258 -1.1218727 -1.4564505 0.7413226 -1.6467187 -2.7669413 0.5425913 0.08104378
-1.791518 0.84020174 0.47697198 -2.0856087 1.664852 -0.5069709 -2.8137803 0.24786565
0.1326636 -1.8666488 -0.09564345 0.64938813 -2.1625817 -0.16962007 -0.25487676 0.25246993
-0.9729192 -0.22658962 -1.4286147 -0.4694732 -0.8462642 -2.1998873 -0.050146595 -0.88050944
-2.841051 1.072702 -0.27794898 -1.0271003 -1.396219 -0.034050975 -2.970284 -0.14719822
-0.9673243 -0.98519856 -0.18956132 -0.8842767 -2.7329347 0.1145072 -1.5963148 -3.2052987
-0.12627426 -0.17616414 -1.9566048 0.87349063 1.0475845 -0.79142046 -0.07304663 0.6082782
-0.22796115 0.033454143 -0.7321802 1.2569634 1.1556154 -0.007082771 1.215696 0.86708856
-0.8877744 1.0369223 0.16477545 -0.43606007 0.6143223 -0.67014384 -2.332195 -1.0138825
-1.0708498 -0.88963634 -1.5934082 0.83851707 -1.2091575 1.508678 -1.9746932 -2.8699262
0.75207984 -0.6826187 -2.658625 -0.71208394 0.31048346 -0.6753415 0.42938 -0.20477279
-0.7674541 -0.69587386 0.28802186 -1.947717 -0.94764334 1.4821371 1.6620882 1.1899071
-1.8905414 -0.7641957 -1.4969501 -1.8996742 -2.6169791 -1.6932484 1.6070967 -0.5288408
-2.4246376 -1.1003906 -1.0848997 -2.5520227 -1.1882702 -2.0094745 -4.490339 -1.889299
-0.18568207 -0.6176926 -0.51422685 -0.1670189 0.0714444 -1.9372774 -1.227058 0.20966205
0.14236835 -0.05804034 -2.8919914 1.6711941 1.9457587 -1.8541194 0.97113776 1.2502233
-1.2684884 0.8609466 0.7971648 1.598761 0.40704325 -0.20995848 0.83017325 -1.540345
0.5361445 1.5674235 -1.1027108 -1.0463285 -2.3444314 -0.3616884 -1.3584027 -3.0429792
0.073640585 -1.69789 -2.8212469 0.01797149 -1.7144479 -2.1659086 -1.2866602 -0.95123065
-1.5257682 -2.1274261 -0.6608819 -0.79433787 -0.9077597 -0.50916886 -1.3993855 -0.3731422

b2_c3.bias f4 [32]
00000000: 2909 7a3f 490c 8fbe cf61 1e3f 06f5 51bc
00000010: 3d4c 16bf 4275 f0be 45d5 8dbe 017a 2fbf
00000020: efa8 0dbe 51aa 823d 530a a53d b82a d1bf
00000030: 934c debf d831 b93e 5d84 c1bf c387 0dbf
00000040: 6500 a13e 660f 9dbe 7055 213f f2ac 8cbd
00000050: 4b7a 4abf f90c e2bd d9c6 88be be6d 073f
00000060: b66f d7be 15a9 883f 9678 723f 9e6c d3bf
00000070: ae2b a5be a62f 1ebf a46f 04bf cf28 b8be
0.9767023 -0.2793906 0.61867994 -0.012814766 -0.5871008 -0.4696446 -0.27701774 -0.6854554
-0.13833974 0.063801415 0.0805861 -1.6341162 -1.7367119 0.3617084 -1.5118519 -0.5528528
0.31445614 -0.3067581 0.6302099 -0.06868924 -0.79092854 -0.110376306 -0.2671421 0.5290183
-0.42077416 1.06766 0.9471525 -1.6517522 -0.32259887 -0.61791456 -0.5173285 -0.35968634

b2_bn.weight f4 [32]
00000000: f45f 5b3f ea73 1d3f 184f 1a3f b892 503f
00000010: 5786 063f 738a 193f b1b6 013f 8b5d 2d3f
00000020: 3f52 103f bc32 4f3f 136a 4b3f a7cb 123f
00000030: cbf0 043f 1592 623f aa6b 483f 9c73 1d3f
00000040: 3a7f 053f d530 d33e 8b9d 173f 66cf 783f
00000050: 57f3 433f 6897 fb3e 581c 293f 7f7e 3a3f
00000060: 8fa8 0a3f 8f3a 123f 0863 0e3f 4f19 183f
00000070: 8c18 5b3f 2e10 083f 0ade 373f e58b f83e
0.8569329 0.61504996 0.6027694 0.81473875 0.52548736 0.5997688 0.5066939 0.6772086
0.563755 0.8093679 0.7945873 0.57342 0.5192992 0.88504153 0.7828928 0.6150453
0.5214726 0.41248193 0.59224766 0.97191465 0.7654318 0.4913895 0.66058874 0.7284927
0.5416345 0.57120603 0.5561986 0.5941362 0.8558433 0.5314969 0.7182318 0.4854423

b2_bn.bias f4 [32]
00000000: 8883 103f e017 45bf 6d7b a03e adf6 b03f
00000010: 0c88 743f d8d6 363f 1e1c b53f f1cf 1d3f
00000020: 3254 273f 39b7 d43e ffa8 0d3f 9e8f 393f
00000030: 91e3 d13f ee25 3f3f ebb1 2dbf f004 6fbe
00000040: 4b61 d4be d9cd b93f 09db 373f efac 9a3f
00000050: cfe6 3fbf ed9e fe3f 4c5b 9abe 9bd3 003f
00000060: 94f0 e33e c2dc 223f 138e 933e bf7c 32bf
00000070: 6343 803c bece 183f b5cd aa3e 2425 0b3d
0.564507 -0.76989555 0.31344166 1.382528 0.9552009 0.71421576 1.4149206 0.6164542
0.65362847 0.41546038 0.5533599 0.7248477 1.6397573 0.7466725 -0.67849606 -0.23341727
-0.4148048 1.4515945 0.71818596 1.2084025 -0.7496156 1.989225 -0.3014778 0.50322884
0.44519484 0.636181 0.28819332 -0.697216 0.015657132 0.59690464 0.33360067 0.033970967

b2_bn.running_mean f4 [32]
00000000: c95c f5c0 4bb6 80c0 be70 94c0 fa84 a7c0
00000010: 6ad6 43c0 c2bd d1c0 d5c8 a9c0 b5f5 63c0
00000020: d9f3 8bc0 dcca 93c0 629b 02c1 a399 a1c0
00000030: cd1e d1c0 a587 09c1 4bd1 b1c0 a5be 4ec0
00000040: 72b0 abbf 9928 eac0 c735 04c0 6eda d7c0
00000050: 78b9 1bc0 a506 00c1 8757 24c0 957a d3c0
00000060: 250d 77c0 4431 e8bf 5d91 a4c0 b86d e5bf
00000070: 77aa 5ec0 290e 8ec0 f480 3ac0 a364 73c0
-7.6675763 -4.0222526 -4.6387625 -5.2349825 -3.0599618 -6.554414 -5.3057656 -3.5618718
-4.3735166 -4.618513 -8.162935 -5.0500045 -6.53501 -8.595616 -5.5567985 -3.230386
-1.3413222 -7.317456 -2.0657823 -6.745414 -2.433195 -8.001622 -2.5678422 -6.6087136
-3.8601773 -1.8140035 -5.1427445 -1.7924109 -3.4791543 -4.4392285 -2.9141207 -3.8030174

b2_bn.running_var f4 [32]
00000000: a526 4142 26d3 0c42 824b 3f42 9c29 2a42
00000010: afe3 0842 317f 1542 1d2d 4d42 d3b7 6842
00000020: c77d 6c42 89ff 4842 3d52 0642 e30d 3b42
00000030: b331 2442 7f02 a742 97f6 8242 fb93 2a42
00000040: d7c9 2242 832b 4042 1178 4d42 9786 1742
00000050: be97 1b42 fb84 3442 94ae 4a42 d9bc 2b42
00000060: 1c0c 2542 c23a 2b42 5b15 4a42 60c3 0042
00000070: cd10 7f42 a94f 6942 cfa3 4242 66a0 0342
48.28774 35.2062 47.82374 42.540634 34.222347 37.37421 51.294056 58.179516
59.12283 50.249546 33.58031 46.76356 41.048534 83.504875 65.48162 42.644512
40.69711 48.042492 51.367252 37.881435 38.898186 45.129864 50.670486 42.93442
41.261826 42.80738 50.520855 32.190796 63.766407 58.327793 48.65997 32.90664

b3_c1.weight f4 [48, 32, 3, 3]
00000000: 288e bebf dfe8 4fbe b70b 343f bd5d fbbf
00000010: 9812 393e b9a2 8f3f 7254 ce3d 102b c1bf
00000020: 5a51 e73d 573e 73bf 019f c7be ef01 16bf
00000030: bf1c 8bbf 139c 41c0 e254 743d a1be 93bf
00000040: 40ef babf 4345 dabf c8a6 f73e 3556 e0be
00000050: b90f a0bf ade0 cc3e e92c e3be c19a 663f
00000060: eeb4 8a3f b432 abbf fe03 763e 57f6 0bc0
00000070: 5fb5 b4bf 8983 ad3e 7b66 8e3f d908 a6bb
00000080: 8b52 623e ad98 3d3f 9f21 883f cc70 4f3f
00000090: 9d41 34be e13f 6abf 3c19 ba3e 097c 663e
000000a0: 2131 55bf f255 f0be 6c3b a2bf 3276 d23e
000000b0: 409e b23f e199 f3be b110 85bf 56be 9abe
000000c0: e481 2f3f 5f9d 8ebf 3311 0cc0 d761 0140
000000d0: a1b8 c4be 6077 eabe 43ee 93bf f16d b7bf
000000e0: 6747 2abf 3155 25bf 8a81 0b3e 0b16 36be
000000f0: 80db a13d 7d1d 7f3f a445 0440 af02 0ebf
00000100: 8236 f43e 2abe 333f 76ed 873e 9b75 9a3e
00000110: 0730 d03e a41e 0dbf b170 923e 20c2 893e
00000120: 0354 803f 1d69 153f b5af 833f 7f44 493f
00000130: 5615 823f 54d8 383f b33e 613d bace e33f
00000140: 1c19 f8bf c00d b7bd efc9 3ebf 556b cabf
00000150: 09d2 45c0 5e22 e5bf 9a3c 8abf 9f1f 63be
00000160: 7236 cfbe c33d 8a3f 123c 12be 8a8f 103f
00000170: bbf5 843f 7db8 edbe a16a 803f 77ba e83e
00000180: 87f5 03bf ad65 7a3e 1bef 0040 310e c03f
00000190: 5da5 1e3f cf9b 883f 66eb 50bd db76 243f
000001a0: a271 d9be 5e1a 0bc0 0c85 77bf c274 16c0
000001b0: e360 efbf 6a16 f5bf 10f9 f1be 9cfa 5fc0
000001c0: eab3 13c0 243e c2bf 71ff 84bf 330c 9ebf
000001d0: 7342 84be d6ff 03c0 ed4a d53f 5ed6 4abe
000001e0: eb84 cd3c 90e0 11bf 56bb 1dc0 ce91 9c3c
000001f0: e885 d13e ff7d 26c0 fe84 d5be 7355 75be
00000200: 3257 ecbf ceb3 1cbf 1de0 0fbf 81f1 a6bf
00000210: a06c 00c0 47b6 89c0 25d9 60c0 0825 b5bd
00000220: 9acb 96be 9f87 eb3e c42f dfbe 0012 11bf
00000230: 8eaa 43bf 3835 3640 036b 943f 1f1d 80bf
00000240: ed2f ddbf db66 39bf ae02 b43e cd05 10c0
00000250: 4ea6 ff3d 96e5 15c0 bb5b cfbf 3b82 3b40
00000260: 6fe1 6ac0 b0ad ffbe 15a2 803e 4e73 063f
00000270: 5ed5 d53e e837 4c3d b237 1a3f be34 d2be
00000280: afcf 003f 404a 8f3e e5e7 2fbf 8b71 a6bd
00000290: 6986 cabb beac 29bf edf7 87be 12ef ba3f
000002a0: 6a25 11c0 a287 dbbe f0f5 0040 6a65 263f
000002b0: c0aa ca3f ca0b c7be 0f14 2c3f 0dd3 823f
000002c0: 69d9 3c3f 168e d0be ff77 bc3f 4135 3bbe
000002d0: 187b 14be b30e 9ebe d4c2 8a3f 9d97 60bf
000002e0: 8729 cd3f 8430 a7bf 11a3 5fbf c060 3a40
000002f0: 9513 22c0 f070 9bbe 78a6 c2bf 65b4 47bf
00000300: 4b75 ddbf 1ea8 cabf 928b 85be d5c1 bebe
00000310: 77fe 1bbf a2cf 8dbf 2080 95bf 3efa 40bf
00000320: 5f07 fd3e 8850 95bc 520f 9d3d 0372 2f3f
00000330: 05d0 9dbf b034 debb c0ff 513f a72c 473f
00000340: 0e13 18c0 be8e 3a3f 5ac8 8b3f f335 1abf
00000350: e808 91be 32dd ad3f 1844 79bf da48 cbbf
00000360: 9aa1 abbf 06de 02be 344b 893c 0adf 07c0
00000370: 790f 3a3c c935 b23e 0eb9 08c0 c7f3 04bf
00000380: 8503 bebc c87b 74bf 1e6f 48be 2044 3dbd
00000390: 8125 00c0 5d0f 22bf 0a44 22bf a557 403e
000003a0: 2968 363e 9f11 babb 866b 663e c1e9 b9be
000003b0: 9627 863d b011 d53f 76f0 8fbf 5faf 41bf
000003c0: 9ba2 bb3f 301c 53bf b3c4 adbf 9bb6 b6bf
000003d0: cc51 d9bf cc15 06c0 aa21 f2bf 122c 4b3e
000003e0: 3e0e 3ec0 36ae 5dbf 034c 29be a6a7 adbf
000003f0: 939b 99bf 0f7e fcbf 8a85 0c3e 0f2f 39bf
-1.4887133 -0.20303677 0.70330375 -1.9637982 0.18073499 1.1221534 0.100747004 -1.5091267
0.112948135 -0.95017 -0.38988498 -0.585967 -1.0868148 -3.025151 0.059651263 -1.154255
-1.4604263 -1.7052387 0.48369431 -0.4381577 -1.2504798 0.40015164 -0.443702 0.90079886
1.0836465 -1.3374848 0.2402496 -2.1869104 -1.411785 0.33889416 1.1125025 -0.0050669727
0.221018 0.7406109 1.063526 0.8103149 -0.17603154 -0.9150372 0.36347377 0.22508253
-0.8327809 -0.4694057 -1.2674384 0.411058 1.3954544 -0.47578338 -1.0395719 -0.3022334
0.6855757 -1.1141776 -2.1885498 2.0215967 -0.3842211 -0.457942 -1.1557087 -1.4330426
-0.665152 -0.64583117 0.13623634 -0.17781846 0.079031944 0.9965437 2.0667505 -0.55472845
0.47697836 0.7021204 0.26548356 0.3016785 0.40661642 -0.5512488 0.28601602 0.26905918
1.0025638 0.58363515 1.0287997 0.7862014 1.0162761 0.7220509 0.054991435 1.7797463
-1.9382663 -0.089381695 -0.74526876 -1.5814005 -3.0909445 -1.7901113 -1.0799744 -0.22180031
-0.40471226 1.0800098 -0.14280728 0.56469023 1.0387491 -0.46429816 1.003254 0.4545476
-0.5154652 0.24452849 2.0145938 1.5004331 0.61971074 1.0672549 -0.051005743 0.6424386
-0.42469507 -2.1734843 -0.9668739 -2.3508763 -1.8701442 -1.9147465 -0.47260332 -3.499671
-2.307856 -1.5175214 -1.0390455 -1.2347473 -0.25831947 -2.06249 1.666349 -0.19808337
0.025087794 -0.5698328 -2.464559 0.019112494 0.40922475 -2.6014402 -0.41703027 -0.23958378
-1.846411 -0.6121186 -0.56201345 -1.3042451 -2.00663 -4.3035007 -3.5132535 -0.08844954
-0.2945221 0.46001908 -0.4359113 -0.5666809 -0.7643212 2.8469982 1.1595157 -1.0008887
-1.7280251 -0.7242257 0.35158294 -2.250354 0.12482892 -2.3421378 -1.6199869 2.9298236
-3.6700094 -0.499372 0.2512366 0.5251969 0.4176435 0.049858004 0.60241234 -0.41055864
0.503169 0.27986336 -0.6871322 -0.08127125 -0.0061805737 -0.6627921 -0.2655634 1.4604208
-2.2679086 -0.42876917 2.0150108 0.64998496 1.5833359 -0.38876182 0.67218107 1.0220658
0.7376924 -0.40733403 1.472412 -0.18282034 -0.14500082 -0.3087059 1.0840707 -0.87731344
1.6028298 -1.3061681 -0.87358195 2.9121552 -2.5324452 -0.30359602 -1.5207052 -0.78009635
-1.730142 -1.5832555 -0.26083046 -0.37257257 -0.6093516 -1.107899 -1.1679726 -0.7538184
0.49419686 -0.018226877 0.07668938 0.68533343 -1.2329108 -0.006781183 0.8203087 0.7780251
-2.376163 0.7287406 1.0920517 -0.6023857 -0.28327107 1.3583128 -0.9736953 -1.5881608
-1.3408692 -0.12780008 0.016759492 -2.1229882 0.011356228 0.3480666 -2.1362948 -0.51934475
-0.023195038 -0.95501375 -0.19573638 -0.046207547 -2.002289 -0.6330469 -0.6338507 0.18783434
0.17813171 -0.00567837 0.22501954 -0.36311153 0.06550519 1.6646023 -1.1245258 -0.7565822
1.4658998 -0.82464886 -1.3575653 -1.4274477 -1.6978087 -2.0950804 -1.8916523 0.1984103
-2.9696193 -0.8659395 -0.16532902 -1.3566787 -1.2000602 -1.972597 0.13722816 -0.7233743

b3_c1.bias f4 [48]
00000000: 586e b33d 391b 09bf 949c 2c3f cb7d 3ebe
00000010: 9643 6e3f 1a8b 36be e0be af3e 58e6 1c3f
00000020: 7ff0 a53e c7d6 f3bb c553 173f c86c f6be
00000030: 35a0 1d3f a6df 9d3e 5bb4 61bf d8d4 3dbf
00000040: f4c1 fabe cfcf a9bd f8a6 93be 2780 a0bd
00000050: 78d4 31bf c109 d1be 37d0 80bf da06 14bf
00000060: 9428 423f 2702 d53e 6f03 43bf 8180 6cbf
00000070: 331a 45bc 842c 553e 13a6 9dbe e659 04bf
00000080: d66a 64bf 2fb9 babe 65ce 26bf d525 1ebe
00000090: c00f 95be 4c93 df3d f136 cebc 1fc7 f6be
000000a0: 4848 e9bd d389 3e3f 72f1 76be b246 bc3e
000000b0: 0ad9 bc3e 3d0a abbe a184 8d3d df9a 0dbf
0.08761281 -0.53557163 0.6742642 -0.18602674 0.9307188 -0.178265 0.34325314 0.61288977
0.32410046 -0.007441375 0.591122 -0.48129869 0.6157258 0.30834693 -0.88165826 -0.741529
-0.489761 -0.082915895 -0.28838325 -0.07836943 -0.69464827 -0.40827754 -1.0063542 -0.57822955
0.7584317 0.41603205 -0.76177114 -0.9238358 -0.012030172 0.20817763 -0.30790767 -0.51699674
-0.8922552 -0.3646941 -0.65158683 -0.1544412 -0.2911358 0.109167665 -0.025172682 -0.48198792
-0.1139074 0.74429053 -0.24115542 0.36772686 0.36884338 -0.3340625 0.069100626 -0.5531444

b3_bn1.weight f4 [48]
00000000: 1c2c 953f c789 473f ee3a 8c3f cd20 953f
00000010: d725 993f d1e2 ae3d 6906 943f 70a5 993f
00000020: 8fc9 983f 8221 8b3f 7a31 6f3f 9827 313f
00000030: 291f 833f 8dab 873f 78cb b23f a467 543f
00000040: 7080 323f 723d 523f 0d25 683f 85c8 7e3f
00000050: 95d1 6d3f 5e6a c13e aee5 823f bf88 3b3f
00000060: d56c d13f e1bf 6d3f 4512 953f 342e 6e3f
00000070: 9cc0 9e3f f153 7a3f ef9a a33f bf4a 953f
00000080: 73c0 973e 7673 0f3f a1b2 293d f696 9e3f
00000090: ac9f 8c3f 9e3f 553f f5a4 933f d7ec 9e3f
000000a0: 6d2d 9a3f 6571 b73f a65a 793f 8000 723f
000000b0: ee6c 823f 5648 8e3f 993f cc3f dce7 c43f
1.1654086 0.77944607 1.0955484 1.1650635 1.1964673 0.085393555 1.1564456 1.2003613
1.1936511 1.0869601 0.9343487 0.6920104 1.0243884 1.0599228 1.3968344 0.82970643
0.6972723 0.8212501 0.90681535 0.9952472 0.9289792 0.37776464 1.0226343 0.7325553
1.6361338 0.9287091 1.16462 0.9303925 1.240253 0.97784334 1.2781657 1.1663436
0.29639015 0.56035554 0.04143012 1.238982 1.0986228 0.833002 1.1534716 1.2416028
1.2045113 1.433148 0.97403944 0.9453201 1.0189493 1.1115825 1.5956908 1.5383258
