08_few/8_pn.pth (torch_old, 470525 bytes, 26 tensors)

b1_conv.weight f4 [64, 1, 3, 3]
000000 07 bc 2c 3d 99 68 72 3e a6 53 b6 be 50 13 57 bd
       0.042171504 0.23672713 -0.35610694 -0.052508652
000010 a5 de 40 3e 13 15 a9 bd 78 9e 91 be bb 6c f3 3d
       0.18834932 -0.08255973 -0.28441215 0.11885973
000020 32 ee ab 3d b5 0f 63 3e 3a 58 3b bd fd ed 84 be
       0.083950415 0.2217396 -0.045738436 -0.2596282
000030 eb 18 4a bd b1 db 17 be 43 a6 90 bb 9d 89 2d 3c
       -0.04934017 -0.148299 -0.004414351 0.010591892
000040 e2 21 39 be e9 ae 52 3e be f3 96 bd 92 3e d1 be
       -0.18079332 0.20574535 -0.07370709 -0.4086805
000050 dd 9f 3a 3e 95 e6 8a 3e da 8f 98 be fd 30 2b bd
       0.18225046 0.27129045 -0.2979725 -0.041794766
000060 3b 21 e3 bc 3f bb ca bd fa 56 38 3d 19 2c 4f 3e
       -0.027725806 -0.098989956 0.045004822 0.20231666
000070 3c 4a 93 bd 10 db 8a 3e 2f 68 c9 3d ed d6 18 be
       -0.071918935 0.27120256 0.098343246 -0.14925738
000080 b1 91 a3 3d 4e 83 8a 3e c4 b2 4e be 9a 48 2c 3d
       0.07986773 0.27053303 -0.20185381 0.042061426
000090 35 74 9c be 70 c6 94 be 0d c1 a0 3d f5 74 73 3e
       -0.3055741 -0.29057646 0.078493215 0.23775084
0000a0 e8 d4 86 be 8b d9 f5 3c 0d a8 88 3e 7f 83 8e be
       -0.2633431 0.03001096 0.26690713 -0.278347
0000b0 86 5a fb bd 31 87 37 be a3 c1 8d be 2c 8c 04 3e
       -0.12273125 -0.17922665 -0.27686796 0.12944096
0000c0 d0 e9 91 3c 49 67 fe bd 34 d9 3e be cd 2d 5a 3e
       0.017811686 -0.12422044 -0.18637544 0.21306534
0000d0 96 ab 0d 3d 56 ae 5f ba 4f 46 8d be f7 17 1d 3e
       0.034587465 -0.0008532753 -0.27592704 0.15341173
0000e0 f0 fd 5a be 31 ca 93 3e ea 45 03 be 2c ee 94 be
       -0.21385932 0.28865197 -0.12819639 -0.2908796
0000f0 7f 97 6f 3d e9 bf c0 3d 6f 52 70 be eb 6a 12 3d
       0.058494087 0.09411604 -0.23468946 0.035746496
000100 0f 71 c3 bd 3a ec b2 3c 1e ee b1 be 8d b1 5a 3e
       -0.095430486 0.021841157 -0.34751981 0.21356793
000110 60 0f f2 be 79 d8 2e be 74 85 e7 bd 80 62 35 be
       -0.47277355 -0.17074765 -0.11304751 -0.17713356
000120 ed 62 0d bd 0d 13 08 3c e5 4a 8c 3e 81 c0 bd be
       -0.03451817 0.008305323 0.2740089 -0.3706093
000130 26 2d 3e 3e 47 52 a4 be a6 58 5c 3d 8e 9b 27 be
       0.1857191 -0.32094023 0.05379548 -0.16367933
000140 fb 60 92 3d 51 f6 89 be 10 47 6b 3e eb d4 2a bd
       0.07147404 -0.26945737 0.22976327 -0.04170696
000150 19 0e 64 be 2f 25 a0 3e c9 97 3a be a7 b8 93 be
       -0.22271003 0.3127837 -0.18221964 -0.28851816
000160 b6 34 a2 3e 2b ed 59 be ed f1 57 be 58 8c 9d 3e
       0.3168084 -0.21281879 -0.21088381 0.30771136
000170 6e 3c 89 3e 43 22 a4 bd 46 ad 8f be a6 5e 5a 3d
       0.26803917 -0.080143474 -0.28061885 0.05331292
000180 19 0b c6 3e 63 db 10 bd bb 0f c1 3d 5d 45 18 3e
       0.38680342 -0.035365473 0.094268285 0.1487021
000190 31 5f 9b bd dc 92 0d 3e c6 47 9c be ba 0c 45 3e
       -0.07586516 0.13825554 -0.3052351 0.19243136
0001a0 11 b1 87 be a1 5e 55 3e f8 74 9b bd 9d 95 32 3e
       -0.26502278 0.2083688 -0.075906694 0.17439885
0001b0 a4 b9 4e be c5 be 96 3d 0e c0 6d be 1f f1 48 be
       -0.20188004 0.07360605 -0.23217794 -0.1962323
0001c0 c4 87 e9 bc e0 13 9c 3d 72 52 4d be 4f f6 48 3e
       -0.02850712 0.07620978 -0.20050982 0.1962521
0001d0 b9 69 d7 3d e0 6c 82 3d ba 46 63 be 3f 06 8f bd
       0.10518212 0.063684225 -0.22194949 -0.06983613
0001e0 7a e6 f0 3d 33 6c 83 be 25 d3 4f 3e 73 23 44 be
       0.1176271 -0.25668487 0.20295389 -0.19154148
0001f0 1f 04 35 bd 27 34 14 3e 97 26 9f 3e 7b 3d 6a 3e
       -0.044193383 0.1447302 0.3108413 0.22875015
000200 db 65 3e be 2a 84 df bd 89 f0 61 bd 7d f2 86 be
       -0.18593542 -0.1091388 -0.055161033 -0.2635688
000210 63 2e 84 be 5c 8d 84 be 5b f3 3e be 55 94 30 3e
       -0.2581664 -0.258891 -0.1864752 0.17244084
000220 ca 62 b8 be 7d 34 01 be 07 ca c1 be 11 cb 20 3d
       -0.3601287 -0.12617679 -0.37849447 0.03925616
000230 cb a0 4a 3d 78 09 0f be a2 33 38 3e c8 2f d0 3d
       0.04946975 -0.13968456 0.17988446 0.101653636
000240 15 cc a7 3d cc 37 87 3e 9c 8e ad bd e2 16 20 3e
       0.081932224 0.26409757 -0.08474466 0.15633729
000250 56 9d a0 bc 16 70 0a bc 5f d0 96 be 15 aa b6 be
       -0.019606274 -0.008449575 -0.2945585 -0.35676637
000260 85 5b bd 3d 29 90 22 3e 9b 84 87 3e ab fd 5a 3e
       0.092459716 0.15875305 0.26468357 0.21385829
000270 63 e0 c2 3c d6 77 65 3d 14 71 42 ba 75 cb 42 be
       0.023788637 0.056022488 -0.00074173626 -0.19022925
000280 68 d9 aa be 98 77 8b be d8 aa 15 3e d0 79 1b bd
       -0.33368993 -0.2723968 0.14615953 -0.037957966
000290 17 8c 17 3e ab 7f b1 be 36 d0 56 3e 90 c1 80 bc
       0.14799534 -0.34667715 0.20977864 -0.015717298
0002a0 6e 67 14 be 5f e3 10 3e 77 d8 bc 3c 3a e2 3d be
       -0.1449258 0.14149235 0.023052437 -0.1854333
0002b0 30 d9 38 3e f4 41 51 be 23 2e 3f be 98 1c 9f 3e
       0.180516 -0.20435315 -0.18669944 0.31076503
0002c0 c6 c4 fd 3b d7 b8 6b be f8 fd 9f 3c 23 7a c0 bd
       0.0077444045 -0.2301973 0.019530281 -0.09398296
0002d0 e4 bd a7 3e 07 0f a6 3e a1 38 99 be e1 15 6c bd
       0.32762063 0.3243334 -0.29926017 -0.057638053
0002e0 89 54 0d 3e 57 43 be 3e 46 e1 9b 3c 51 a3 75 bc
       0.13801779 0.3716075 0.019028317 -0.014992551
0002f0 71 a3 2f bd 41 15 08 be 6d bf 56 be 2b 69 fc bc
       -0.04288048 -0.13289358 -0.2097146 -0.030811867
000300 2c b0 5a 3e e1 97 1f 3e 1a ae ad 3e 4c 3e 41 3d
       0.21356267 0.15585281 0.3392189 0.04717855
000310 62 ed aa be b2 50 af be a7 9a 2d 3e 04 cf 65 bd
       -0.33384234 -0.34241253 0.16953526 -0.05610563
000320 e0 6f 9f 3e bc d9 cd be 9b b3 2c bc 35 a7 8f be
       0.3114004 -0.4020518 -0.010540868 -0.28057256
000330 1c 6d f9 bd c7 45 75 bc 0a ed 5a be b1 48 60 be
       -0.12179014 -0.0149702495 -0.21379486 -0.2190273
000340 2e 03 b0 be d1 b0 d2 bb 2c 68 56 bd a5 11 2b 3e
       -0.34377426 -0.0064297696 -0.05234544 0.1670595
000350 68 3e 90 3d 16 f2 11 3e ac f1 70 3e 81 5f fa bd
       0.07043153 0.14252505 0.2352969 -0.12225247
000360 74 0d f5 bd e5 7b f4 3d c1 85 26 bd d3 33 e8 3d
       -0.119654566 0.119376935 -0.0406549 0.1133801
000370 55 a5 61 be 9a 95 3c 3d 1a cf 35 3e e9 00 a8 be
       -0.22035725 0.04604111 0.17754784 -0.32813194
000380 07 5b 80 3d 2b 44 c8 3c f5 7e 65 3e 50 1e 83 be
       0.06267362 0.024446568 0.22411712 -0.25609064
000390 3f 75 60 be 27 6e 2d 3e f9 11 2e be 4d e9 63 3e
       -0.21919726 0.16936551 -0.16999044 0.22256966
0003a0 a4 a0 46 3e 4b f1 f1 be 97 dd b6 be 1d 8e 46 3d
       0.19397217 -0.47254404 -0.35715935 0.048475374
0003b0 67 88 6b be 93 2e 84 3e 73 72 0d 3e e5 80 82 3e
       -0.23001252 0.25816783 0.1381319 0.25488964
0003c0 bb 3c 6a 3d 8f d3 56 be 7e 22 ea bc 92 04 98 3e
       0.057186823 -0.2097914 -0.0285809 0.29690987
0003d0 57 5a 11 be ef 5a 9c bc 76 c0 6f be c3 3a da bc
       -0.14194618 -0.01908633 -0.23413262 -0.026639348
0003e0 e1 54 6c 3e 28 0c 88 3e 1a 73 d2 be 43 01 80 3d
       0.23079254 0.26571774 -0.4110344 0.06250241
0003f0 ff db 65 3e 17 81 a4 be 43 c4 00 3e 6e b6 f4 3d
       0.22447203 -0.32129738 0.12574868 0.11948858

b1_conv.bias f4 [64]
000000 f7 ba d8 bd cc 41 fc 3d 21 77 9e be 60 07 e6 3c
       -0.10582536 0.12317237 -0.30950263 0.028079689
000010 7a e1 a9 3d 4b 50 16 3e e9 92 3b 3e 55 f3 52 be
       0.08294959 0.14679067 0.1831776 -0.20600636
000020 06 1e 72 be 1b 3a 4b 3e 2b ce b0 3e 56 36 85 be
       -0.23644266 0.19846384 0.34532294 -0.26018018
000030 28 af 64 bc 59 f8 ca 3e cd 5e 6f 3e 21 67 01 3e
       -0.013957776 0.396426 0.23376007 0.12636997
000040 a3 15 e1 be 05 8d d4 be 83 59 48 be 46 2d 4e 3e
       -0.4396182 -0.4151384 -0.19565396 0.20134458
000050 59 ad 82 be 18 cb 18 be c8 64 4c 3d ed c4 86 be
       -0.2552288 -0.14921224 0.0499008 -0.26322117
000060 33 94 0a be 2d 4b 48 3e 23 2e 4e be 95 ad 5b be
       -0.13533096 0.19559927 -0.20134787 -0.21452935
000070 ef e8 75 3e 16 0a 21 3e a0 37 83 3d c2 b5 a8 be
       0.24014638 0.15726504 0.06407094 -0.3295117
000080 4f cc 29 be 7f 95 ba bc ae d2 92 3e e5 a4 86 3e
       -0.16581844 -0.022776363 0.2867636 0.2629768
000090 22 20 76 3e e8 47 64 be 37 55 e3 bd 36 e4 d7 3d
       0.24035695 -0.22293055 -0.11100238 0.10541575
0000a0 4e 6e 25 3e 68 55 ad 3d a6 ba b9 3e 41 43 a9 be
       0.16155359 0.084635556 0.36275214 -0.33059123
0000b0 d4 52 ba be 89 62 b6 be ac 6d 81 be 72 01 76 3e
       -0.36391318 -0.3562205 -0.25278986 0.24023989
0000c0 d0 43 19 3e 8e c4 ba be 25 e4 cd be dc 86 42 3e
       0.14967275 -0.36478084 -0.40213123 0.18996757
0000d0 33 ac 5d bd 58 56 bd 3e ba 45 35 be fa 85 25 3d
       -0.0541193 0.36979938 -0.1770238 0.040410973
0000e0 16 93 b0 be fd e0 c1 3c e0 26 d4 3c 5a 63 c5 be
       -0.34487218 0.023666853 0.025897443 -0.38552362
0000f0 62 ea 71 3e 67 4f 0f be 87 52 bd 3d c0 3a 22 b8
       0.23624566 -0.13995133 0.092442565 -3.8678525e-05

b1_bnorm.weight f4 [64]
000000 4c ab 76 3f ff 1d 77 3f 2c b2 76 3f b3 34 53 3f
       0.9635513 0.96530145 0.9636562 0.8250229
000010 21 d8 9d 3f 98 46 7d 3f 45 2f 7e 3f 6f f7 55 3f
       1.2331582 0.9893584 0.9929088 0.8358068
000020 3f 8f 95 3f 75 bb 7e 3f a3 13 34 3f 61 3a 70 3f
       1.168434 0.99504787 0.70342463 0.9383908
000030 f2 bc 7e 3f 2f c7 8e 3f 04 36 99 3f ce 80 89 3f
       0.9950706 1.1154536 1.1969609 1.0742433
000040 19 76 89 3f a3 c1 89 3f 3b 09 4a 3f 02 45 7a 3f
       1.0739166 1.0762218 0.78920335 0.9776155
000050 30 d0 54 3f 05 5c 77 3f 00 c7 89 3f fa 78 94 3f
       0.8313017 0.96624786 1.0763855 1.1599419
000060 68 0c 63 3f 94 24 7f 3f 1f 31 86 3f 74 c6 73 3f
       0.88690805 0.9966519 1.048374 0.9522469
000070 4e 0d 7d 3f 69 09 91 3f 19 33 72 3f 3c 18 88 3f
       0.98848426 1.1330997 0.9460922 1.0632396
000080 17 be 83 3f 88 29 66 3f d2 d1 91 3f 4c f2 49 3f
       1.0292386 0.8990712 1.1392157 0.7888534
000090 3b 28 63 3f 49 f0 7a 3f ee 2a 8a 3f e0 86 8b 3f
       0.8873326 0.98022896 1.0794351 1.0900536
0000a0 a0 ef 5e 3f 2c 21 89 3f b0 1c 9c 3f c4 84 b2 3f
       0.8708439 1.0713248 1.2196255 1.3946767
0000b0 ac 58 6c 3f 79 1f 73 3f 80 c9 88 3f 4f 99 9f 3f
       0.923228 0.949699 1.0686493 1.2468661
0000c0 c9 75 60 3f 5a 74 4e 3f 24 4a 5f 3f 8b d0 78 3f
       0.87679726 0.8064629 0.87222505 0.9719321
0000d0 d7 54 8b 3f cf 5f 93 3f bd 79 8e 3f d1 92 73 3f
       1.0885266 1.1513613 1.1130902 0.951459
0000e0 cb 9c a3 3f 9c 53 97 3f 5c 24 5c 3f d2 7d 91 3f
       1.2782224 1.182239 0.8599298 1.1366522
0000f0 4e cd 7c 3f 67 44 8f 3f 31 f0 50 3f 34 f1 9a 3f
       0.9875077 1.119275 0.81616503 1.2104859

b1_bnorm.bias f4 [64]
000000 16 ac 21 be c6 ed 16 3d e5 a1 a0 bd 8e 7e a2 be
       -0.15788302 0.036847852 -0.07843379 -0.3173718
000010 83 13 90 bd 90 c0 98 bd c5 3b 20 3d 3d 6a 42 be
       -0.070349716 -0.074586034 0.0391195 -0.18985839
000020 e1 c8 c0 3c fb e9 41 3d 07 dc a8 be 37 af 88 be
       0.023533287 0.04734228 -0.32980368 -0.26696178
000030 3c dc 88 bd f3 b6 55 bc 5a 10 8f bd ab 0d 80 bd
       -0.066826314 -0.013044107 -0.06985541 -0.06252607
000040 31 46 14 3d 05 e0 7f 3d 0a d4 5e be 21 de c0 3b
       0.036199752 0.0624695 -0.21760574 0.005885855
000050 05 59 a5 be 73 94 c1 3d 69 22 11 bc d2 c2 81 3d
       -0.3229448 0.094521426 -0.008858302 0.06335987
000060 f3 d4 e2 bd e5 de a8 bd e4 4c 1b 3e 70 a6 0a be
       -0.11075773 -0.08245639 0.1516605 -0.13540053
000070 8b 8d 8e be 84 f1 67 bd d9 0a ee bd 30 26 61 3c
       -0.27842364 -0.05662681 -0.11623163 0.013742015
000080 41 7f 40 be 8a 58 52 be a6 a4 69 bd c3 f9 55 be
       -0.18798544 -0.20541587 -0.057041787 -0.20896058
000090 b6 06 71 be 9f a0 51 be ee 54 25 bd 34 5c 5c bd
       -0.23537716 -0.20471428 -0.0403642 -0.05379887
0000a0 6c ff a4 bd ba 38 40 3b 8c 59 e0 bc 3f 10 3a 3d
       -0.0805653 0.0029330687 -0.02738645 0.04542565
0000b0 ea 58 77 be db 3b 00 be 9c 06 e8 bd 0b df 71 bd
       -0.24155012 -0.12522833 -0.11329386 -0.0590506
0000c0 63 6f 2d be 4e a2 13 be 4a f7 36 be 7c 3d 75 3c
       -0.16937022 -0.14417383 -0.17867771 0.014968272
0000d0 0a 44 0b bb 74 10 a5 3c 82 f2 84 3d dd 07 2e be
       -0.0021250271 0.020149447 0.06491567 -0.16995187
0000e0 63 ed 16 be 06 36 14 bd 19 b4 a5 be 03 42 b1 bc
       -0.14738993 -0.036184333 -0.32363966 -0.021637922
0000f0 7a 86 8e bd c7 9a 1b 3c 7c 3d 35 be 45 16 f7 3d
       -0.06959243 0.009497351 -0.17699236 0.120647945

b1_bnorm.running_mean f4 [64]
000000 9b a0 ea bd d8 f0 d1 3d 0a bd b0 be 0e 5a 8d 3d
       -0.11456414 0.102510154 -0.34519225 0.06901942
000010 27 93 09 3d a8 e1 ef 3d 47 46 0e 3e 52 15 95 be
       0.0335876 0.117129624 0.13893996 -0.2911783
000020 a6 23 85 be 71 d7 2e 3e 19 54 c4 3e 97 73 7f be
       -0.2600376 0.17074372 0.3834541 -0.24946438
000030 00 7e 41 bd a5 2c c0 3e c5 6b 2f 3e 2f cc b9 3d
       -0.047239304 0.3753406 0.17130955 0.09072148
000040 55 42 e8 be 16 b2 d7 be f0 61 3e be 13 41 2d 3e
       -0.45363107 -0.42128056 -0.18592048 0.16919355
000050 85 83 48 be 22 84 30 be c3 fb c8 3a ec 32 8c be
       -0.1958142 -0.17237905 0.001533382 -0.273826
000060 57 91 19 be 02 be 31 3e d9 7c 52 be 04 1f 5a be
       -0.14996849 0.17357638 -0.20555438 -0.21300894
000070 a2 c8 7e 3e 47 32 fb 3d 34 b1 17 3d eb de aa be
       0.24881223 0.12265449 0.03703423 -0.33373198
000080 ab 45 53 be 52 06 1f bd 0b de 8a 3e 3a 27 87 3e
       -0.20632045 -0.038824387 0.2712253 0.26397115
000090 40 32 87 3e 39 ca 8f be 9f c1 13 be 8a 90 57 3d
       0.26405525 -0.2808397 -0.1442933 0.052628078
0000a0 73 b8 0e 3e d8 7d 7e 3d fc 91 aa 3e e5 37 be be
       0.1393755 0.062131733 0.33314502 -0.3715202
0000b0 4e ce b9 be 31 1e b7 be e2 91 90 be 6a 5d 55 3e
       -0.3629021 -0.35765222 -0.282363 0.20836416
0000c0 93 35 a8 3d e0 72 c7 be b8 f4 d0 be 9e ed 19 3e
       0.082133435 -0.3895483 -0.40811706 0.1503205
0000d0 69 c8 97 bd 36 d8 a5 3e c4 50 39 be 77 8b 17 3d
       -0.07411272 0.32391518 -0.18097216 0.03699824
0000e0 37 ce c5 be 62 ad 15 bc 04 db c2 3d 83 47 d6 be
       -0.38633892 -0.009135576 0.0951443 -0.41851434
0000f0 de 9b 68 3e 25 11 45 be f8 88 5e 3d 8e 5c 39 bd
       0.22715709 -0.19244821 0.054329842 -0.045254283

b1_bnorm.running_var f4 [64]
000000 2e 63 b8 3b 9e f6 c8 3b f1 05 4b 3c a5 95 20 3c
       0.0056270575 0.0061329147 0.012391553 0.009801303
000010 fa bb ab 3c b4 ac 28 3c b9 b4 88 3c c9 12 0b 3d
       0.020963658 0.010295082 0.016687738 0.03395346
000020 88 5d db 3b 9a 6a 32 3c 68 47 30 3c 2e dd d4 3a
       0.0066944994 0.010889674 0.010759212 0.0016240233
000030 5c cb 26 3c f3 a3 d0 3b b1 d2 04 3d 95 59 4c 3c
       0.010180321 0.0063672005 0.032427493 0.01247253
000040 2a 31 27 3c 35 01 a9 3c 4c 15 b0 3b 28 31 ee 3b
       0.010204593 0.020630458 0.0053736325 0.0072690435
000050 60 03 b9 3c 65 6d 13 3c 36 77 9b 3c b8 5e 1f 3c
       0.022584617 0.00899825 0.018977743 0.009727173
000060 79 28 7f 3b 6b 47 6d 3c 0e 40 a3 3b bc 31 91 3b
       0.0038934036 0.014482359 0.004982001 0.0044309776
000070 36 d7 83 3b d7 3d 6e 3c b0 75 0a 3c 55 d3 f1 3b
       0.004023458 0.014541111 0.00845091 0.007379929
000080 7f 07 17 3c 68 d9 2e 3b 4b 76 ba 3b f0 ca 92 3b
       0.009218096 0.0026679877 0.005690371 0.0044797584
000090 55 fb 34 3c 8a 2a ad 3c fd 7d 87 3c 0e 16 8d 3c
       0.01104625 0.021138448 0.016539568 0.01722243
0000a0 77 6d 41 3c fc 71 c0 3b 83 25 0e 3c fc 33 44 3c
       0.011805884 0.005872963 0.008675936 0.011975285
0000b0 6e 34 2f 3c 1c 51 18 3c a5 fe 08 3c 85 b6 1f 3c
       0.010693653 0.009296682 0.008361493 0.009748106
0000c0 3b 75 f1 3c a2 1f ff 3b cb 80 cf 3b 37 98 a5 3c
       0.029474845 0.0077857533 0.006332492 0.020214183
0000d0 22 0f b9 3b 98 d3 8a 3c 32 98 b0 3b e9 49 01 3c
       0.005647556 0.016946599 0.005389237 0.007891157
0000e0 e3 96 4e 3c 73 2f d0 3b c9 2a d2 3c f2 d0 16 3c
       0.012609216 0.0063533126 0.025655167 0.00920509
0000f0 b2 26 f8 3b f5 79 67 3c 59 b5 b3 3c 9c 82 77 3c
       0.007572972 0.014128198 0.02193706 0.015106823

b2_conv.weight f4 [64, 64, 3, 3]
000000 e2 cf 10 3c 19 d8 3d bd cb de 83 bd 56 24 e6 3d
       0.008838626 -0.046348665 -0.06438979 0.11237399
000010 39 4e c2 3c a4 c6 5c bd fd 50 78 3d 80 62 f6 bc
       0.02371894 -0.053900376 0.06062411 -0.030076265
000020 66 ea 37 bc e2 5b 8a bd 76 27 89 3c 83 fa 49 bd
       -0.011225319 -0.067558065 0.01674245 -0.049311172
000030 f4 86 91 3d a5 0b 68 3d 9b a9 3a 3d 3b 62 b6 bd
       0.071058184 0.05665173 0.045571905 -0.08905455
000040 83 f6 26 3d 73 97 1e 3d e9 7a bd bd 2b 45 88 3c
       0.040762436 0.038718652 -0.09251959 0.016634544
000050 25 d3 ce bc d2 8c 67 bd d3 7b 45 3c 1c 8b 88 bd
       -0.025247166 -0.05653078 0.012053448 -0.06667158
000060 05 e3 a2 bd 0f 0e 8e bc 7a 56 59 bd 36 f8 85 bd
       -0.07953457 -0.017340688 -0.053060986 -0.06541483
000070 ee 2f 86 3b 5d f1 53 bd 23 98 22 bd 2c a5 a7 3c
       0.004095069 -0.051743854 -0.03969587 0.020464502
000080 92 ad a8 bc 2e 03 91 bd 34 d7 67 3d 51 e2 9c bc
       -0.020590577 -0.070806846 0.056601718 -0.019150885
000090 83 1f 20 bd 32 d5 b8 3d 0c 81 81 3d f1 84 bd bd
       -0.039092552 0.09025039 0.06323442 -0.09253872
0000a0 1f 83 d5 3d b8 b9 26 3d 0f 34 94 bd 72 b3 85 bd
       0.104254 0.04070446 -0.07236492 -0.06528367
0000b0 ea 8e f3 3d 68 3b e1 3b 9a 38 8a bc 63 e7 a0 bd
       0.11892493 0.006873537 -0.016872693 -0.078566335
0000c0 75 af 34 3c de 65 86 3d f0 4f c4 bc 55 cc 6b bd
       0.01102816 0.065623984 -0.023963898 -0.057567913
0000d0 6a c4 03 bd ce 5c cd 3c 7d dd 42 bb 6b b5 0c 3c
       -0.032169737 0.025068667 -0.0029734068 0.008588175
0000e0 1f e9 e4 bc 44 65 5c 3d 0a b2 c7 3b 7e f6 88 3c
       -0.027943192 0.053807512 0.006094222 0.0167191
0000f0 40 74 0b 3d c8 46 03 bd 00 dc 64 3d 5a 81 86 3d
       0.03404641 -0.032049924 0.05587387 0.065676406
000100 24 48 ce 3d 85 14 b8 3d e8 7f 93 bc bc d4 c5 3b
       0.100723535 0.08988289 -0.018005326 0.006037323
000110 af 1f a4 3c 45 cc b7 bc b1 c7 4e bd d3 dc a3 bc
       0.02003464 -0.02243627 -0.05048341 -0.020002758
000120 69 24 8c 3c b7 ca 9a bd 36 00 39 bd 93 6d 91 bd
       0.017107205 -0.07558196 -0.045166217 -0.07100978
000130 3c 80 18 bd c7 b0 05 bd 83 cf 9d bd 3c 1b 9b bd
       -0.03723167 -0.03263929 -0.07705595 -0.07573554
000140 eb f7 46 bd 2d a7 ee 3d c9 8a 36 b8 05 3a 8d bd
       -0.048576277 0.1165298 -4.3521435e-05 -0.06895832
000150 3a a0 f6 3d 87 7f 25 3d 39 e8 08 bd 54 87 ee 3d
       0.120422795 0.040404823 -0.03342459 0.116469055
000160 77 63 34 3d 0b b6 88 bd 15 1d 3c bd eb fe b5 bd
       0.04404017 -0.06675347 -0.045926172 -0.08886512
000170 5f ac b8 bd 34 0e ea bc 7a 15 96 bc 70 44 38 bd
       -0.09017252 -0.028571226 -0.018320788 -0.044987142
000180 54 04 25 3d 18 f3 c1 bb 3b 8c 65 bd 3c 64 99 bd
       0.04028733 -0.0059188716 -0.056041937 -0.07489821
000190 e4 5c 9f bd 37 f2 b5 bd 81 ec 08 bd 75 6b 88 bb
       -0.07781389 -0.088840894 -0.033428673 -0.0041632005
0001a0 cf 05 85 3a f3 49 76 3c 18 c7 89 bd 51 2a b6 bd
       0.0010148826 0.015032279 -0.06727427 -0.0889479
0001b0 6d a1 cb bc 2a 57 43 bd 52 39 0b 3c f5 48 e7 3d
       -0.024857247 -0.047690548 0.008497553 0.11293212
0001c0 3c 24 4f 3d 63 37 e7 bc 1a d7 35 bb b2 4e 8c 3c
       0.050571665 -0.028224653 -0.0027746619 0.017127369
0001d0 58 be 36 bc 7b 73 8f bd 55 b4 50 3d b3 4b 14 3d
       -0.01115378 -0.07004448 0.050953228 0.036205005
0001e0 47 68 39 3d 9c 77 42 3c 25 75 83 3c 35 b6 6a bd
       0.045265462 0.011869337 0.01604707 -0.057302672
0001f0 30 e6 a5 3d d8 a8 a2 3c 43 fd f4 bc fe 68 fd bc
       0.081005454 0.019855902 -0.02990592 -0.030933853
000200 f1 f1 0c be f7 56 95 bd 72 57 6f bd fb d3 dc 3b
       -0.13764168 -0.07291978 -0.058433004 0.006739137
000210 f9 b5 b4 bd e4 0d ce bd 26 9b da 36 d9 02 c3 bb
       -0.08823771 -0.10061243 6.514968e-06 -0.005951267
000220 d1 28 be bb ee b0 ca bc ca b1 98 3d 52 25 68 3c
       -0.0058032055 -0.02474257 0.074557856 0.014169054
000230 d2 89 8a bc d8 ef e7 bc 51 bc c9 3b 36 fe c0 bc
       -0.016911421 -0.028312609 0.0061564823 -0.023558717
000240 32 ff 48 bc 7e 80 1d bd 2d 4d 04 be 2e ea b6 bd
       -0.012267875 -0.038452618 -0.12920065 -0.08931385
000250 0d d0 dc bd c6 08 87 bc 95 ab f5 bd 59 cf d8 bd
       -0.1078187 -0.016483676 -0.11995617 -0.105864234
000260 3a 6c 57 bb 8d bc 27 3d 9d 50 c0 bd 9d a9 e6 bd
       -0.0032870905 0.0409513 -0.09390376 -0.1126282
000270 68 cc 67 bd 79 bc 44 bd cc 4c ad bd 48 ab 86 bd
       -0.05659142 -0.048031304 -0.084619135 -0.06575638
000280 4e 79 61 bd 81 f4 29 bd 81 79 2f 3d 20 7d 96 bd
       -0.055047326 -0.041492943 0.042840485 -0.073480844
000290 e9 ce 36 bd 63 c0 8c 3d 53 27 aa ba a3 18 74 bc
       -0.04463092 0.06872632 -0.001298169 -0.014898452
0002a0 ee 18 a2 3d d6 e1 25 bd 89 39 74 bd 83 df a5 3c
       0.07914911 -0.040498577 -0.059625182 0.02024818
0002b0 19 df 21 bd 1b d9 4e bc 7e 27 f2 3d 06 93 50 bd
       -0.039519403 -0.012625004 0.11823939 -0.050921462
0002c0 4d 04 4d bd 09 06 89 3d 45 61 25 bc 0d 36 90 bd
       -0.05005293 0.06690604 -0.010093992 -0.07041559
0002d0 db 0a 5d 3a dd b5 81 bb cd 49 31 bd f9 17 0d bc
       0.00084320985 -0.0039584474 -0.043283273 -0.008611673
0002e0 2c 8c 62 bc 78 e5 91 bd 73 9c 55 3b b2 e0 d1 3c
       -0.013827365 -0.07123846 0.0032594472 0.025619838
0002f0 0d f2 9a bc e7 23 b2 bc 97 04 bf bc 30 cf b5 bc
       -0.018914247 -0.021745635 -0.023317618 -0.022193521
000300 46 8a 6c bd 40 e5 4a 3b f3 e7 11 3b 42 a4 d6 bd
       -0.057749055 0.0030959398 0.0022263497 -0.104805484
000310 07 9a 19 bd a9 b3 0b bc 46 50 bf 3b 4f 98 57 bd
       -0.037500408 -0.008526721 0.0058384268 -0.052635487
000320 40 36 aa bd 7b ab 4c bd 87 50 cc bd 15 b0 c1 bd
       -0.083111286 -0.049968224 -0.09976297 -0.09457413
000330 83 b0 8e bd 96 84 54 be 9d 0a de bd 76 65 6d bb
       -0.06967261 -0.20753703 -0.10841868 -0.0036223806
000340 0f 72 cf bd 19 34 c1 bd 96 08 b7 3c 1e 2c 7f 3d
       -0.10129177 -0.09433765 0.022342961 0.062297933
000350 48 91 61 3d 6e b2 b5 bd 45 d7 e1 bc 70 11 85 bc
       0.05507019 -0.088719234 -0.027568469 -0.016243666
000360 6a 40 92 bd 93 d1 01 bc 0d fb 8a bd 85 29 8d bd
       -0.07141192 -0.007923502 -0.067861654 -0.06892685
000370 da 0e 08 bb 30 ba b1 3c cd 11 6c bd 21 d5 16 3d
       -0.0020760805 0.021695226 -0.057634164 0.03682435
000380 2c 29 00 3d 8e ba 18 3d 2f f3 06 bd 5c 6b 76 bd
       0.031289265 0.037287287 -0.03294676 -0.06016098
000390 82 e4 c8 bb 26 8a 2d 38 09 2e a1 3b 8e 40 b6 3b
       -0.006130756 4.1375075e-05 0.004918818 0.0055618947
0003a0 f9 56 9c 3d 18 91 b9 bc af 78 3d bc 59 71 93 bd
       0.07633776 -0.022652194 -0.011564418 -0.07199354
0003b0 54 62 ad bd d0 81 26 bb 27 2d 7c bc 6b 58 34 bd
       -0.0846602 -0.0025406964 -0.0153916245 -0.044029634
0003c0 4f b2 a1 bd 68 8c 03 be 3a 2d 4a bd be e6 52 bd
       -0.07895338 -0.1284653 -0.049359538 -0.051489584
0003d0 82 32 42 3d ca f4 9e bd 84 c5 97 bc 22 65 49 3d
       0.04741145 -0.077615336 -0.0185268 0.049168713
0003e0 b6 28 e5 bc ad f4 a9 bd 67 09 00 3d 79 6a 8a 3c
       -0.027973514 -0.08298621 0.031258967 0.016896473
0003f0 08 d9 86 bd 2a 88 dd bc 9c d0 33 bd d3 17 16 bd
       -0.06584364 -0.027042467 -0.043900117 -0.036643814

b2_conv.bias f4 [64]
000000 2b 81 20 3d db c2 42 bd c6 4e 3b bc 7d 0e 8d bc
       0.039185684 -0.04754911 -0.011432355 -0.017218823
000010 ba 2a 5f 3d 57 30 ad 3d 92 b1 10 3b 71 24 4a bd
       0.054484107 0.08456486 0.0022078496 -0.04935116
000020 50 a2 ff 3c 78 f6 6c 3c 17 94 56 bd f4 92 fc 3c
       0.031205326 0.01446306 -0.052387323 0.030831791
000030 18 71 11 3c eb bb 18 bc 2a ea cc 3c ab 48 91 bd
       0.008877061 -0.009322147 0.025014002 -0.070939384
000040 63 ed b7 bc f5 c2 2b bd f1 39 97 3c 74 6a a7 bc
       -0.022452062 -0.041933972 0.018460246 -0.020436503
000050 0e 9a 0c 3d c1 cf 9f bb 8d 8b f1 3c 7e 1e 99 bc
       0.034326605 -0.004877061 0.029485488 -0.018691298
000060 b8 04 7c bd c4 8e 9b bb da d9 bf 3c 54 63 55 3c
       -0.061527938 -0.0047472436 0.02341931 0.01302417
000070 77 8b a7 3c 0d d7 e8 3c 92 6d eb bc ec de ba 3c
       0.020452244 0.028422857 -0.02873877 0.022811376
000080 a0 4d d2 bc 10 3c 9f bc 3c b2 af 3b d6 d7 4f bd
       -0.02567178 -0.01943782 0.0053618234 -0.050742947
000090 0c 5c 88 bc fa 94 20 3b e5 43 cc 3c 1d 01 6d 3d
       -0.016645454 0.002450286 0.024934718 0.05786239
0000a0 b2 8c f1 3a 77 9b d0 3c 87 cb ed 3c b7 e0 21 3c
       0.0018428771 0.025464756 0.029027713 0.009880236
0000b0 f7 0b 85 bd 33 13 63 3c 34 67 f8 bc 75 c9 95 3d
       -0.06496423 0.013859558 -0.030322649 0.073138155
0000c0 84 8c e1 b9 24 4d 30 bb 88 5e 90 bc 19 fc d6 3c
       -0.00043020037 -0.0026901448 -0.017623201 0.026243256
0000d0 b4 e4 05 bd 6e 88 09 bd 03 fd 0b 3d 21 dd 92 bc
       -0.03268881 -0.033577375 0.034176838 -0.017927708
0000e0 91 74 c1 bd 48 80 2d 3d d0 54 79 3c 0d 05 d3 3c
       -0.094460614 0.042358667 0.015217975 0.025759244
0000f0 0f c5 8f bb a7 c7 8c 3d 1d ac 45 bd f7 82 54 bd
       -0.004387505 0.06874018 -0.048259843 -0.05188271

b2_bnorm.weight f4 [64]
000000 67 6d 7a 3f 61 cd 7d 3f d5 fe 70 3f 7d e6 92 3f
       0.97823185 0.9914151 0.9413884 1.147659
000010 d5 c4 8d 3f 73 eb 79 3f 7e ad 7d 3f fb c3 69 3f
       1.1075693 0.9762489 0.99092853 0.9131467
000020 52 cb 77 3f fa 9b 86 3f 35 b4 7f 3f 79 6d 75 3f
       0.9679462 1.051635 0.9988435 0.95870167
000030 cc 08 6b 3f b7 36 79 3f 20 78 79 3f dd 81 79 3f
       0.918103 0.97349113 0.9744892 0.9746378
000040 88 0a 85 3f ab 0e 6f 3f 6b 8b 63 3f 12 29 7e 3f
       1.0393839 0.93381757 0.8888461 0.9928142
000050 47 91 85 3f e9 1b 66 3f c5 a0 8e 3f c7 84 82 3f
       1.043496 0.8988634 1.1142813 1.019677
000060 de 7c 5e 3f 6c db 74 3f 50 1a 86 3f 82 a7 63 3f
       0.8690928 0.9564731 1.047678 0.8892747
000070 e4 8a 65 3f 54 e7 74 3f 4e f1 7b 3f a5 39 62 3f
       0.89665055 0.9566548 0.98415077 0.8836921
000080 04 d6 78 3f c5 19 88 3f 08 3d 79 3f 1b d3 87 3f
       0.9720156 1.0632864 0.9735875 1.0611299
000090 47 fe 80 3f 37 9a 7c 3f 17 a7 80 3f c4 94 83 3f
       1.0077599 0.98672813 1.0050992 1.0279775
0000a0 e3 33 80 3f 6d 69 61 3f c5 97 8a 3f 17 8a 98 3f
       1.0015835 0.8805149 1.0827566 1.1917142
0000b0 a6 19 82 3f b7 72 8b 3f fe bc 90 3f 7b 17 77 3f
       1.0164077 1.0894383 1.1307676 0.96520203
0000c0 0a 48 81 3f 90 3f 8a 3f cc c5 3f 3f 73 81 86 3f
       1.010011 1.0800648 0.7491119 1.0508255
0000d0 ed 07 54 3f 10 4c 85 3f dd 42 7e 3f 77 7b 6d 3f
       0.82824594 1.0413837 0.99320775 0.9276652
0000e0 0a 2c 83 3f cb 08 6c 3f d0 d4 72 3f f2 3c 89 3f
       1.0247815 0.92200917 0.94855976 1.0721724
0000f0 a5 54 7b 3f c2 d2 7d 3f 60 c8 8d 3f 78 94 8c 3f
       0.9817603 0.99149716 1.1076775 1.0982809

b2_bnorm.bias f4 [64]
000000 9a 7d b7 bd 26 f5 26 be 1b 62 03 be 69 8b a2 bc
       -0.089595035 -0.16304454 -0.12830393 -0.019841867
000010 9d c6 c3 3d f6 27 11 be da 5b 98 bd 0c 57 f7 bd
       0.09559367 -0.141754 -0.07439394 -0.1207715
000020 10 2f ee bc e6 ff be bd 4b 9b 31 3c 7a 90 ec bd
       -0.029075176 -0.093261525 0.010840247 -0.11550994
000030 e6 2e 59 bd c0 2b 85 bd 79 29 88 bc c5 03 5f ba
       -0.05302324 -0.06502485 -0.016621338 -0.00085073366
000040 de e3 27 be c6 27 16 be a5 51 47 be 04 f6 56 be
       -0.16395518 -0.1466361 -0.19464739 -0.20992285
000050 e8 a2 b0 3d 1b 7a 7d bd 10 91 87 3d fb 7f 0f 3d
       0.08624822 -0.061884027 0.06619465 0.03503416
000060 fc ac 06 be 7e 1d da bd 40 ad ab 3c d1 45 9e bd
       -0.13151926 -0.106501564 0.020956635 -0.0772816
000070 32 82 9f bd c8 20 12 be ef fc 5a be eb 13 21 be
       -0.07788505 -0.14270318 -0.21385549 -0.15730254
000080 0e bb 1f bd 22 a0 77 bc 21 9e 25 bd 94 35 ab bd
       -0.03899675 -0.015113862 -0.040434007 -0.083598286
000090 ee f1 a2 bc 8c c7 cf bd 34 b6 1a bd d4 91 ab bb
       -0.019890752 -0.101454824 -0.03777142 -0.00523589
0000a0 8f 43 74 bd e9 51 4b be 97 e8 61 3d 68 57 e6 3c
       -0.05963474 -0.19855465 0.055153456 0.02811785
0000b0 94 cd ce bd 19 8e 60 bc 88 1e f9 3b 9a bf 53 be
       -0.10097805 -0.013705754 0.0076025166 -0.20678559
0000c0 ed 4d f3 bd f0 a6 89 bd 08 f2 54 be 9a 4a 78 bd
       -0.118800975 -0.06721294 -0.20795453 -0.06061802
0000d0 03 c0 11 be a5 bf 7c bd f6 05 8f bd fd 71 e3 bd
       -0.14233403 -0.061706204 -0.06983559 -0.11105726
0000e0 46 7e 10 be db 0e dc bd 72 b6 34 be 29 cc be bd
       -0.1411067 -0.10745021 -0.17647722 -0.09316284
0000f0 87 72 69 3d 24 00 38 be 12 03 f3 bd ac 71 07 3d
       0.056993987 -0.17968804 -0.1186582 0.03306739

b2_bnorm.running_mean f4 [64]
000000 cf f3 7d c0 01 17 a8 3e d2 35 79 c0 56 80 0a c0
       -3.968006 0.3283005 -3.89391 -2.164083
000010 b5 1a 78 be d3 90 0f c0 14 74 64 c0 bc 7f 3c c0
       -0.24228938 -2.2432144 -3.5695848 -2.9452963
000020 26 b4 84 c0 92 3e b6 40 56 90 bb 3f 96 80 33 3f
       -4.146991 5.695138 1.4653423 0.7011808
000030 b0 3a 3e c0 e5 ba b0 3f ee 90 86 c0 19 1a e0 bf
       -2.972332 1.3807036 -4.2051916 -1.7507964
000040 c8 1c 8e 3f c9 22 ba 3f 64 34 46 3e 13 4e 7c c0
       1.1102533 1.4541866 0.19355923 -3.9422653
000050 19 8a 42 3f 4b 01 e3 be 0f 81 56 40 39 77 79 40
       0.7599197 -0.44336924 3.351627 3.8979018
000060 2e 1d 2b 3f a0 16 4d c0 1e 3f 0a 40 63 b6 f6 3f
       0.668414 -3.204506 2.1601024 1.927441
000070 9b ad e2 bf de 49 1f c0 31 b2 85 c0 20 66 66 c0
       -1.770923 -2.4888835 -4.178002 -3.5999832
000080 6b ae 7b c0 ce af ec 3e e2 7f 9a c0 bc 9f 9f bf
       -3.9325206 0.46227878 -4.8281107 -1.2470622
000090 25 be 10 3e b6 71 bf bf b4 d9 1b bf 3d ea 9f bd
       0.14135034 -1.4956577 -0.60879064 -0.07808349
0000a0 29 0b 63 40 29 51 31 c0 40 c6 e9 3e fc 9b 7b 40
       3.5475562 -2.7705786 0.45659065 3.9313955
0000b0 e9 3f cf 3e e2 07 41 40 f2 8a bc 3f 11 df 6a c0
       0.40478447 3.0161061 1.4729903 -3.669865
0000c0 64 e3 f6 bf 55 9e 68 c0 09 90 90 bf b9 2d ca 3f
       -1.9288144 -3.6346638 -1.1293956 1.5795203
0000d0 e8 19 7b c0 45 f4 01 c0 5c e1 4b c0 e5 19 05 c0
       -3.9234562 -2.030534 -3.1856298 -2.0797055
0000e0 07 b1 37 40 ec f5 0c 40 4a 90 13 c0 eb 12 23 c0
       2.87018 2.2025099 -2.3056817 -2.5480297
0000f0 e0 c3 0d 3f cc 74 8f 3d 44 4f fe 3f 01 d6 13 3d
       0.55377007 0.07004699 1.986794 0.036092762

b2_bnorm.running_var f4 [64]
000000 82 0b 74 41 b2 1b 53 41 4a c5 b9 40 8c da 18 41
       15.25281 13.194262 5.805333 9.553356
000010 15 5e 01 41 3f a5 cc 40 55 a7 79 41 72 59 d1 40
       8.085469 6.3951716 15.603353 6.5421686
000020 16 c8 51 41 dc d6 fd 40 92 e2 4e 41 84 7e b2 40
       13.111349 7.932478 12.930315 5.577944
000030 68 bb 33 41 c1 dc 04 41 62 b5 79 41 71 9b 01 41
       11.2332535 8.303895 15.606783 8.10045
000040 ce d8 c9 40 fa 6b 11 41 bf 1c 80 41 1a 60 27 41
       6.3077154 9.088861 16.014036 10.460962
000050 15 7a 1d 41 4b fa fd 40 cd 64 a1 40 14 39 04 41
       9.842305 7.9368033 5.043555 8.263935
000060 05 7e d8 40 cf ba f3 40 d6 4c d2 40 43 31 33 41
       6.7653832 7.616554 6.5718794 11.199527
000070 02 12 0d 41 15 d5 0d 41 a8 94 e2 40 97 3f 0b 41
       8.816896 8.864522 7.0806465 8.703025
000080 ac 99 6e 41 03 98 eb 40 39 8d b7 41 16 9d e8 40
       14.912518 7.362306 22.943956 7.2691755
000090 39 57 20 41 02 1b b1 40 aa 66 06 41 3f 45 35 41
       10.021295 5.534547 8.400064 11.329406
0000a0 79 de cb 40 b9 ad da 40 95 5e e4 40 7a 69 a7 40
       6.3709073 6.8337064 7.1365457 5.2316256
0000b0 ec 93 ff 40 05 b0 1b 41 3c f2 ef 40 3f 2d bc 40
       7.986807 9.7304735 7.4983196 5.880523
0000c0 b3 1f 45 41 86 1d 4a 41 3e 08 f7 40 7e 0f f1 40
       12.320239 12.632208 7.719756 7.533141
0000d0 27 31 88 41 9c 14 ef 40 fe ca 11 41 c0 e1 0e 41
       17.024 7.471266 9.112059 8.930115
0000e0 a7 0b c9 40 84 d3 53 41 29 de 24 41 f9 ff d9 40
       6.2826724 13.23914 10.304238 6.8124967
0000f0 1e bf 0f 41 b1 4d 19 41 e3 c8 f8 40 61 ad 10 41
       8.984159 9.581468 7.7745223 9.042329

b3_conv.weight f4 [64, 64, 3, 3]
000000 fe 74 89 3c a1 a6 bd 3c e5 f3 c3 3c 66 34 dd bd
       0.016779419 0.023150744 0.023920009 -0.1080101
000010 23 be 22 be 71 08 3f bd d3 89 2c bc a4 90 14 be
       -0.15892844 -0.04663891 -0.010530907 -0.14508301
000020 8b f8 3b bd 74 76 ef bc b6 48 a2 bd 9f 2c 42 bd
       -0.045891326 -0.029231288 -0.07924025 -0.047405835
000030 e6 ab 0c 3d 9e 1a cc 3c e5 6d 10 3d 0e a8 7c 3d
       0.034343623 0.024915036 0.035261054 0.061683707
000040 80 37 8b 3d ba 4b 98 bc 31 1a 3d bd 8d a8 46 bc
       0.06797695 -0.018590797 -0.046167556 -0.012125147
000050 62 ae 26 bd 3c fa a0 bd 5b 53 9a bd 39 72 79 3c
       -0.04069365 -0.078602284 -0.0753543 0.015224987
000060 15 6c ad bd 87 26 26 bc 28 47 0a bd 53 31 ed bc
       -0.08467881 -0.010141022 -0.033759266 -0.028954184
000070 b1 59 99 3d e2 54 30 bd 05 d4 fd 3c 20 0b 0b 3e
       0.074878104 -0.0430497 0.030984888 0.13578463
000080 48 4f a5 bd 27 81 f7 3b 59 a5 96 3b bf f2 98 bd
       -0.08071762 0.007553238 0.0045973477 -0.07468175
000090 a8 79 4c bd fe ba 35 3d e3 1c 7e bd da 7e 58 3b
       -0.049920708 0.044367783 -0.062039267 0.0033034594
0000a0 33 fe 2e 3d 4e 26 bc 3d cf 87 e7 bd 87 fb 90 bc
       0.042722892 0.091869935 -0.113052 -0.017698063
0000b0 7c fb b6 3c e7 7a 10 3c b6 d3 cf 3c 96 b7 7b bd
       0.022336714 0.008818365 0.025369506 -0.061454378
0000c0 79 63 81 3b 18 6b b7 3d 01 da 48 3d 71 d2 df 3c
       0.0039486256 0.089559734 0.04903603 0.027322026
0000d0 d5 ae 3b 3e d9 53 08 3e 87 df 7f bc 2d 80 8c 3c
       0.18328412 0.13313235 -0.015617258 0.017150963
0000e0 f0 a0 ce 3d 33 de ea bd 41 e8 0a bd 0b 81 b1 3d
       0.1008929 -0.114681624 -0.0339129 0.08667191
0000f0 20 57 a8 bc c2 ba 10 bd be 1e b8 3c 1c 71 20 bd
       -0.020549357 -0.035334356 0.022475597 -0.03917037
000100 a2 63 3b 3d 0e d4 84 bc 20 e8 1c 3e ec 95 40 3c
       0.045749314 -0.016214397 0.15322924 0.011754494
000110 00 63 06 3d cd 79 21 3e a2 74 94 3d 7e 06 1c bd
       0.032809258 0.1576912 0.072488084 -0.03809213
000120 80 69 4c 3d 8e db bd 3c ac 96 7e 3d e6 ca 54 3d
       0.0499053 0.02317598 0.06215541 0.05195131
000130 37 0f 05 3d 70 fd b8 3c 1c b1 b3 bc b4 0b 2b 3d
       0.032485213 0.022581786 -0.021935038 0.041759208
000140 00 c3 8c ba 54 60 e6 3c ab 35 71 3d d5 e7 50 3d
       -0.0010739267 0.028122105 0.058889072 0.051002342
000150 f6 64 9b bd 87 48 a3 bd 37 f9 b2 bd 15 39 e9 bd
       -0.07587616 -0.07972818 -0.0873894 -0.11387841
000160 d4 ed 9a bd e2 c0 b6 bd e0 e1 5a bd 1f d5 0b bd
       -0.07564893 -0.08923508 -0.053438067 -0.034138795
000170 f0 de db 3c 56 76 16 3c 32 33 94 3c 5d bc 20 bb
       0.026839703 0.009183487 0.018090818 -0.0024526336
000180 d1 04 77 3d ce 55 7b 3d a2 c4 0a 3d 88 b0 cf bc
       0.060307328 0.061361127 0.03387893 -0.025352731
000190 ef dc 91 bd 5f 24 e4 bb 1e 2d aa bd 44 27 cf bd
       -0.07122218 -0.0069623436 -0.08309387 -0.10114911
0001a0 d3 de 37 bd c3 5f 4c bd 8e 19 06 3c 2c 7d 13 bd
       -0.044890236 -0.049896013 0.008184804 -0.036008045
0001b0 54 f9 a7 3c 4d 53 41 3d c1 f1 5d bc bd 92 25 3e
       0.020504631 0.047198582 -0.013546408 0.16169257
0001c0 1b ae 48 3d 7c e4 8e 3d 7f 03 73 3d 1e 81 7b 3d
       0.048994165 0.06977174 0.059329506 0.061402433
0001d0 96 7f 87 3c 3e 0a a1 bd 21 22 90 bd 37 4f 71 3c
       0.01654033 -0.07863282 -0.070377596 0.014728359
0001e0 e5 61 b4 bd 6b a7 11 bd ba b0 84 bd 3c dc 68 3d
       -0.088077344 -0.035560053 -0.064790204 0.056850657
0001f0 58 11 41 bc 57 38 eb 3a df 19 69 3d af bd ab 3d
       -0.01178392 0.0017945868 0.05690944 0.08385789
000200 4f 12 b6 3d b2 fd b3 bc b4 8c 87 bc 7b 1e c1 3d
       0.08890211 -0.021971557 -0.016546585 0.09429642
000210 bf 62 95 bd 11 10 3a be d4 8a 27 bd c3 b9 5e bd
       -0.07294225 -0.18170191 -0.04090388 -0.054376375
000220 e7 7d a4 bd 99 ee 89 bb 10 7e 97 bd ff 0e 88 3c
       -0.080318265 -0.0042093513 -0.073970914 0.016608713
000230 91 2a da 3c aa 81 16 3d 9b e8 9e 3d e1 f7 d9 3d
       0.026631625 0.03674475 0.0775921 0.10642982
000240 72 97 07 3c 83 1f 1a 3d 22 23 86 bd 27 c5 21 be
       0.0082758535 0.03762771 -0.0654967 -0.15797864
000250 b6 39 91 bd 9b 35 b3 bc 18 b9 09 be 57 33 1f be
       -0.070910856 -0.021876147 -0.13449514 -0.15546928
000260 83 69 a4 3d 22 f6 55 bc 28 2c 48 3d be d3 3a 3d
       0.08027937 -0.013059171 0.048870236 0.04561209
000270 02 14 09 bd a9 9b 00 3d 5e 88 59 3d 21 58 39 3d
       -0.033466347 0.03139845 0.053108566 0.045250062
000280 54 59 d3 3d e8 0b 06 3d de 11 18 3c d6 5c 3d bd
       0.10319772 0.0327262 0.009281604 -0.046231113
000290 4d 01 84 bc 6f fc ec bc eb 05 0d bd be 2e b9 ba
       -0.016113902 -0.028928963 -0.034429472 -0.001412831
0002a0 6a 93 03 3e be 61 8a 3d ec 97 00 3d 91 bd b1 bd
       0.12849203 0.06756924 0.031394884 -0.08678735
0002b0 18 de 42 bd 49 3a ab 3c 34 e4 42 3e 61 d1 fd 3d
       -0.047575086 0.020901816 0.19032365 0.123934515
0002c0 ee a9 76 3d 9e 4d 3c 3e cd 11 b6 3d b4 c5 56 3d
       0.06022065 0.18388984 0.08890114 0.05243464
0002d0 69 8c 99 bc ae 56 28 bd 34 c1 d6 bd 16 42 4d bd
       -0.01874371 -0.04109829 -0.10486069 -0.050111853
0002e0 d0 21 4e 3d 88 88 93 3a 7d b4 e8 bd c5 a1 3c bd
       0.050325215 0.00112559 -0.113625504 -0.046052713
0002f0 99 3e 5e 3d c9 98 96 3d 94 16 26 bd f2 b5 a0 bd
       0.054258917 0.0735336 -0.040548876 -0.07847203
000300 88 d2 42 3d b6 ea 0f 3e 72 2c f5 3c 66 af 14 3d
       0.04756406 0.14054379 0.02992842 0.036300085
000310 0f 10 80 3d 8c 9b ab bc 1c 1f 8a 3c 15 e5 0f be
       0.06253063 -0.020948194 0.016860537 -0.14052232
000320 72 e6 1f bd ae 8d 60 bd de 71 95 bd a8 5e eb bd
       -0.03903813 -0.054822616 -0.07297109 -0.114926636
000330 0e dc b2 bd f6 f4 e1 3d 92 ce ab 3c 0c d2 d9 3b
       -0.08733378 0.11033051 0.020972524 0.006647354
000340 b5 20 1f bd 58 d2 89 bd b6 e3 c9 3d 1d ba 74 3d
       -0.03884955 -0.06729573 0.098578855 0.059747804
000350 3d 7b 09 3e 68 e2 9b b9 51 77 ca 3d 7d 33 a8 3d
       0.13425918 -0.0002973259 0.09886039 0.082129456
000360 5f 56 0b bc bc 1d cd bc 5f 28 80 3b d3 08 b5 3d
       -0.008504479 -0.025038593 0.0039110626 0.08839574
000370 11 22 87 3d 9e 0d a7 3c a8 ac c6 3d 1d 55 ac 3d
       0.065982945 0.020392235 0.097009 0.084146716
000380 52 39 a6 3c cf e1 d5 bc d9 1b ad bd 3c e1 a2 bd
       0.020291004 -0.02610865 -0.08452577 -0.07953116
000390 ae b7 84 3d f6 53 2d 3d db 55 4e 3d 90 a2 37 3d
       0.064803466 0.0423164 0.050374847 0.044832766
0003a0 ce aa 24 3d a6 11 95 3d 11 53 c7 3d 36 dd 46 bd
       0.040201955 0.07278757 0.097326405 -0.048550807
0003b0 cc ee ba 3c 4d 5d 63 3d 35 61 5e 3d 14 97 19 bb
       0.022818945 0.0555089 0.054291923 -0.0023435997
0003c0 5a 6c 7f bd 5b ce 17 3e d6 5b 38 bc 12 6f 8c bc
       -0.06235919 0.14824812 -0.011252364 -0.017142806
0003d0 21 9b 52 bc 19 06 a2 bd df 69 3a bd 39 d4 15 3d
       -0.012854368 -0.07911319 -0.045511123 0.036579344
0003e0 c7 1f 91 3c 04 8a 81 3c 29 0f e6 3c 45 a2 e7 3d
       0.017715348 0.015812881 0.0280834 0.11310247
0003f0 9b 54 82 bd be ca 09 bd 36 c0 50 3a a9 66 5e bd
       -0.063637935 -0.033640616 0.0007963212 -0.054297123

b3_conv.bias f4 [64]
000000 a2 bb 23 bd 71 b0 4c bc 24 39 5f bc 8e 0d 2b bd
       -0.039973862 -0.012493239 -0.013624463 -0.041760974
000010 fa 87 03 bc 10 57 a5 3c 05 df ea 3c 9f 0e b4 bc
       -0.008028025 0.020183116 0.028670797 -0.021979628
000020 66 1d ea bc ae d1 09 3d c8 11 9f 3c 19 6e b1 bc
       -0.028578471 0.03364723 0.019417658 -0.021658944
000030 43 f0 39 3b 2c c6 01 3c 18 a4 31 3c 34 ae 45 bc
       0.0028371967 0.007920783 0.010842346 -0.012065459
000040 f2 4c 04 bd 7f bb 19 3d 36 e8 5f 3d cb 66 d5 3c
       -0.032299943 0.037532326 0.054664813 0.026049992
000050 e8 61 48 3d c7 d2 30 bd ab 03 ed 3c 10 c5 0d 3c
       0.048921496 -0.043169763 0.028932413 0.00865294
000060 2d de 36 3d a9 bd 2a 3d bc 3d 19 bc 97 66 16 3d
       0.044645477 0.04168478 -0.0093530975 0.03671893
000070 70 ac 9f 3c 0c 0b 07 3d 89 6f 9f bc dc 94 26 bd
       0.019491404 0.03296952 -0.019462364 -0.040669307
000080 b1 b1 f1 bc 3d 43 51 3d a7 83 05 3d 12 15 48 bc
       -0.029503675 0.051089514 0.032596257 -0.012212055
000090 ad a5 ba bc 9d 22 d3 3c d1 af ab 3b ef 9b ff bc
       -0.022784078 0.02577334 0.005239465 -0.031202285
0000a0 59 ee 32 bd 8a 00 ec 3c ab d5 c0 bc c0 df c0 3b
       -0.043684337 0.02880885 -0.023539385 0.005886048
0000b0 2b 4d f7 3c 8e cb 63 bd fb 53 a9 3b e0 60 4d bd
       0.030188164 -0.055614047 0.005167482 -0.050141215
0000c0 e9 50 25 bd ed 17 1c bb b5 b7 57 3c af 29 a8 3a
       -0.040360365 -0.0023817972 0.013166358 0.0012829805
0000d0 67 6a 34 bc 06 f6 3f bd e9 91 d8 bc c9 03 c2 3c
       -0.011011696 -0.046865486 -0.026436763 0.023683446
0000e0 5e 07 82 3b 00 00 17 bd 6a ca 0c 3c 71 f9 e6 3c
       0.0039681634 -0.036865234 0.008593181 0.028195115
0000f0 1e f1 aa bc 26 41 40 bd 94 bb 48 bc 26 8d af 3c
       -0.020866927 -0.04693713 -0.012251753 0.02142961

b3_bnorm.weight f4 [64]
000000 51 d2 86 3f 74 fd 52 3f fc 48 7d 3f a3 de 85 3f
       1.0532933 0.8241799 0.9893949 1.0458568
000010 1b bd 81 3f f4 e1 6b 3f 85 af 88 3f 31 73 5e 3f
       1.0135835 0.9214165 1.0678564 0.8689452
000020 ff 0b 85 3f 49 86 7a 3f 92 a7 7e 3f 3d 50 88 3f
       1.0394286 0.9786115 0.9947444 1.0649487
000030 66 30 56 3f b8 d1 87 3f c8 e8 7a 3f 0e 48 67 3f
       0.836676 1.0610876 0.98011446 0.9034432
000040 c1 01 9d 3f 7e cd 7b 3f 74 86 88 3f 17 0c 64 3f
       1.226616 0.9836043 1.0666032 0.8908095
000050 62 ed 7e 3f 46 49 7f 3f 60 d4 85 3f 3c c6 84 3f
       0.9958097 0.9972118 1.0455437 1.0372996
000060 91 78 86 3f 6b f4 82 3f 1e e6 6c 3f b0 85 7b 3f
       1.0505544 1.023084 0.9253863 0.98250866
000070 2a 1e 80 3f d8 ca 6d 3f 6b be 8b 3f b2 d5 73 3f
       1.0009205 0.9288764 1.0917486 0.9524795
000080 4d 82 67 3f ad e8 6a 3f ed c6 78 3f 5d ba 85 3f
       0.904332 0.91761285 0.97178537 1.0447499
000090 71 ba 97 3f a6 bd 7b 3f c4 98 84 3f 09 f2 8f 3f
       1.1853772 0.98336256 1.035912 1.1245738
0000a0 13 78 59 3f 63 cd 8a 3f 88 e1 4d 3f bd 45 8e 3f
       0.84948844 1.0843929 0.8042226 1.1115032
0000b0 bb d5 80 3f 8b 53 89 3f 1a 13 8d 3f 8e 30 84 3f
       1.0065225 1.072862 1.1021454 1.0327318
0000c0 48 ae 80 3f 09 6f 73 3f 6b d2 83 3f d1 79 6b 3f
       1.0053186 0.950913 1.029859 0.9198275
0000d0 f7 70 5c 3f a8 8f 6f 3f be 6e 68 3f b9 1a 6b 3f
       0.8610987 0.9357858 0.9079398 0.9183765
0000e0 80 8e 77 3f ec cd 73 3f 78 8b 6d 3f d3 1f 6c 3f
       0.9670181 0.95236087 0.9279094 0.9223606
0000f0 7a e9 8c 3f d0 ce 81 3f 56 ce 45 3f fa 93 8d 3f
       1.1008751 1.0141239 0.7726797 1.1060784

b3_bnorm.bias f4 [64]
000000 b7 80 fa bd 01 96 5f bd 6c 0a 8e be af 5e f2 bd
       -0.12231582 -0.054586414 -0.27742326 -0.11834466
000010 d4 15 83 bd a6 2a 8e 3c 39 6a 63 bd 54 de 08 be
       -0.06400648 0.01735432 -0.055521224 -0.13366061
000020 ec f2 bd bd c2 c5 30 be 18 5e 01 3c 61 66 3c be
       -0.09274849 -0.17262939 0.007895969 -0.1839843
000030 69 65 3d be 4c 67 e8 bd 9f 5c 90 bd 6e 73 6e bd
       -0.18495716 -0.11347827 -0.07048916 -0.05821555
000040 8a b3 1c 3e d3 3e 27 bc 58 8f a5 bd da cc f4 bd
       0.15302864 -0.01020785 -0.08083981 -0.11953135
000050 6c 30 d7 3d 4c f5 e3 bd aa a3 c5 bd c0 bb fc 3b
       0.105072826 -0.11130771 -0.09650357 0.007712811
000060 5f d4 25 be 0c 65 ae bd c7 31 ea 3d 56 db 03 be
       -0.16194294 -0.08515367 0.114352755 -0.12876639
000070 53 f4 d6 bc 7d 9a 5c be 81 55 e8 bd 7d 2b a3 bd
       -0.02623955 -0.21543308 -0.113444336 -0.07967279
000080 3c bb 3b be e1 3b 11 be f6 ac 87 be 2d 62 8a bd
       -0.18333143 -0.14182998 -0.26499146 -0.06757007
000090 9f c2 41 3d 90 88 aa bd 02 5e fd 3d 51 ef d8 bd
       0.047304746 -0.083268285 0.12371446 -0.10592521
0000a0 dd db 45 be 55 5f 55 bd 1d cb 62 be 5c 69 ea bd
       -0.19322152 -0.05209287 -0.22147794 -0.11445877
0000b0 49 86 d9 bd c5 0d 08 be ad fd dd bc 4d ae db 3c
       -0.10621316 -0.13286503 -0.027098501 0.026816512
0000c0 55 82 98 bd 31 91 a9 bd 83 51 12 3d 05 89 cc bd
       -0.07446734 -0.08279646 0.035722267 -0.09987072
0000d0 10 b5 7a be 0a 90 a5 3d 45 af 4f be 74 29 3a be
       -0.24483132 0.08084114 -0.20281704 -0.18179876
0000e0 d7 c4 45 3d aa 17 5e be 62 91 2e be 9b 58 41 be
       0.048283424 -0.21688715 -0.17047647 -0.18881457
0000f0 bb b4 c8 bd 1b 49 28 be 2a ca d8 bd 0c 50 a7 bd
       -0.098000966 -0.16434138 -0.10585435 -0.081695646

b3_bnorm.running_mean f4 [64]
000000 f0 53 d3 be 41 85 16 3f 9a 7c 1c c0 6f 16 01 3e
       -0.41274977 0.5879708 -2.445105 0.12606214
000010 c2 65 bd 3f 8b 78 88 40 a6 eb d4 c0 92 35 01 c0
       1.4796679 4.2647147 -6.6537657 -2.0188947
000020 1f 56 e2 be 85 23 44 bf 9f 00 fd 3f a2 90 fa bf
       -0.4420633 -0.766167 1.9765815 -1.9575388
000030 c0 63 86 bf 26 9d b9 c0 92 31 56 3e 17 4a e4 3e
       -1.0499191 -5.800433 0.20917347 0.44587776
000040 fc 2d 72 bf 0b 61 21 40 14 6c f8 bf 55 d0 1c c0
       -0.94601417 2.521548 -1.9407983 -2.4502156
000050 76 45 b7 3f 6f 41 16 3d a8 34 ba 3f 3d 48 da 3f
       1.4318073 0.036683496 1.454732 1.7053295
000060 9c cf 1f 3d f2 b5 1f 3f 67 8b 1d 40 68 72 0a c0
       0.03901635 0.62387 2.4616334 -2.1632328
000070 3e 26 28 3f 5a 2e b4 c0 02 ef 0d 3f 35 55 91 3e
       0.6568335 -5.630658 0.5544282 0.2838532
000080 ed 5c 5e c0 4b 4f c6 c0 82 a6 01 40 4d c4 ad bf
       -3.4744217 -6.1971793 2.0257878 -1.3575531
000090 ef d1 49 40 40 c7 a8 bf 7b 56 1b 40 9e 5d 92 3f
       3.1534383 -1.3185806 2.4271533 1.143482
0000a0 0c 24 d7 c0 eb 1e f2 be 1b cb a8 c0 d9 de 4c c0
       -6.7231503 -0.47289214 -5.274793 -3.2011015
0000b0 44 54 10 40 ca b4 f2 3f 7e b8 b8 bf a7 d9 82 3f
       2.2551432 1.8961422 -1.4431303 1.0222672
0000c0 6b a9 f8 be f5 df c1 c0 7c 62 06 40 b0 00 f4 3f
       -0.48566756 -6.0585885 2.099761 1.906271
0000d0 e4 d6 cc 3f b8 55 8d 3f 7f 57 08 c0 ec b6 9e c0
       1.600308 1.1041784 -2.1303403 -4.9598293
0000e0 d3 cc db 3f 05 72 60 c0 79 52 b7 c0 e8 2e 34 c0
       1.7171882 -3.5069592 -5.7288175 -2.815363
0000f0 c7 f8 64 bf e6 b8 4e c0 a1 b4 4e c0 4a 6c 2a c0
       -0.89442104 -3.2300353 -3.2297747 -2.6628594

b3_bnorm.running_var f4 [64]
000000 5f 22 7f 41 f1 92 9f 41 8a a7 a2 41 4d cf 89 41
       15.945891 19.946749 20.331806 17.226221
000010 11 35 59 41 73 1a d2 41 8d 96 c4 41 ad 9e 44 41
       13.575456 26.262915 24.573511 12.288739
000020 83 e4 6e 41 7c d8 8c 41 6d e7 29 41 f0 ed 9f 41
       14.930789 17.605705 10.619 19.99118
000030 0c f1 9b 41 e6 54 12 42 7c 15 64 41 b7 c4 91 41
       19.492699 36.58291 14.255245 18.221052
000040 11 01 4a 41 3b 25 7b 41 b0 d0 d4 41 87 4f c3 41
       12.62526 15.696589 26.601898 24.413832
000050 fb ad 62 41 cc 73 55 41 39 c8 51 41 19 5e a2 41
       14.167476 13.340771 13.1113825 20.295946
000060 28 a1 54 41 f7 22 4c 41 2a f7 a7 41 83 f1 b7 41
       13.289345 12.758536 20.995686 22.992926
000070 c4 24 33 41 71 09 14 42 f0 bf a9 41 24 0f 71 41
       11.196476 37.00922 21.21872 15.066196
000080 28 1c a5 41 52 d8 bc 41 a8 25 d2 41 6d 14 88 41
       20.638748 23.605625 26.268387 17.009974
000090 55 17 60 41 f2 44 69 41 1a d3 8d 41 a1 3d 77 41
       14.005696 14.579332 17.728077 15.452546
0000a0 f7 98 fa 41 c4 bf 83 41 b4 c4 0a 42 16 fb 77 41
       31.32469 16.468636 34.692093 15.4988
0000b0 49 8c a4 41 50 b6 ad 41 97 fb a4 41 80 af 6f 41
       20.568499 21.71402 20.622847 14.980347
0000c0 60 cf 8e 41 8d 70 c7 41 70 c6 77 41 b3 c9 ce 41
       17.851257 24.929956 15.485947 25.848486
0000d0 8d 28 84 41 1b dc 9c 41 e4 f8 92 41 a1 e2 c3 41
       16.5198 19.607473 18.371529 24.485659
0000e0 f9 1f 9b 41 db 34 84 41 61 82 f5 41 da 07 95 41
       19.390612 16.525808 30.688662 18.628834
0000f0 6c 0b ae 41 d9 ad d0 41 ff 29 c3 41 fd d5 9a 41
       21.755577 26.084887 24.395506 19.354486
