07_gnn/7_gnn.pth (torch_old, 55710 bytes, 12 tensors)

msg_net.0.weight f4 [96, 20]
0	0xbd0723d8	-0.032993168
1	0x3c2521af	0.010078832
2	0xbd5f96a4	-0.05458702
3	0xbd467fe2	-0.048461802
4	0xbdb3dd0a	-0.08782394
5	0xbe153603	-0.14571385
6	0x3cb1808d	0.021667743
7	0xbdd9a9e4	-0.10628107
8	0x3da5a0d3	0.080873154
9	0xbe1a3445	-0.15059002
10	0x3d60060c	0.054693267
11	0xbe10a6f2	-0.14126185
12	0xbc7bf472	-0.0153781045
13	0xbea2b4c5	-0.3177854
14	0xbcd1e0f2	-0.025619958
15	0xbe53242f	-0.20619272
16	0xbe83d1c5	-0.2574598
17	0xbe362080	-0.17785835
18	0x3e18df55	0.14928944
19	0xbe6f6ccf	-0.23381351
20	0xbeda7033	-0.42663726
21	0xbec64b68	-0.38729405
22	0xbdd6d8a5	-0.104905404
23	0x3d3c1b5e	0.045924537
24	0x3ceb5fe9	0.028732257
25	0x3d4dba1c	0.050226316
26	0xbd6577d8	-0.056022495
27	0xbea888c2	-0.32916838
28	0xbef931fa	-0.48670942
29	0x3e2bac77	0.16765009
30	0xbb9fd297	-0.004877399
31	0x3dc402cd	0.09570847
32	0x3e219fde	0.1578364
33	0xbd29e40b	-0.041477244
34	0xbc759381	-0.014988781
35	0xbdf6ea1e	-0.12056373
36	0x3df507ad	0.11964355
37	0x3dc93d1f	0.09826111
38	0x3db84be5	0.08998851
39	0x3d206fb9	0.039169047
40	0xbea54fe1	-0.32287505
41	0xbdbc6aae	-0.09200035
42	0xbd2569c8	-0.040384084
43	0x3e257a28	0.1615988
44	0x3d348a4e	0.04407721
45	0xbe7e8371	-0.24854828
46	0xbc2f5165	-0.010700558
47	0xbd5080f7	-0.05090424
48	0xbeabaf8c	-0.3353237
49	0xbd0a1fd0	-0.033721745
50	0xbc5c49b7	-0.013445309
51	0x3d78c41b	0.060733896
52	0x3d8fe55d	0.070261694
53	0xbd4484d9	-0.047978256
54	0x3df6429d	0.12024424
55	0xbd569451	-0.05238754
56	0x3c710840	0.01471144
57	0xbcf9710c	-0.030449413
58	0x3dda15ae	0.10648666
59	0x3dc68b91	0.09694589
60	0x3ccc0567	0.02490492
61	0x3e7f768b	0.24947564
62	0x3e202f03	0.15642934
63	0x3e18ddb4	0.14928323
64	0x3e0eddf2	0.13951853
65	0x3e4cd18f	0.20001815
66	0x3d9dd655	0.07706896
67	0xbd9bed43	-0.076136135
68	0xbe861dcc	-0.26194608
69	0x3d759e5e	0.059965484
70	0xbdddc31d	-0.108282305
71	0x3e65fd32	0.22459868
72	0x3e36805a	0.178224
73	0x3d92bc4c	0.07164821
74	0x3d464253	0.048403095
75	0x3e822854	0.25421393
76	0x3dc3b531	0.09556044
77	0x3ebd021d	0.36915675
78	0xbd831ecd	-0.06402359
79	0xbc977b93	-0.018491542
80	0x3dc852de	0.09781431
81	0x3d638674	0.055548146
82	0xbd84a93d	-0.06477592
83	0x3e3bda01	0.1834488
84	0x3e3ff85c	0.18747085
85	0x3e1d55d1	0.15364768
86	0xbe1b148e	-0.1514456
87	0x3d7cfe83	0.06176616
88	0xbe447c27	-0.19187985
89	0xbc85e821	-0.01634604
90	0x3d810ec6	0.06301646
91	0xbd80c7f5	-0.06288139
92	0xbe248f8a	-0.16070381
93	0xbd21f41a	-0.039539434
94	0xbdd12438	-0.10211986
95	0x3e83d9c4	0.2575208
96	0x3e3bebbc	0.18351644
97	0x3db0bba1	0.086295374
98	0xbdb6754a	-0.0890909
99	0xbe061bee	-0.13096592
100	0xbdda441c	-0.10657522
101	0xbf03ab58	-0.51433325
102	0xbe4a4373	-0.19752292
103	0xbede4203	-0.43409738
104	0x3eb10e45	0.345812
105	0x3f067f53	0.5253803
106	0x3e930036	0.28711098
107	0xbe07a527	-0.13246594
108	0xbda60f4d	-0.08108387
109	0xbee735e3	-0.451583
110	0xbd01b9c2	-0.031671293
111	0xbd184048	-0.03717068
112	0xbdc675e9	-0.09690458
113	0xbd24e3ec	-0.040256426
114	0xbd8b9e08	-0.068172514
115	0xbd9d0780	-0.07667446
116	0xbc90fb35	-0.01769791
117	0x3bb7f4d4	0.0056139026
118	0x3d80a3e9	0.062812634
119	0x3ce093a2	0.027414147
120	0xbe5d0d3f	-0.21587084
121	0x3d2c5412	0.042072363
122	0x3dac96d1	0.084272034
123	0x3e7b9b87	0.24571048
124	0x3e2fab84	0.17155272
125	0xbe0fe519	-0.14052238
126	0x3d5348b4	0.051583007
127	0xbe7b3d46	-0.24535093
128	0xbe7c64d8	-0.24647844
129	0xbd3846f1	-0.04498953
130	0xbe509560	-0.20369482
131	0xbe4018ad	-0.18759413
132	0x3e28be2d	0.16478796
133	0x3e1010f5	0.14068969
134	0x3da68c8a	0.081322744
135	0xbe5473c2	-0.20747283
136	0x3e4f265e	0.2022948
137	0xbe856e23	-0.2606059
138	0xbe597fba	-0.2124013
139	0x3e00a7b9	0.12563981
140	0xbddb99ca	-0.10722692
141	0x3e638255	0.22217686
142	0xbddb2db1	-0.10702074
143	0x3e13562f	0.14388345
144	0xbea1637b	-0.3152121
145	0x3dcac880	0.099015236
146	0x3e644b7b	0.22294419
147	0xbe73c21f	-0.2380452
148	0x3dfe12aa	0.12405904
149	0xbda1b208	-0.07895285
150	0xbe1a375e	-0.15060183
151	0x3dd1b9ef	0.10240542
152	0xbe764ac6	-0.24051961
153	0xbe4a33e4	-0.19746357
154	0xbedf6c4c	-0.4363731
155	0x3a3f09f4	0.0007287555
156	0x3e609ba0	0.21934366
157	0x3c8b504d	0.017006064
158	0x3dcc57fb	0.099777184
159	0xbd44c804	-0.048042312
160	0xbd99791b	-0.07493802
161	0xbd8cd37e	-0.068762764
162	0xbd991306	-0.074743316
163	0x3d098343	0.033572447
164	0xbd2992f1	-0.0413999
165	0xbe3f290d	-0.18668003
166	0xbe247b95	-0.16062768
167	0x3e8ae06b	0.27124342
168	0x3df5cf49	0.12002427
169	0xbd1f6750	-0.038916886
170	0x3d6add0c	0.057339713
171	0xbc80c5e7	-0.015719367
172	0x3d0196e4	0.03163804
173	0xbdd92ff2	-0.10604848
174	0x3e08c99b	0.13358156
175	0x3e9b77a4	0.30364716
176	0xbb9a5a63	-0.004710482
177	0xbe8f8e14	-0.28038085
178	0xbe85c7c3	-0.2612897
179	0xbe531ac9	-0.20615686
180	0x3e86331c	0.26210868
181	0xbdf2ab83	-0.118491195
182	0xbd37aa37	-0.044840064
183	0x3c021837	0.007940344
184	0x3e16007f	0.14648627
185	0x3e468206	0.19385538
186	0xbdb6fe76	-0.08935253
187	0x3e06e768	0.13174212
188	0x3da83809	0.08213813
189	0xbd98fbe0	-0.07469916
190	0xbd95b866	-0.07310562
191	0xbe91a271	-0.28444245
192	0x3e25984e	0.16171381
193	0x3c0478ac	0.008085411
194	0x3d9402ff	0.07227134
195	0xbe256b6b	-0.16154258
196	0x3d67479d	0.05646478
197	0x3c05f3d2	0.008175807
198	0x3d49ecbc	0.049298033
199	0x3dad1a9f	0.08452343
200	0x3c597f55	0.013274987
201	0xbc280a44	-0.010256354
202	0xbe91a7e7	-0.28448412
203	0x3dab2922	0.08357455
204	0xbe5c7267	-0.21528016
205	0x3e768420	0.24073839
206	0xbd6795db	-0.056539398
207	0xbe8e1a2f	-0.27754351
208	0xbec2666d	-0.3796877
209	0x3d391b5a	0.0451921
210	0x3d09fdec	0.033689424
211	0xbd1b8114	-0.037964895
212	0x3d13a60a	0.03604702
213	0xbe48a18a	-0.19592872
214	0xbe19139f	-0.14948891
215	0xbd7632ca	-0.06010703
216	0xbd0c4a38	-0.034250468
217	0x3da1f8b9	0.07908768
218	0x3d56ae7e	0.052412502
219	0x3e66817b	0.2251033
220	0xbb8b5f25	-0.0042532855
221	0x3db7ab10	0.089681745
222	0x3df1665e	0.11787103
223	0x3e330c01	0.17485048
224	0xbe8890b7	-0.2667291
225	0xbe958157	-0.2920024
226	0x3d8476f2	0.064679995
227	0xbe35915a	-0.17731228
228	0xbd8cca72	-0.06874551
229	0xbda7a2b2	-0.081853285
230	0xbe4c3785	-0.19943054
231	0x3cd077fc	0.025447838
232	0x3cedd60a	0.029032726
233	0x3cd9aa67	0.026570512
234	0xbe7ba305	-0.24573906
235	0xbd759e88	-0.05996564
236	0xbe57ca2d	-0.21073218
237	0x3e315ea0	0.17321253
238	0xbe617352	-0.22016647
239	0x3de5ad73	0.112147234
240	0xbedf7af7	-0.43648502
241	0x3f093481	0.5359574
242	0xbd0ec350	-0.034854233
243	0xbd4022f9	-0.046908353
244	0xbe94ee2e	-0.29087967
245	0xbe782582	-0.24233058
246	0xbd2fc5e5	-0.042913336
247	0x3d59f0eb	0.053208273
248	0x3e99a820	0.30011082
249	0xbe90305d	-0.28161898
250	0xbd727b37	-0.059199538
251	0xbdc7e729	-0.09760887
252	0x3cb28b20	0.021794856
253	0xbd586260	-0.052828193
254	0xbe0290fc	-0.1275062
255	0x3d1d319b	0.038377386

msg_net.0.bias f4 [96]
0	0xbccd3bcc	-0.025052927
1	0xbd84eaa2	-0.06490065
2	0xbd4e2062	-0.05032385
3	0xbe249420	-0.1607213
4	0xbc23acd5	-0.009989937
5	0xbde7872c	-0.11305079
6	0xbe7860b2	-0.24255636
7	0xbd37b5eb	-0.044851225
8	0xbe31b31d	-0.17353483
9	0x3bba0d28	0.005677838
10	0x3c9a132f	0.018807976
11	0xbb53202b	-0.0032215219
12	0xbdf0aa34	-0.11751214
13	0xbddfca22	-0.10927226
14	0xbdaf33e0	-0.08554816
15	0x3d2a24f9	0.041539166
16	0xbe465815	-0.19369538
17	0xbda32b92	-0.07967295
18	0xbe4cb381	-0.1999035
19	0xbd566ec2	-0.05235172
20	0x3c63e74a	0.013910124
21	0xbd064eea	-0.032790102
22	0x3d33cb31	0.04389495
23	0xbdd550bf	-0.10415792
24	0xbdad37a4	-0.08457878
25	0xbe2b4cdf	-0.16728543
26	0xbe5427d8	-0.20718324
27	0xbcb012b9	-0.021493303
28	0xbeaacdbb	-0.33360085
29	0xbdeb0d98	-0.11477202
30	0x3ccfe7c9	0.025379078
31	0x3d0e9be9	0.034816656
32	0xbdb1d07d	-0.08682344
33	0xbd09a2bb	-0.033602457
34	0xbe1d3861	-0.15353538
35	0xbe9a0f4a	-0.3008979
36	0xbda406ce	-0.080091104
37	0xbc7cf283	-0.015438679
38	0x3d735ea2	0.05941642
39	0x3d2fb338	0.042895526
40	0xbd617e3e	-0.055052035
41	0xbe2e6db4	-0.17034036
42	0xba8148ba	-0.0009863593
43	0x3a83ee04	0.0010065441
44	0xbd923c93	-0.0714046
45	0xbe3cb4af	-0.184283
46	0xbe85b9ec	-0.2611841
47	0xbe41cf98	-0.18926847
48	0xbe6a5571	-0.22884156
49	0xbe5f514b	-0.21808355
50	0xbd0d00b5	-0.034424502
51	0x3bdff799	0.006834936
52	0xbd4ae80b	-0.0495377
53	0xbd88e016	-0.06683366
54	0x3c08ae9d	0.008342412
55	0xbe5d49e8	-0.21610224
56	0xbc6d840d	-0.014496815
57	0x3c06d4b6	0.008229425
58	0xbb9fdb52	-0.00487844
59	0xbd93ae37	-0.07210963
60	0xbc5156f6	-0.012777081
61	0xbe104e68	-0.1409241
62	0xbcd9b867	-0.026577188
63	0xbe64f2a8	-0.22358191
64	0xbe58e735	-0.21181948
65	0xbb940ffb	-0.0045185066
66	0x3d21b894	0.039482668
67	0xbd02c396	-0.031924807
68	0xbe794826	-0.24343929
69	0xbbedffca	-0.0072631584
70	0xbcd872f2	-0.026421998
71	0xbe94d228	-0.29066586
72	0xbebc66c9	-0.3679717
73	0xbd335161	-0.04377878
74	0x3d1f3e5b	0.038877826
75	0x3cd27d5c	0.025694542
76	0xbe95a19f	-0.2922487
77	0x3c0a63cd	0.008446646
78	0x3d29f42b	0.041492622
79	0x3c353491	0.011059896
80	0xbe64674a	-0.22305027
81	0xbc887e58	-0.016661808
82	0xbc319761	-0.010839314
83	0xbe1d0527	-0.15333997
84	0x3cf8ae8e	0.030356672
85	0xba036f91	-0.0005013878
86	0x3dc75521	0.09733034
87	0xbc639fe6	-0.013893103
88	0x3d401b57	0.046901073
89	0x3cdd02bc	0.026978843
90	0xbe02df78	-0.12780559
91	0x3cd1b253	0.025597727
92	0xbce0702f	-0.027397243
93	0xbc22e8e3	-0.00994322
94	0xbdb8aa6d	-0.09016881
95	0xbc89f261	-0.016839208

msg_net.2.weight f4 [96, 96]
0	0xbdca6737	-0.09882968
1	0xbdd84d88	-0.10561663
2	0x3c2afe8e	0.010436667
3	0xbe99b89a	-0.30023652
4	0xbe6c3bd6	-0.230697
5	0xbdb1f4bd	-0.08689258
6	0x3dfffbe1	0.12499214
7	0x3e141f33	0.14465027
8	0xbdb0d1ab	-0.08633741
9	0xbe391fb9	-0.18078507
10	0xbda56af0	-0.08077037
11	0xbd759173	-0.059953164
12	0x3d822a38	0.06355709
13	0xbb853f41	-0.0040663783
14	0xbde619d1	-0.11235393
15	0x3d8514e4	0.06498125
16	0x3cd6d3b0	0.026223987
17	0xbdaa12fc	-0.08304402
18	0x3d1f6a89	0.03891996
19	0x3c21276c	0.009836059
20	0xbd426552	-0.047459908
21	0xbdf1f0a2	-0.11813475
22	0x3cdc5f6b	0.026900968
23	0xbde8d222	-0.11368205
24	0x3dc2b065	0.09506301
25	0x3cf22cf3	0.02956245
26	0xbc037ec3	-0.008025828
27	0x3de4cbd4	0.1117169
28	0xbe38fcd9	-0.18065204
29	0x3dcab364	0.09897497
30	0xbbe6edca	-0.0070473896
31	0xbdf65828	-0.12028533
32	0x3e595e5e	0.21227404
33	0xbe427f18	-0.18993795
34	0x3bf2d71d	0.0074108974
35	0xbdb59318	-0.088659465
36	0xbbfdf789	-0.0077504558
37	0xbd8c777d	-0.06858728
38	0xbd910624	-0.07081249
39	0xbe9aa108	-0.30200982
40	0xbe108552	-0.14113358
41	0x3d58c71d	0.052924264
42	0xbd2b5787	-0.04183152
43	0x3d2ab5f7	0.04167744
44	0xbe7adf57	-0.2449926
45	0x3d6cbef6	0.057799302
46	0xbe9f55d5	-0.31120172
47	0x3dea476b	0.11439403
48	0x3d41b48b	0.04729132
49	0x3dd570ae	0.104218826
50	0xbe71011a	-0.23535576
51	0x3da4ebdf	0.08052801
52	0xbe21549f	-0.15754937
53	0x3d0bc46c	0.03412287
54	0xbe527d40	-0.20555592
55	0x3d9c134d	0.07620869
56	0xbd568c40	-0.052379847
57	0xbe41d458	-0.18928659
58	0xbc3c787a	-0.011503333
59	0xbd27225e	-0.04080426
60	0xbccf5524	-0.025309153
61	0xbdca0ca0	-0.09865689
62	0xbe1bcd8d	-0.1521513
63	0x3e4c2d5b	0.19939177
64	0xbdab3529	-0.08359749
65	0xbe67bd5e	-0.22630832
66	0x3d8c6c8b	0.068566404
67	0x3d7d5532	0.061848827
68	0x3d0e7d70	0.034787595
69	0xbdb46b5b	-0.08809539
70	0x3d14f8ce	0.03637009
71	0x3dd35441	0.103188045
72	0x3dd166e8	0.10224706
73	0x3c53dc23	0.012930903
74	0x3dc03162	0.09384419
75	0xbe0755a7	-0.13216268
76	0x3c341609	0.010991582
77	0x3d9b3f62	0.07580449
78	0x3d83568b	0.06412991
79	0xbac33dc0	-0.0014895722
80	0x3e2fbefa	0.17162696
81	0xbd1f69cb	-0.03891925
82	0xbe6dfe58	-0.23241556
83	0xbdd9007f	-0.10595798
84	0xbd896fcb	-0.06710776
85	0x3dbcfaed	0.09227548
86	0xbce5460e	-0.027987506
87	0x3d2f7442	0.04283548
88	0x3d482a47	0.048868444
89	0x3dd3936b	0.10330852
90	0x3d91b647	0.07114845
91	0x3d6e288a	0.05814413
92	0xbe702620	-0.23452044
93	0xbda6b123	-0.08139255
94	0xbd7045d4	-0.058660343
95	0x3dafd87e	0.085862145
96	0x3d78648a	0.060642757
97	0x3c180297	0.009277961
98	0xbd174bc2	-0.036937483
99	0x3e0e16d2	0.13875893
100	0x3e083261	0.13300468
101	0x3d7833ae	0.06059616
102	0x3da3bf99	0.07995529
103	0xbd773903	-0.060357105
104	0xbde80d16	-0.11330621
105	0x3d061037	0.032730307
106	0x3c8467c8	0.016162768
107	0x3d9c729a	0.07639046
108	0xbef4023f	-0.47657964
109	0xbe489e81	-0.19591714
110	0x3e3b4afd	0.18290325
111	0xbdc5730b	-0.09641083
112	0x3d7bd189	0.061479125
113	0xbe13f958	-0.14450586
114	0x3da91303	0.08255579
115	0xbdeb7cf5	-0.11498443
116	0xbe27b24b	-0.16376607
117	0x3d9c4ea8	0.0763219
118	0x3d94eb20	0.07271409
119	0xbe81eef3	-0.25377616
120	0x3d0e3b39	0.034724448
121	0xbe7a953d	-0.24470992
122	0xbd8ee1b9	-0.06976647
123	0x3bd63ce1	0.006538019
124	0xbeadae74	-0.3392216
125	0x3ca771de	0.020440038
126	0x3d4fc643	0.050726186
127	0xbd9a2023	-0.07525661
128	0xbce5e752	-0.028064404
129	0x3e4dd310	0.20100045
130	0xbe83a81a	-0.2571419
131	0x3e1e0858	0.1543287
132	0xbe90b976	-0.28266495
133	0xbd4f9086	-0.050674938
134	0xbdc5e018	-0.09661883
135	0xbb865524	-0.004099505
136	0x3d3a79c6	0.04552629
137	0xbdb09a0a	-0.086231306
138	0xbd29e15f	-0.041474696
139	0xbd8dc3ab	-0.06922086
140	0x3e0d605e	0.13806292
141	0xbdef9fd0	-0.11700404
142	0x3e7e7b4d	0.24851723
143	0xbe781a90	-0.24228883
144	0xbea7e47c	-0.32791507
145	0xbd959dc2	-0.073054805
146	0x3d72aaa7	0.059244778
147	0x3d47250a	0.048619308
148	0x3db5268d	0.088452436
149	0xbd079ac3	-0.033106577
150	0xbcd5b431	-0.026086899
151	0xbe4aa149	-0.19788088
152	0xbe1ddd25	-0.15416391
153	0x3cb31164	0.021858878
154	0x3d3536a3	0.04424156
155	0x3d777fde	0.060424678
156	0x3d51e10d	0.051240016
157	0xbdda8f3c	-0.10671851
158	0x3bd57e94	0.0065153334
159	0xbd2d9681	-0.04237986
160	0x3e30057b	0.1718959
161	0x3dec725e	0.11545251
162	0xbc83feec	-0.016112767
163	0x3df77848	0.12083489
164	0x3bbc919b	0.005754662
165	0x3d0a7fb5	0.033813197
166	0xbce68175	-0.028137902
167	0xbeb3f4c3	-0.35147676
168	0xbe44346f	-0.19160627
169	0xbd8ad1e4	-0.06778315
170	0xbd2d04ac	-0.042240784
171	0x3dc490d4	0.09597936
172	0xbe6b184d	-0.22958489
173	0xbdd7c68f	-0.10535919
174	0x3cf7f22f	0.03026685
175	0x3db3d627	0.08781081
176	0xbd82a413	-0.06378951
177	0x3c2b81e3	0.010467979
178	0x3de096ce	0.10966264
179	0x3e09c79b	0.1345505
180	0xbd012419	-0.031528566
181	0x3db44809	0.08802802
182	0x3c2adbec	0.01042841
183	0x3b0f83a1	0.0021898525
184	0x3de838a9	0.11338932
185	0xbd1522da	-0.03641019
186	0x3d839218	0.064243495
187	0xbd58ffec	-0.05297844
188	0x3df6df66	0.120543286
189	0x3d06fbf3	0.03295512
190	0x3d26d0bf	0.04072642
191	0xbcd30abb	-0.025761953
192	0xbd3bdf86	-0.045867465
193	0x3db1ee21	0.086879976
194	0xbd833c92	-0.06408037
195	0xbe0c6497	-0.13710247
196	0xbda0be3d	-0.07848785
197	0xbe5f0116	-0.21777758
198	0x3ea83523	0.3285304
199	0x3de091e5	0.10965327
200	0xbe0116f8	-0.12606418
201	0x3d25e691	0.04050309
202	0x3c6ac1d0	0.014328435
203	0x3df30091	0.118653424
204	0xbe8faa46	-0.28059596
205	0xbeecacaa	-0.46225482
206	0xbe4ba1b3	-0.19885902
207	0x3dd6f772	0.10496415
208	0xbe38156d	-0.17976923
209	0xbe2d4f4f	-0.16924785
210	0xbe41c44a	-0.18922535
211	0x3cb779a0	0.022396863
212	0xbe6f3f73	-0.23364048
213	0xbe286a79	-0.16446866
214	0xbe37c35b	-0.17945616
215	0x3c9dcbc5	0.019262204
216	0xbdc8c79c	-0.098036975
217	0xbec86a67	-0.3914368
218	0x3d653004	0.055953994
219	0x3d22532e	0.039630108
220	0xbd4e872c	-0.05042188
221	0x3d395f1c	0.04525672
222	0xbd630e86	-0.055433773
223	0xbde97b72	-0.114004984
224	0xbdb0385e	-0.08604501
225	0xbe1361f8	-0.14392841
226	0xbe7edab1	-0.24888112
227	0xbee5562f	-0.44792315
228	0xbca592ce	-0.020211603
229	0xbde618e5	-0.11235217
230	0xbc6df5a5	-0.014523898
231	0x3bdfe082	0.0068321833
232	0xbe11f4b1	-0.14253499
233	0xbeb3b46d	-0.3509859
234	0x3e0ad045	0.13556011
235	0xbde0e52a	-0.109812096
236	0x3d03fd3a	0.032223918
237	0x3d0579d9	0.032586906
238	0x3dcc7ede	0.099851355
239	0x3dbab2cf	0.09116136
240	0xbdae15a3	-0.085002206
241	0xbe47d492	-0.19514683
242	0xbc903bac	-0.017606579
243	0xbcb38eb6	-0.021918636
244	0x3d471796	0.048606478
245	0xbdfaa9da	-0.12239428
246	0x3d5351b1	0.05159158
247	0x3dcde73c	0.1005387
248	0xbb579440	-0.003289476
249	0xbd98dcc5	-0.074639834
250	0x3e0129fa	0.12613669
251	0xbd94d17b	-0.07266518
252	0xbd7ab621	-0.061208848
253	0xbf188bdc	-0.5958841
254	0x3c46be91	0.0121303955
255	0xbdac1b03	-0.084035896

msg_net.2.bias f4 [96]
0	0xbdc3c84c	-0.09559688
1	0xbc1d69ea	-0.009607771
2	0xbdac6cf8	-0.08419222
3	0x3cd5efc2	0.026115302
4	0xbd0487af	-0.03235596
5	0x3d781416	0.06056603
6	0x3c19b4c6	0.009381479
7	0xbc492311	-0.012276427
8	0x3ca185ec	0.01971718
9	0x3c552d7e	0.013011334
10	0xbd9bfd52	-0.076166764
11	0x3cf7c69b	0.03024607
12	0x3c92ba24	0.017911024
13	0x3cb93ba0	0.02261144
14	0xbc118b0b	-0.008883248
15	0x3b3f2e88	0.0029172022
16	0xbd6659b5	-0.056237895
17	0x3d4d249f	0.050083753
18	0x3c0ca13b	0.008583362
19	0x3cee350a	0.029078025
20	0xbe0c8a23	-0.1372457
21	0x3c030c22	0.007998498
22	0x3d091ccd	0.033474732
23	0xbc60a280	-0.013710618
24	0x3d36c826	0.04462447
25	0xbd389d6f	-0.045072015
26	0x387fa448	6.0949737e-05
27	0xbcbae5bf	-0.02281463
28	0x3bc3afe0	0.0059718937
29	0xbd212190	-0.03933865
30	0xbd4012b8	-0.04689285
31	0x3d22bcb3	0.03973074
32	0xbd0d02d4	-0.034426525
33	0x3d33bc15	0.04388054
34	0xbdb9ba26	-0.09068708
35	0x3d2774dc	0.04088293
36	0xbe46fba7	-0.19431935
37	0xbda71d86	-0.08159928
38	0x3c2b137c	0.010441657
39	0x3cd68149	0.026184695
40	0x3d1691d7	0.036760177
41	0x3cbe1a67	0.023205949
42	0x3d039556	0.03212484
43	0xbc6484e0	-0.0139476955
44	0xbbb1dc30	-0.0054278597
45	0xbbb6bb59	-0.005576533
46	0x3d0e2e1c	0.034711942
47	0x3c957a36	0.018246751
48	0xbd8eddd7	-0.06975906
49	0xbb6f7663	-0.003653907
50	0xbe248c1c	-0.16069072
51	0x3ce5acb9	0.028036462
52	0xbd916e50	-0.071011186
53	0xbd61f105	-0.055161495
54	0x3a057cd5	0.0005092149
55	0x3bf535c0	0.007483214
56	0x3d0ee816	0.034889303
57	0x3d3a2664	0.04544677
58	0xbd60b427	-0.054859307
59	0x3c928a20	0.017888129
60	0x3cff6c00	0.031179428
61	0xbdbad0d7	-0.09121864
62	0x3da7d443	0.081947826
63	0xbd871ca9	-0.06597263
64	0xbd84a2ec	-0.064763874
65	0xbc8c2b64	-0.017110534
66	0xbd209681	-0.03920603
67	0x3bbfb2d8	0.0058501773
68	0xbda05dee	-0.07830416
69	0x3c0a9cc9	0.008460232
70	0x3d2f7f20	0.042845845
71	0x3cd3c2b5	0.02584968
72	0xbda4edb1	-0.080531485
73	0xbdd5ec6c	-0.104454845
74	0xbe1b0e28	-0.15142119
75	0x3cc5f9e6	0.024167012
76	0xbb8fc091	-0.0043869694
77	0x3ca1ef64	0.01976747
78	0xbcd0164f	-0.025401263
79	0xbb0117a2	-0.0019697924
80	0x3d2aa944	0.04166533
81	0x3d03acae	0.032147102
82	0xbc76f542	-0.015073122
83	0x3cb3b219	0.02193551
84	0xbd51a039	-0.05117819
85	0xbd3c7ceb	-0.04601757
86	0xbb897da7	-0.004195887
87	0xbaacee96	-0.0013193663
88	0x3ce81f22	0.028335158
89	0xbd7c557a	-0.061604954
90	0x3c7f3ef5	0.015578975
91	0xbce8088b	-0.028324386
92	0x3d8ded32	0.06930007
93	0x3d2cd56d	0.042195726
94	0xbcfb7307	-0.030694498
95	0xbca6ed30	-0.020376772

msg_net.4.weight f4 [11, 96]
0	0x3d2ddf7f	0.04244947
1	0xba8cd245	-0.0010743818
2	0x3d83f409	0.064430304
3	0xbdd442de	-0.103643164
4	0x3dc26045	0.09491018
5	0x3dce8306	0.100835845
6	0xbecafa0a	-0.3964389
7	0x3e40e669	0.18837894
8	0xbdf91dcf	-0.12163889
9	0x3dfc76a9	0.1232732
10	0x3cd592e0	0.026071012
11	0x3e31014d	0.17285652
12	0x3f09ee43	0.53879184
13	0xbdaeab5a	-0.085287765
14	0x3e33d2b2	0.17560843
15	0x3dc25e08	0.09490591
16	0x3ba3da73	0.0050004064
17	0x3e2f9f8f	0.1715071
18	0x3ddb6f53	0.10714593
19	0x3e8708d1	0.26373914
20	0xbd4bad32	-0.04972572
21	0x3e0e9e0e	0.1392748
22	0x3dc45053	0.09585633
23	0xbe14f94f	-0.14548229
24	0x3c8b31d2	0.01699153
25	0x3e03ac8a	0.12858787
26	0x3d769e7d	0.06020974
27	0x3c8bf68d	0.017085338
28	0x3d4fcff9	0.050735448
29	0xbba39ad6	-0.004992823
30	0x3da59757	0.080855064
31	0x3d5ce56e	0.05392974
32	0x3d818264	0.06323698
33	0xbd0adf31	-0.03390426
34	0x3caac89c	0.020847611
35	0xbd17131a	-0.03688345
36	0x3d32fcc8	0.043698102
37	0xbddca3c5	-0.10773424
38	0x3bcf0aeb	0.00631844
39	0xbcbbac95	-0.022909442
40	0x3d31194a	0.04323701
41	0x3e1de1ac	0.15418118
42	0xbcbadd05	-0.022810468
43	0xbd8e52ac	-0.06949362
44	0xbe4c4c7f	-0.19951056
45	0xbe2b8e61	-0.16753532
46	0x3dae101d	0.08499167
47	0x3ba260d8	0.0049553923
48	0xbb60eb34	-0.003431988
49	0xbe946165	-0.28980556
50	0xbd728fbd	-0.05921911
51	0xbc238d04	-0.009982351
52	0xbde40a46	-0.11134772
53	0xbc0079ad	-0.00784151
54	0x3d3d1ccc	0.04617004
55	0x3ce6b3de	0.02816194
56	0xbda11df9	-0.07867045
57	0xbdefa327	-0.11701041
58	0xbd0deba2	-0.034648545
59	0x3dc3ff07	0.09570127
60	0x3d996087	0.07489114
61	0xbe2ccb92	-0.16874531
62	0x3e6fab5c	0.23405212
63	0x3e1503f5	0.1455229
64	0x3d087fbe	0.03332495
65	0x3dfa8216	0.12231843
66	0x3d4b417a	0.04962299
67	0x3ba8ccf5	0.005151386
68	0xbd07220b	-0.03299145
69	0x3e196a31	0.14981915
70	0x3e6b45ff	0.2297592
71	0xbe9bac1d	-0.3040475
72	0x3d8a4ca2	0.06752898
73	0x3d568912	0.052376814
74	0xbe191a38	-0.14951408
75	0xbd6c1a62	-0.057642348
76	0x3d23bb7d	0.039973725
77	0x3c44aaff	0.012003659
78	0x3d6345d9	0.055486534
79	0x3d9245f2	0.07142247
80	0xbe96a041	-0.2941914
81	0xbd41f286	-0.04735043
82	0x3d9cf334	0.07663575
83	0xbcf8c8a4	-0.03036911
84	0xbd467f32	-0.048461147
85	0xbd9c194f	-0.07622015
86	0xbd80a0bc	-0.06280658
87	0x3daf1e69	0.08550722
88	0xbe0fa588	-0.14027989
89	0xbdb22063	-0.086975835
90	0xbd9c953b	-0.07645651
91	0xbd8b8786	-0.068129584
92	0x3ddde6c1	0.108350284
93	0xbc519531	-0.012791918
94	0xbe2cc856	-0.16873297
95	0xbeb0c0d9	-0.3452213
96	0xbd74d56e	-0.059773855
97	0xbc630663	-0.013856503
98	0x3c803e3b	0.015654674
99	0xba8de471	-0.0010825527
100	0x3bfae147	0.0076562497
101	0x3c02caa0	0.00798288
102	0xbea6a5a2	-0.32548243
103	0x3d673220	0.056444287
104	0x3d8d3690	0.068951726
105	0xbc72cddb	-0.014819588
106	0xbe3f5849	-0.18686022
107	0x3d671f8a	0.056426562
108	0x3e7990a9	0.2437159
109	0xbd8d76de	-0.06907438
110	0xbcd39f06	-0.025832664
111	0x3bd0ee72	0.006376081
112	0x3db1e02e	0.08685337
113	0xbdfb2b1c	-0.12264082
114	0x3d0e88ec	0.034798548
115	0xbe744672	-0.23854998
116	0x3ca4b3ba	0.020105232
117	0xbe31c4dd	-0.17360254
118	0xbc8b7167	-0.017021848
119	0x3d3239ad	0.043512035
120	0x3e608266	0.21924743
121	0xbcb7f181	-0.022454025
122	0xbd60d46a	-0.054890074
123	0xbd2fa20d	-0.042879153
124	0x3c2e62fc	0.010643717
125	0xbe50cf89	-0.20391668
126	0x3db8c3fe	0.090217575
127	0x3d3c0c4e	0.045910172
128	0xbd036675	-0.032080133
129	0x3f0c9750	0.54918385
130	0x3d90b6e4	0.070661336
131	0xbd083f07	-0.033263233
132	0x3d2d2c00	0.04227829
133	0x3cce4be3	0.02518267
134	0xbd0ea19a	-0.034822084
135	0x3cc9de53	0.024642145
136	0x3d6db3e7	0.058032896
137	0x3e35e674	0.17763692
138	0xbd51afa9	-0.051192913
139	0x3c9e573f	0.019328712
140	0x3c229d8f	0.00992526
141	0x3cf1ed35	0.029532054
142	0x3d10cb6d	0.035350252
143	0xbd8bb165	-0.06820945
144	0x3d4bd6cc	0.049765393
145	0xbe7d10c5	-0.24713428
146	0x3d0cf147	0.034409788
147	0xbd442f9f	-0.047896978
148	0xbd65b355	-0.056079227
149	0xbd596407	-0.05307391
150	0x3d266ddf	0.040632125
151	0x3dbde84b	0.09272822
152	0xbd357ab6	-0.04430648
153	0xbcfc7e30	-0.03082189
154	0x3dc1fed7	0.09472435
155	0x3e6380f7	0.22217165
156	0x3d570d88	0.05250314
157	0x3e0a0ce3	0.13481478
158	0xbe870de0	-0.26377773
159	0x3e082c6c	0.13298196
160	0xbceca20f	-0.02888587
161	0x3dd6b4b9	0.10483689
162	0x3e862a87	0.2620432
163	0xbd80fb2d	-0.06297908
164	0x3d2a815b	0.04162727
165	0x3cb54b43	0.022130614
166	0x3e2d7e83	0.16942792
167	0xbe17cba5	-0.14823778
168	0xbd53df39	-0.051726554
169	0x3d9cd3e8	0.076576054
170	0x3dcf72c2	0.1012931
171	0x3e7a0e06	0.24419412
172	0xbdc5d716	-0.09660165
173	0x3db25ed5	0.08709494
174	0x3cbf0bed	0.023321116
175	0xbd39b264	-0.045336142
176	0xb8b5e5f4	-8.673585e-05
177	0xbd9b2eff	-0.07577323
178	0x3d1d970f	0.03847414
179	0xbcc6af7c	-0.0242536
180	0x3db017c5	0.08598284
181	0x3d1c7f1d	0.038207162
182	0x3d95dbd2	0.07317318
183	0x3e6052f1	0.2190664
184	0xbd178358	-0.036990494
185	0xbd49cd4b	-0.04926805
186	0xbcac99bc	-0.0210694
187	0xbe074638	-0.1321038
188	0xbcbe837c	-0.023256056
189	0x3d43cda2	0.04780353
190	0x3d5fc4a9	0.05463091
191	0xbc0507e7	-0.00811956
192	0x3dee58ec	0.11638054
193	0x3da3ea87	0.08003717
194	0x3d3d390a	0.046196975
195	0x3d31a128	0.04336658
196	0xbcd2ac39	-0.025716888
197	0x3d399546	0.045308374
198	0xbe997538	-0.29972243
199	0xbd1dfdd0	-0.038572133
200	0xbd2b682e	-0.0418474
201	0xbce22889	-0.02760722
202	0x3c0dd69e	0.008657126
203	0x3d97303d	0.073822476
204	0x3f16fecb	0.58982533
205	0x3cf21e16	0.029555362
206	0x3d025c46	0.03182628
207	0xbd397350	-0.045275986
208	0xbdb0b533	-0.08628311
209	0x3d05b96b	0.03264753
210	0x3d1ec8cb	0.03876571
211	0xbe3e1099	-0.18561019
212	0xbb8fde1f	-0.0043904926
213	0x3c736780	0.014856219
214	0xbd3b1dfd	-0.045682896
215	0xbd9a692c	-0.07539591
216	0xbe0e7dbc	-0.13915151
217	0xbce9cabe	-0.028539058
218	0xbca7f2cf	-0.020501522
219	0xbd8679ed	-0.06566224
220	0xbdd27638	-0.10276455
221	0xbd42ccac	-0.04755847
222	0x3ce2bc38	0.02767764
223	0xbdb9f2fd	-0.090795495
224	0x3d43618e	0.047700457
225	0xbe9ddf10	-0.30834246
226	0x3db50543	0.08838894
227	0xbde6a3e5	-0.11261729
228	0x3da95f22	0.08270098
229	0x3ca9569d	0.020671183
230	0x3be37dc7	0.006942484
231	0x3d6bb9ff	0.057550427
232	0xbda223c8	-0.07916981
233	0xbdfba997	-0.12288206
234	0x3df4c0e5	0.11950854
235	0xbbc57bc5	-0.0060267174
236	0xbd235d10	-0.039883673
237	0xbd2b908b	-0.041885894
238	0xbc501460	-0.01270017
239	0xbb82387f	-0.00397402
240	0x3e12c5d6	0.14333281
241	0xbc35c58c	-0.011094462
242	0x3d6f71ad	0.05845802
243	0x3cc11113	0.023567712
244	0x3da7b1b4	0.08188191
245	0xbd52923d	-0.051408995
246	0x3d3f28e9	0.046669874
247	0xbd482ed7	-0.048872795
248	0xbdd4244f	-0.10358488
249	0x3d0230c2	0.03178478
250	0x3d247233	0.04014797
251	0xbda2a5e5	-0.07941798
252	0xbd810bf1	-0.06301106
253	0xbe490924	-0.19632393
254	0x3dd360b7	0.10321181
255	0x3e519e77	0.20470606

msg_net.4.bias f4 [11]
0	0xbb90fc3f	-0.0044246013
1	0x3c2fa698	0.010720871
2	0x3d1253f4	0.035724595
3	0x3ccbd415	0.024881402
4	0xbb34f608	-0.0027612466
5	0x3cfaa0f4	0.030594327
6	0x3c03aa0c	0.008036148
7	0xbca60413	-0.020265615
8	0x3b374234	0.0027963044
9	0x3cafad78	0.021445021
10	0xbd034e75	-0.032057244

gru.weight_ih_l0 f4 [30, 20]
0	0x3ea04cdf	0.31308648
1	0x3dc22138	0.09478992
2	0xbea4707c	-0.3211707
3	0x3f0aa49e	0.54157436
4	0x3e7a327c	0.24433321
5	0xbc7b9c1e	-0.015357045
6	0xbe262d0f	-0.16228126
7	0xbe35b083	-0.17743115
8	0xbf832535	-1.024573
9	0xbe339a8e	-0.17539427
10	0xbdbf01c4	-0.09326509
11	0xbf9f89e4	-1.2463956
12	0xbf087a67	-0.5331177
13	0xbf3153b1	-0.6926833
14	0x3ecd57d7	0.4010608
15	0xbf28bb39	-0.6591068
16	0x3f0baea8	0.5456338
17	0x3eddaaa8	0.43294263
18	0x3f35d6f8	0.7103114
19	0xbf629e92	-0.8852321
20	0x3d99d53e	0.07511376
21	0x3f011985	0.50429565
22	0xbed41e2e	-0.41429275
23	0xbf21f0de	-0.6325816
24	0x3e696b3c	0.22794813
25	0xbf2ed69f	-0.68296236
26	0x3dc78953	0.097429894
27	0xbe218a9a	-0.15775529
28	0x3e0834cc	0.1330139
29	0x3e7b5b48	0.2454654
30	0xbe4c3d23	-0.19945197
31	0xbee3b03e	-0.444704
32	0x3de7293b	0.11287161
33	0xbf6101b8	-0.8789325
34	0x3f5a06c5	0.8516658
35	0x3f99f59c	1.2028079
36	0xbf413a87	-0.7547993
37	0xbf97bf5d	-1.1855274
38	0x3f34acb3	0.7057602
39	0xbd59cf30	-0.053176105
40	0xbf20c5fa	-0.6280209
41	0x3eceb8b5	0.40375295
42	0x3d0a1986	0.033715747
43	0x3f188637	0.59579796
44	0x3e5232a3	0.20527129
45	0xbe936efb	-0.2879561
46	0x3debe719	0.11518688
47	0x3e7edbb6	0.248885
48	0x3d212d77	0.03935
49	0x3dcb1509	0.099161215
50	0x3f06a589	0.52596337
51	0xbf4c34ae	-0.7976788
52	0x3e21a39d	0.1578507
53	0x3f2391d7	0.6389441
54	0xbf6c624f	-0.92337507
55	0xbc833a53	-0.016019022
56	0xbf1a6922	-0.6031667
57	0xbec318d4	-0.3810488
58	0x3e70d5f9	0.23519124
59	0xbf0f1cc7	-0.55903286
60	0x3d6e7539	0.05821726
61	0x3f327d09	0.6972204
62	0x3f1cdc61	0.6127377
63	0x3e10913b	0.14117901
64	0x3cfa4873	0.030552125
65	0xbe3f5423	-0.1868444
66	0xbf124e26	-0.57150495
67	0x3e844153	0.25831088
68	0xbe4d92da	-0.2007555
69	0x3eca0720	0.3945856
70	0x3dc303e1	0.09522224
71	0x3d254c07	0.04035571
72	0xbf28442d	-0.6572903
73	0x3fe67b9a	1.800647
74	0x3f7f024e	0.9961289
75	0xbed2bedd	-0.41161242
76	0x3ec64bde	0.38729757
77	0xbf036f82	-0.5134202
78	0xbf8b3755	-1.0876261
79	0xbf9a515f	-1.2056082
80	0xbe3fe085	-0.18737991
81	0x3e0b45bc	0.1360082
82	0xbeaef0ee	-0.3416819
83	0x3e82c07f	0.25537488
84	0x3e641ccc	0.2227661
85	0x3e8afd26	0.27146262
86	0xbdc364c9	-0.095407076
87	0xbe085ec0	-0.13317394
88	0xbd36207b	-0.04446457
89	0xbe0c4122	-0.13696721
90	0x3e7c2aa5	0.24625643
91	0x3f945de1	1.159115
92	0x3f045993	0.5169918
93	0xbf0f59a6	-0.5599617
94	0xbf994648	-1.1974573
95	0xbd718c20	-0.058971524
96	0x3f96bbc5	1.1776053
97	0xbffb6f6b	-1.9643377
98	0xbe2c1cbb	-0.16807835
99	0xbe6538d5	-0.22384961
100	0xbe948281	-0.29005817
101	0xbe71daab	-0.23618571
102	0xbecddd67	-0.4020798
103	0xbe130383	-0.14356808
104	0xbed383e0	-0.4131155
105	0x3ed85e61	0.42259505
106	0x3f1ea49d	0.6196993
107	0x3e2c83d0	0.16847157
108	0xbdba06ec	-0.090833515
109	0xbe7f20d1	-0.24914862
110	0xbe9c6adc	-0.30550277
111	0x3ea0664c	0.31328046
112	0xbea4e4b0	-0.32205725
113	0xbed79c57	-0.42111465
114	0x3f7e7cf2	0.994094
115	0xbf7b2555	-0.9810384
116	0xbf518a55	-0.818517
117	0x3f910992	1.1331046
118	0xbfa20080	-1.2656403
119	0x3f925738	1.1432867
120	0x3f092daa	0.535853
121	0x3e1eacb0	0.15495563
122	0x3cf1c421	0.029512467
123	0x3ea074db	0.31339154
124	0xbb2bea7b	-0.002623229
125	0x3f1a32f5	0.60234004
126	0x3e2b02de	0.16700312
127	0xbdc9139e	-0.09818195
128	0xbf43d227	-0.7649254
129	0x39eaab94	0.00044759794
130	0xbe7ae4b4	-0.24501306
131	0xbf510c1d	-0.8165911
132	0x3e84d670	0.25944853
133	0x3fcd43bb	1.6036295
134	0x3e208d43	0.15678887
135	0x3f36603a	0.7124058
136	0xbd231da7	-0.0398232
137	0xbf1620ad	-0.5864361
138	0xbf27dab5	-0.65568095
139	0x3f7ad0b4	0.97974706
140	0xbe6ac260	-0.2292571
141	0x3e83f159	0.2577007
142	0xbeb2ca7e	-0.34920114
143	0xbde48ddf	-0.11159872
144	0xbe0a27a6	-0.13491687
145	0xbe2a40c1	-0.16626264
146	0x3e993267	0.29921266
147	0xbe837b00	-0.2567978
148	0xbe19c44f	-0.15016292
149	0xbdc1b8cd	-0.09459076
150	0x3e8fc098	0.28076625
151	0xbecbd1fa	-0.39808637
152	0x3e89525e	0.26820654
153	0xbecc9174	-0.39954722
154	0x3c9b1ce4	0.018934675
155	0x3f4dd92b	0.804095
156	0x3e578594	0.2104705
157	0x3ea71da2	0.32639796
158	0xbe89a619	-0.26884535
159	0xbf1f7e56	-0.6230215
160	0xbede010f	-0.43360183
161	0x3bf3af72	0.007436686
162	0xbeabfc6b	-0.33591017
163	0xbe5c5425	-0.21516474
164	0xbe40ae9f	-0.18816613
165	0x3e4b33f5	0.19844039
166	0xbeb86572	-0.36014897
167	0x3f55e494	0.8355191
168	0xbe39fcde	-0.18162867
169	0x3d117fa7	0.03552213
170	0x3dec0ebc	0.11526248
171	0x3f2bab0a	0.6705786
172	0x3f21a08d	0.63135606
173	0xbee14676	-0.4399907
174	0xbe8ea0de	-0.27857107
175	0xbf356299	-0.70853573
176	0xbf195b08	-0.5990453
177	0xbeee5274	-0.46547282
178	0x3f1421cb	0.57864064
179	0xbe879cd7	-0.26486847
180	0xbe95143a	-0.29116994
181	0xbeba58dd	-0.36395922
182	0x3e0558f8	0.1302222
183	0x3e8545ed	0.26029912
184	0xbec5bd1d	-0.38620844
185	0xbe2fe151	-0.17175795
186	0xbdaea4f6	-0.085275576
187	0x3e4edd6e	0.20201656
188	0xbe3bd786	-0.18343934
189	0x3e96da6b	0.29463515
190	0x3e8b9d93	0.27268657
191	0xbf6c4c86	-0.92304265
192	0x3f7463af	0.95464605
193	0xbb72d3df	-0.0037052555
194	0x3f2dd374	0.67900777
195	0xbf187a85	-0.5956195
196	0x3f8022ca	1.0010617
197	0x3d09b190	0.033616602
198	0xbec17768	-0.37786412
199	0xbf13cbad	-0.5773266
200	0xbf9ba2be	-1.215904
201	0xbe8613ec	-0.26187074
202	0x3d412a4b	0.047159474
203	0xbf471bb7	-0.77776664
204	0x3e8e5d05	0.27805343
205	0x3e678bbd	0.226119
206	0x3f2bbc3e	0.6708411
207	0xbe3f1412	-0.1866
208	0xbe7cafe5	-0.24676473
209	0xbf01af25	-0.50657874
210	0x3f23ff88	0.64061785
211	0xbf27adc0	-0.65499496
212	0xbe8f501a	-0.279908
213	0xbda67118	-0.0812704
214	0x3ed1fea0	0.41014576
215	0x3f11cf4f	0.5695695
216	0xbe6a6662	-0.22890618
217	0x3f28ff0d	0.66014177
218	0xbea80a9d	-0.32820597
219	0xbec40149	-0.3828223
220	0xbf131810	-0.5745859
221	0xbf587cb2	-0.8456527
222	0x3e56a233	0.20960312
223	0xbe79c2ee	-0.24390766
224	0x3dba4e4b	0.090969644
225	0x3cb4bf08	0.022063747
226	0x3e82ebd9	0.25570562
227	0xbda2e072	-0.07952966
228	0x3e9d2d42	0.3069859
229	0xbf2850c5	-0.65748245
230	0x3f39087b	0.72278565
231	0xbed9a3ec	-0.42507875
232	0x3eec9246	0.46205348
233	0xbf4ac4bb	-0.79206437
234	0x3f094c09	0.53631645
235	0x3dc2442f	0.09485661
236	0xbeb3ed70	-0.35142088
237	0xbf1326f6	-0.57481325
238	0x3e523b6c	0.2053048
239	0xbee356e2	-0.44402224
240	0x3c06ccd8	0.0082275495
241	0xbf0652aa	-0.52469885
242	0x3f4341a3	0.7627203
243	0xbeb4d786	-0.3532068
244	0xbf6bc985	-0.9210437
245	0x3e467cf6	0.19383606
246	0x3c6c98fd	0.014440772
247	0x3dfd5b54	0.12370935
248	0x3f0b7b2f	0.5448484
249	0xbf09f300	-0.53886414
250	0x3f1f30d5	0.62183887
251	0x3eea48a0	0.45758533
252	0xbedeb915	-0.4350058
253	0xbeeeead5	-0.46663538
254	0x3f0cac6e	0.54950607
255	0x3e7ff453	0.24995546

gru.weight_hh_l0 f4 [30, 10]
0	0x3e243160	0.1603446
1	0x3e1090d0	0.14117742
2	0x3e0c129c	0.13678974
3	0xbe002761	-0.12515022
4	0xbe7f3a4b	-0.24924581
5	0x3eadbdb8	0.33933806
6	0x3ca1e28c	0.019761346
7	0x3ebf3529	0.37345245
8	0xbd357359	-0.044299457
9	0x3e7789ea	0.24173704
10	0xbe339607	-0.175377
11	0x3d4d9a12	0.05019576
12	0xbd4bdf8d	-0.04977374
13	0xbe3f3a5a	-0.18674603
14	0x3e4096ef	0.18807577
15	0xbd74f72a	-0.059806027
16	0x3e061459	0.130937
17	0x3f0e5ed7	0.55613464
18	0x3e1716cf	0.14754795
19	0xbdb24552	-0.08704628
20	0xbd8f03de	-0.069831595
21	0xbd1defdf	-0.038558837
22	0xbe6bd71c	-0.23031276
23	0xbc384959	-0.011247956
24	0x3ecaecd5	0.39633814
25	0xbe92a047	-0.28637907
26	0x3e3c6c8f	0.18400787
27	0xbe84da18	-0.25947642
28	0x3e223c23	0.15843253
29	0x3da58af7	0.08083146
30	0xbdb823d8	-0.08991212
31	0x3e828d92	0.25498635
32	0xbe6f7e1a	-0.23387948
33	0xbeb605c7	-0.35551283
34	0x3e8ad8c6	0.2711851
35	0x3d00cd42	0.03144575
36	0x3d23f158	0.040025085
37	0xbe00671c	-0.12539333
38	0xbe0850e7	-0.13312112
39	0x3d5ecf40	0.054396868
40	0x3d19c04e	0.03753691
41	0xbe52542b	-0.2053992
42	0xbf04fe5f	-0.5195064
43	0x3f233cce	0.63764656
44	0xbe9da5ba	-0.30790502
45	0x3e1fd1e9	0.15607418
46	0x3c23b5be	0.009992061
47	0xbed5ff05	-0.41796127
48	0x3d505316	0.050860487
49	0x3e5771a8	0.2103945
50	0x3bbc5990	0.0057479814
51	0x3dc6f238	0.09714168
52	0x3eaf63f8	0.34255958
53	0x3e3d5515	0.18489487
54	0x3d9a9c93	0.075493954
55	0x3e6701e0	0.22559309
56	0xbdf30f26	-0.11868124
57	0xbeb5e40a	-0.35525542
58	0x3eae1a71	0.34004548
59	0xbe87da3e	-0.26533693
60	0xbdf2fa48	-0.118641436
61	0x3d9de1b0	0.07709062
62	0x3e5d4d6b	0.21611564
63	0x3e28d38b	0.16486947
64	0xbd8f6e5b	-0.070034705
65	0xbe9e7887	-0.3095133
66	0xbe55ad2d	-0.20866843
67	0xbe098adc	-0.13431877
68	0x3e662914	0.22476608
69	0xbd67c67c	-0.056585774
70	0x3e34c290	0.17652345
71	0x3ed4b3ba	0.4154337
72	0x3b8885d6	0.004166345
73	0x3e8a405a	0.2700222
74	0xbd43d54a	-0.04781083
75	0x3eb45176	0.352184
76	0x3e37f54d	0.17964669
77	0xbe5abec2	-0.21361831
78	0x3ea15560	0.31510448
79	0xbd3fe005	-0.0468445
80	0x3ea81d8f	0.3283505
81	0xbeedef44	-0.46471608
82	0x3d28a74b	0.041175168
83	0xbe8e2341	-0.27761272
84	0xbe29be48	-0.16576493
85	0x3eae3ca0	0.34030628
86	0x3de0e9d2	0.10982098
87	0xbedf8ec8	-0.4366362
88	0xbe883486	-0.26602572
89	0x3dd3d0f1	0.10342587
90	0xbe04acb8	-0.12956512
91	0x3e40f26f	0.18842481
92	0x3edc5f33	0.4304138
93	0x3ec88b45	0.39168754
94	0x3d8cc112	0.06872763
95	0x3dda5ebd	0.10662601
96	0x3db78686	0.08961205
97	0xbc45aa9f	-0.012064605
98	0x3ee6225c	0.4494809
99	0xbe5c48d5	-0.21512158
100	0x3e0f796e	0.14011165
101	0xbee37401	-0.4442444
102	0xbf216871	-0.6304999
103	0xbf1dbabf	-0.61613077
104	0x3db48b19	0.08815593
105	0x3f14d1b6	0.58132493
106	0x3f5223d0	0.82085896
107	0xbe928844	-0.28619587
108	0x3f26f805	0.652222
109	0xbf158029	-0.5839868
110	0xba4769fc	-0.00076070405
111	0xbfc85013	-1.5649437
112	0xbf32c146	-0.6982616
113	0xbf14adb2	-0.5807754
114	0x3f14ce20	0.5812702
115	0x3f22ac48	0.6354413
116	0x3f150bb9	0.5822101
117	0xbf2d05c9	-0.6758695
118	0xbb4f5f36	-0.0031642444
119	0xbf6d6b73	-0.9274208
120	0x3f22caa4	0.63590455
121	0x3ef12802	0.47100836
122	0xbeb1b913	-0.34711513
123	0xbf0e43dd	-0.555723
124	0xbf4fbf59	-0.8115135
125	0xbf3ee9b3	-0.74575347
126	0x3f5207b7	0.8204302
127	0xbf2e8e45	-0.68185836
128	0x3f0b2e2d	0.54367334
129	0xbf44c3b9	-0.7686115
130	0x3f0fee6e	0.5622319
131	0x3eb7a60d	0.35868874
132	0xbd5b1372	-0.05348534
133	0x3e236973	0.15958194
134	0xbebc13fe	-0.36734003
135	0xbd070a9c	-0.032969102
136	0x3f2af836	0.6678499
137	0xbf095a95	-0.5365384
138	0xbe4f1f79	-0.2022685
139	0x3ebe384b	0.37152323
140	0x3e2e49fa	0.17020407
141	0x3e728a10	0.23685479
142	0xbeb49a51	-0.35273984
143	0xbe519a3b	-0.2046899
144	0xbf95e1e4	-1.1709561
145	0xbf167971	-0.58779055
146	0x3ea2ae11	0.31773427
147	0xbe6a5539	-0.22884072
148	0xbecaef4a	-0.39635688
149	0xbe85ffaf	-0.26171634
150	0x3edf0b95	0.43563524
151	0xbe65eca8	-0.22453558
152	0xbec6b4fe	-0.3880996
153	0xbe602c01	-0.21891786
154	0xbe877aa9	-0.2646077
155	0xbefdbb92	-0.49557167
156	0x3de07be6	0.10961132
157	0xbe04c0ce	-0.12964174
158	0xbe1163bc	-0.14198202
159	0xbe932058	-0.28735614
160	0xbdefc326	-0.117071435
161	0xbebe4925	-0.3716518
162	0xbf692c57	-0.9108328
163	0xbf88f626	-1.0700119
164	0x3ecb1317	0.39663002
165	0x3d168e5b	0.036756855
166	0x3fb202c4	1.3907094
167	0xbf2181d0	-0.63088703
168	0x3f24a730	0.6431761
169	0xbf097714	-0.53697324
170	0x3f3b387e	0.73133075
171	0x3e055e4b	0.13024251
172	0x3e68dada	0.22739735
173	0xbeaafb79	-0.33394983
174	0xbd71ae0e	-0.059003882
175	0xbe626bf8	-0.221115
176	0x3f40a9c6	0.75259054
177	0xbee2cfcb	-0.44299158
178	0xbc93f4a6	-0.018060993
179	0xbe5c8bb5	-0.21537669
180	0x3f103a0f	0.5633859
181	0x3d414f19	0.047194574
182	0x3cd674f7	0.02617882
183	0x3eabec8f	0.33578917
184	0xbd93ed36	-0.07222979
185	0xbed6501f	-0.41858003
186	0x3e32e92a	0.17471758
187	0xbeda2463	-0.42605886
188	0x3f89a57f	1.075363
189	0xbe8e606e	-0.27807945
190	0x3f28fa01	0.66006476
191	0x3ee395e9	0.4445031
192	0x3ea211d6	0.31654233
193	0x3eb042b2	0.34425884
194	0xbf623c7e	-0.88373554
195	0xbeaa9ccd	-0.33322755
196	0x3e04b4b2	0.12959555
197	0xbe9b5848	-0.3034079
198	0xbc6fac24	-0.014628444
199	0x3eafa43f	0.34304997
200	0x3d81ffde	0.06347631
201	0xbdc1a89b	-0.09455987
202	0x3da0c099	0.07849235
203	0xbe980416	-0.29690617
204	0xbe254977	-0.16141306
205	0x3d377fce	0.04479962
206	0xbc938184	-0.018006094
207	0xbcb58837	-0.022159679
208	0x3dc9d62a	0.09855302
209	0x3dd1b3a1	0.102393396
210	0xbba839ff	-0.005133867
211	0x3c8a6f6a	0.01689883
212	0x3e2e6892	0.17032078
213	0xbeb8169d	-0.35954753
214	0xbcb8f7c1	-0.022579076
215	0x3db3c6ca	0.087781504
216	0x3dd5b433	0.10434761
217	0x3d917294	0.07101932
218	0x3d4210e3	0.047379386
219	0x3e553550	0.20821118
220	0x3d5c0e15	0.053724367
221	0x3e9c2e64	0.30504143
222	0x3e41b608	0.18917096
223	0x3e56fe88	0.20995533
224	0x3c00155c	0.0078175925
225	0x3e5e8ddc	0.21733803
226	0x3e33a878	0.17544734
227	0x3da7a533	0.08185806
228	0xbce50d6d	-0.027960503
229	0xbe1a0406	-0.15040597
230	0x3d92af44	0.071623355
231	0xbd2dd2ff	-0.04243755
232	0xbda7f4bd	-0.08200977
233	0x3e8e9065	0.2784454
234	0xbc834c50	-0.0160276
235	0xbe1078a5	-0.14108522
236	0x3e5b1424	0.21394402
237	0x3d666b68	0.056254774
238	0x3caa0003	0.020751959
239	0xbd027707	-0.031851795
240	0xbcbbd97f	-0.022930859
241	0x3d814f62	0.06313969
242	0x3da596ad	0.0808538
243	0x3e11b1a1	0.14227916
244	0x3e76167e	0.24032018
245	0xbbb9f863	-0.005675362
246	0x3cdf6b45	0.02727283
247	0x3e64e45a	0.22352734
248	0x3e369332	0.17829588
249	0xbe3436ec	-0.17599076
250	0xbe1cffe6	-0.15331993
251	0xbd73c359	-0.05951247
252	0xbdb97235	-0.090549864
253	0x3e3d8eb5	0.1851147
254	0xbd566228	-0.052339703
255	0x3e5f612d	0.21814413

gru.bias_ih_l0 f4 [30]
0	0xbda71360	-0.08157992
1	0x3eb7fcdb	0.359351
2	0xbd88f668	-0.06687623
3	0x3e7fe39f	0.24989174
4	0x3ac2fedb	0.0014876978
5	0x3cc8694f	0.024464278
6	0xbdc46092	-0.09588732
7	0xbe119563	-0.14217143
8	0xbe8907e7	-0.26763842
9	0xbe65dd5e	-0.22447726
10	0x3d3c6311	0.045992915
11	0xbe7cead9	-0.24698962
12	0xbe8fae0c	-0.28062475
13	0x3d20c984	0.03925468
14	0x3d9aca74	0.07558146
15	0xbeb951e1	-0.3619528
16	0x3e094e7d	0.13408847
17	0xbe3442c9	-0.17603602
18	0x3e95db7a	0.2926901
19	0xbe94041b	-0.28909382
20	0xbd40692d	-0.046975303
21	0x3df6d70f	0.12052738
22	0xbe9b5c1b	-0.30343708
23	0x3db57586	0.088603064
24	0x3e8cba8f	0.27486083
25	0x3e0edc66	0.13951263
26	0xbd9b3b5f	-0.075796835
27	0x3e4eb65b	0.2018675
28	0xbda6c906	-0.08143811
29	0x3d8c744a	0.06858118

gru.bias_hh_l0 f4 [30]
0	0x3e405fe0	0.18786573
1	0x3e868547	0.26273558
2	0xbe7b2c9f	-0.2452874
3	0x3e7c20c6	0.24621877
4	0xbdd44ffe	-0.1036682
5	0xbeddc1ff	-0.4331207
6	0xbd3b7b0e	-0.04577165
7	0xbdd6d093	-0.10489001
8	0xbf0987ab	-0.5372264
9	0xbec31996	-0.38105458
10	0xbdfa708e	-0.12228499
11	0x3db2b827	0.087265305
12	0x3c50c37b	0.012741919
13	0x3dcad35f	0.09903597
14	0xbd915e2c	-0.0709804
15	0xbe3c3d6e	-0.18382809
16	0x3bbf145e	0.0058312854
17	0xbe25d4c4	-0.16194445
18	0xbdd7e33c	-0.105413884
19	0xbd3bab28	-0.045817524
20	0xbee665b6	-0.44999474
21	0xbef9382a	-0.48675662
22	0x3ef40a88	0.47664285
23	0xbee94bb4	-0.4556557
24	0xbe58ba65	-0.21164854
25	0x3ee6d66d	0.4508547
26	0xbe5aee5e	-0.21379992
27	0x3e0e80f0	0.13916373
28	0xbee6901a	-0.45031816
29	0xbdc5fe1c	-0.09667608

lin.weight f4 [9, 10]
0	0x401c70da	2.444388
1	0x4011d225	2.2784512
2	0xc0231952	-2.5484204
3	0xbf4c8eae	-0.7990521
4	0xc03cb99e	-2.9488292
5	0x3f9cfbca	1.226434
6	0x3feb5108	1.8384104
7	0xbfd8774b	-1.6911405
8	0xc047214d	-3.1114075
9	0x404ba466	3.181909
10	0x4028d9c1	2.6382906
11	0xbfb4f1d4	-1.41363
12	0x4036eff8	2.8583965
13	0x3f560ab7	0.836101
14	0xbfb358c8	-1.4011469
15	0xbfafb8ad	-1.3728234
16	0xbf975300	-1.1822205
17	0x40555da6	3.3338408
18	0xc04d9c4e	-3.212665
19	0xc06cc849	-3.6997244
20	0x3fbe8932	1.4885619
21	0x4018bbb8	2.3864574
22	0x403c33db	2.940665
23	0xc0a4ab1e	-5.1458883
24	0x401e736d	2.475795
25	0xc00a8afc	-2.164733
26	0xc0090aa4	-2.1412745
27	0xbf769d9d	-0.9633425
28	0x3fbc245b	1.4698595
29	0x3fc1d4d9	1.5143081
30	0x3eaa51db	0.33265576
31	0xc0412d93	-3.0184066
32	0xc013a838	-2.3071423
33	0xc01448e9	-2.31695
34	0x4029e9c0	2.654892
35	0x405b721f	3.4288404
36	0x4013d3b0	2.3097954
37	0xbfc28ba8	-1.519887
38	0x3f7d6a6f	0.9899053
39	0xc0812f2f	-4.0370097
40	0x3fc055b4	1.5026155
41	0xc02e52a3	-2.7237937
42	0xc062ccbf	-3.5437467
43	0x3faf90dd	1.3716084
44	0x3fb7291a	1.4309418
45	0xc050f995	-3.2652333
46	0xbebeb171	-0.37244752
47	0x4041f8ac	3.0308027
48	0x403533fe	2.8312984
49	0x403e9b1b	2.978217
50	0xc0590c46	-3.391374
51	0x405c0eee	3.4384112
52	0xbfb43e7a	-1.4081566
53	0x3ec8e9a1	0.39240745
54	0xc03698be	-2.8530726
55	0xc01426bc	-2.3148642
56	0x3e8dad9c	0.27671516
57	0x3e1e48fb	0.15457527
58	0x40620b4b	3.5319393
59	0xc0475356	-3.1144614
60	0xbf0e2547	-0.5552563
61	0x40428e60	3.0399399
62	0x40254aa1	2.58268
63	0x40038e67	2.0555665
64	0x401b8050	2.4297066
65	0x406a0f1f	3.657173
66	0x4026d7b1	2.6069148
67	0x4076d6dd	3.8568642
68	0x3f9217dc	1.1413531
69	0x3fefe0b7	1.8740453
70	0xc0695533	-3.6458251
71	0xc00c9a05	-2.1969006
72	0x400d2051	2.2050974
73	0x3fde5b17	1.7371548
74	0x3fcc2122	1.5947611
75	0xc03c2af4	-2.9401217
76	0x3fedc3ee	1.8575418
77	0xc03717cd	-2.8608277
78	0xc023e2c1	-2.560715
79	0x3fcaaf9f	1.5834845
80	0x3d98ba48	0.07457405
81	0xbfa891fa	-1.3169549
82	0x3fd0b9b2	1.630667
83	0x4038587c	2.8804007
84	0xbf8e8fed	-1.1137673
85	0x405ccac6	3.4498763
86	0xc07f108d	-3.9853852
87	0xc031971a	-2.7748475
88	0x401d8e69	2.461817
89	0x3fb7957f	1.4342498

lin.bias f4 [9]
0	0x3e7881ce	0.24268267
1	0x3e8854a6	0.26627082
2	0x3e9d5815	0.30731264
3	0x3ef686e1	0.4814978
4	0xbe94d3be	-0.29067796
5	0x3ee54aa3	0.44783506
6	0xbf1181bf	-0.568386
7	0xbe50a434	-0.20375139
8	0xbeb88a5f	-0.3604307
